dig_bk_v1.tflite (tflite, 766432 bytes, 12 tensors)

sequential/conv2d/BiasAdd/ReadVariableOp/resource f4 [32]
000000 32 f1 34 bd 89 a9 49 bd 5c 28 aa bd 30 b9 5e bc
       -0.044175334 -0.049233947 -0.08308479 -0.013593957
000010 f9 c8 65 bd 8c 43 1e bd 4f 1e 8b 3d 92 00 80 bd
       -0.056099866 -0.038638636 0.0679289 -0.06250109
000020 ea f3 81 bd 77 85 c5 3c 02 f5 7a bd a8 9c 61 bd
       -0.06345351 0.024111493 -0.061268814 -0.05508104
000030 cb da 55 bd bb d4 e4 bd d3 cc eb bb f5 b4 04 bc
       -0.05221061 -0.111733876 -0.007196048 -0.008099784
000040 7c 7f 8b bd a1 74 ab bd 79 39 3b bd f2 65 8f bd
       -0.06811425 -0.083718546 -0.045709107 -0.070018664
000050 a4 76 0f bd 59 f5 29 bd d5 7a bd bd 1a b7 b5 bd
       -0.035025254 -0.041493747 -0.09251944 -0.088728145
000060 57 0f 59 bd 12 de 84 bd 47 ab 1c 3c bc 1f 20 bd
       -0.052993145 -0.06487669 0.00956232 -0.039092764
000070 32 bd a2 bc 2e a8 8a bb 24 e5 e7 bc 2a f5 c4 3c
       -0.019865606 -0.0042314744 -0.028307505 0.024042685

sequential/dense/BiasAdd/ReadVariableOp/resource f4 [256]
000000 d1 ff c4 bc 56 55 93 bc 31 68 62 3c b6 ed 9c bc
       -0.024047764 -0.017985027 0.0138187865 -0.019156318
000010 dd c4 83 bc 31 6e 95 bc 29 a5 62 bc 6d 93 e4 bc
       -0.016085083 -0.01824102 -0.013833323 -0.02790233
000020 25 ee af bc fb 2a 72 3c ae 5f bf bc f7 bd 0e bd
       -0.02147586 0.014780755 -0.023361053 -0.034849133
000030 7d 45 80 3a c2 a0 05 3d 9d 20 6e 3d 3d db da bc
       0.0009786334 0.032624014 0.05813657 -0.02671587
000040 ca ae 29 bb ee 6e e3 bc 52 71 25 bc ae 8d 4f bb
       -0.0025891536 -0.027762856 -0.010097818 -0.003167014
000050 23 14 a7 bc cf 01 c6 3c f4 af db bc 40 0f 4d bc
       -0.020395344 0.024170784 -0.0268173 -0.012515843
000060 d0 54 b8 3c 42 58 b8 bc ac 9c 91 3c 80 6e d4 bc
       0.02250138 -0.022503022 0.017774902 -0.025931597
000070 28 d9 8e 3c 94 43 17 bc 42 f2 ed bb 04 54 9c bb
       0.017437533 -0.0092324205 -0.0072615454 -0.0047707576
000080 b0 8a f7 bc 72 a0 3d ba 08 77 a7 3c d3 e6 8c bc
       -0.030217499 -0.0007233686 0.0204425 -0.01719991
000090 c1 24 33 bd 35 b3 4b bc 92 0a f1 bb 22 83 ea bc
       -0.043736223 -0.012432863 -0.0073559964 -0.028626982
0000a0 90 6a 8a bc 94 6c 82 3c 44 04 1f bc 8f ed c0 bc
       -0.016896516 0.015920915 -0.009705607 -0.023550777
0000b0 40 dc 55 bc 2e 68 93 3c 5e dc e8 bc 78 b1 00 bb
       -0.013053 0.017994013 -0.028425392 -0.001963703
0000c0 58 03 a9 bc a8 31 00 3a fb 96 42 3c e0 d5 b3 bc
       -0.020631477 0.0004890212 0.011876817 -0.02195257
0000d0 15 90 a4 3c c8 fb fa ba 57 2d 89 bc 3d c5 31 bd
       0.020088235 -0.0019148523 -0.016745253 -0.04340099
0000e0 2d cf 9b 3b ab 7b 93 bc 11 65 ac b9 91 b6 d8 ba
       0.004754922 -0.018003305 -0.00032881697 -0.0016533901
0000f0 ef 32 3f bc e0 69 8d bc bc 63 bf bc 31 4b 92 3a
       -0.011669858 -0.0172624 -0.023362987 0.0011161325
000100 78 af 25 3d 52 b8 47 bc 66 c1 d2 bc 9f f4 64 bc
       0.040450543 -0.0121899415 -0.025726985 -0.013974338
000110 ef 51 3f 3b 19 08 d2 bc 46 47 31 bc 77 15 f4 bc
       0.0029193123 -0.025638627 -0.010820216 -0.029795391
000120 51 fd fc bc e1 61 15 3c 18 cd eb 3a 69 f2 b3 bc
       -0.03088251 0.009117574 0.00179902 -0.021966176
000130 2e 52 96 bb 52 2f 12 3d f5 21 90 3b ce 3c e7 38
       -0.0045874333 0.03568966 0.0043985792 0.00011026264
000140 e1 e7 0b bd eb ef c3 ba 58 d4 61 3c ed bb 31 3c
       -0.034156684 -0.001494882 0.013783537 0.010848028
000150 d7 c6 3e bc cf d1 04 bd 17 af 06 3c 1a 34 c6 bc
       -0.011644087 -0.03242665 0.008220456 -0.024194766
000160 48 f7 f4 bb a6 4a 8d bc 47 82 14 3c 77 dc 0b bd
       -0.0074757673 -0.01724751 0.009064264 -0.0341458
000170 fb a7 c1 bc 9a 76 22 3c 0a fc f7 bc 0d 37 a6 bc
       -0.02363967 0.009915972 -0.030271549 -0.020289922
000180 37 52 3f bd 35 01 b5 3c dd 82 24 bd fa a0 c7 3c
       -0.046709266 0.022095302 -0.040163863 0.024368752
000190 47 d4 74 bc 83 1f 0b bd 83 dd b7 bc d4 08 8c 3c
       -0.014943189 -0.0339656 -0.022444492 0.017094053
0001a0 c1 53 32 3c 66 b5 a8 bc 56 11 3e bb b9 07 c9 3b
       0.010884226 -0.02059431 -0.0029002032 0.006134954
0001b0 52 3c 3b bd 6c 0d 0b bc 1d b4 b2 bc a2 23 8e bc
       -0.045711823 -0.008487087 -0.0218144 -0.017350975
0001c0 d1 da db bc 13 af ce 3b 15 34 e1 bb 35 c8 c3 bc
       -0.026837738 0.0063074916 -0.0068726637 -0.023899177
0001d0 ae 82 06 bd 70 23 ac 3a 4a 95 74 3d a5 d4 0d 3c
       -0.03283947 0.001313312 0.059712686 0.008656655
0001e0 1e 4d 93 bc 5c 28 9d 3c ed 51 4a bb 00 18 49 bd
       -0.017981108 0.019184284 -0.0030871585 -0.049095154
0001f0 b2 aa bc 39 12 d7 00 3d 3b 90 31 bb 70 29 86 3b
       0.00035985332 0.031455107 -0.0027094025 0.004094295
000200 57 3e a5 3c 57 47 d8 3c bf 0a 0c bc df 50 b8 bc
       0.020171328 0.026401205 -0.008547484 -0.0224995
000210 32 eb 3a bc b2 93 57 bc df 91 19 bd 1d 36 f0 3b
       -0.011408614 -0.013157772 -0.03749263 0.0073306696
000220 76 e1 be bb 09 cf 11 3c 20 50 a0 bc 48 a7 31 bc
       -0.005825217 0.008899459 -0.019569457 -0.010843106
000230 a4 c3 d7 bb f5 a2 fa 3c db fb 92 bc 92 ca 55 bc
       -0.0065846015 0.030595282 -0.01794236 -0.013048785
000240 83 22 5d 3c 3e 08 9c bc 0f 4f 18 bc db e7 c2 bb
       0.013496998 -0.019046899 -0.009296193 -0.0059480495
000250 87 d9 fa bb 22 a3 1e bc 99 68 60 bd 45 fd f6 bc
       -0.007655326 -0.009682449 -0.054787252 -0.030150065
000260 5a 2b 69 bc 70 ee 93 bc 40 5a 20 bd 99 0a 81 bc
       -0.014231527 -0.018058032 -0.03914857 -0.015752124
000270 f0 4f 3c 3c c9 6e f9 bc d2 75 3b bc a6 7b 0d 3d
       0.011493668 -0.030448334 -0.011441665 0.03454175
000280 02 c7 0b 3c c6 3a 14 bd 56 e7 b3 3c 04 d8 05 bd
       0.008531334 -0.036188863 0.021960896 -0.03267671
000290 fe 35 5c bc 64 49 03 bd 56 00 46 3a 64 d7 2d 3c
       -0.013440607 -0.032052413 0.00075531506 0.010610435
0002a0 03 eb 1f 3c 3f ae dc bb 70 bf 42 bc fe c6 7d bc
       0.009760621 -0.006734639 -0.011886463 -0.015489338
0002b0 3e 5c 55 bb 97 4a 1f 3c 00 c0 b1 bc ff 76 fb bc
       -0.0032556201 0.009722373 -0.021697998 -0.03069639
0002c0 08 0e a5 bc 6c 14 51 bc a9 23 77 3c 91 ec 9c bc
       -0.020148292 -0.012761217 0.015084186 -0.019155772
0002d0 5c 7d 53 bb 17 5c ca b9 fe 3f 85 bc 7e 61 f3 bc
       -0.0032270765 -0.00038597055 -0.016265865 -0.029709574
0002e0 ee ef 53 3c 35 bc 02 bd 30 d9 ff 3b 43 22 2e bd
       0.012935622 -0.03191777 0.007807873 -0.042513143
0002f0 32 95 d3 bc fe 18 0f 3a 8b 84 16 bb 05 fb ac bc
       -0.025827978 0.0005458741 -0.0022967185 -0.02111579
000300 e8 69 85 bc 35 e9 b2 3c ec e3 41 3b 51 0e ed 3c
       -0.016285852 0.021839717 0.0029585315 0.02893749
000310 60 df 43 3c 37 01 13 b9 27 a0 c5 3c b3 85 62 bb
       0.011955112 -0.00014019465 0.024124218 -0.0034564554
000320 a9 c7 8c bb a5 96 8e bc 12 90 46 3c be e4 b5 bc
       -0.0042962623 -0.017405817 0.01211931 -0.0222038
000330 16 2e b5 bc 13 dd ab bc 0e 56 93 bc 15 2f 5b bc
       -0.022116702 -0.02097944 -0.01798537 -0.013377924
000340 04 e8 0c bb e1 57 5f 3c cb 7f 0f 3c 87 4b 22 bc
       -0.0021500597 0.013631792 0.008758496 -0.009905702
000350 59 25 37 bc 48 53 fb bc 99 4e 1e bd b3 8c 60 3d
       -0.011178338 -0.03067936 -0.038649175 0.05482168
000360 c1 c0 32 3c 42 91 b5 3c 09 f5 c5 bc f4 21 f9 3c
       0.010910214 0.02216399 -0.024164693 0.030411698
000370 fc 12 09 bc 95 77 a8 bb 41 5f a7 3b 4b b2 81 bb
       -0.008366343 -0.0051412084 0.0051077907 -0.0039580218
000380 ec d2 1f bd ad fe 0d bc b5 ec 16 3d 53 be c0 3b
       -0.03901951 -0.0086666765 0.036846835 0.0058820634
000390 ba bb 6a 3b 10 65 06 bd 55 cf b3 bc 85 28 3a bc
       0.003581746 -0.032811224 -0.02194945 -0.0113622
0003a0 f3 d9 39 bd 06 8d 19 bc 22 77 1d bc 7a cd a2 bc
       -0.04537387 -0.0093720015 -0.009610923 -0.01987337
0003b0 38 2d b1 bc 61 02 e4 bb 79 a6 0e bd cc be d3 bc
       -0.021628007 -0.0069582914 -0.03482673 -0.025847815
0003c0 77 12 9f 3c db 76 15 bd 91 0e 09 3c dc 73 55 bc
       0.019417984 -0.036490303 0.008365289 -0.013028111
0003d0 54 4f fa bb ff cc bc bc 43 84 cc bc 04 b1 97 bc
       -0.007638851 -0.023046969 -0.024965411 -0.018517025
0003e0 98 53 17 bc 24 6d bc bc 49 46 41 3c e4 29 8f bc
       -0.009236239 -0.023001261 0.011796542 -0.01747603
0003f0 fd 80 bd 3b b9 c5 9e bc 55 d0 4f bc bc 78 b7 bc
       0.005783199 -0.01938139 -0.012683948 -0.022396438

sequential/dense_1/BiasAdd/ReadVariableOp/resource f4 [11]
000000 da 77 4c bd 6d dc 22 bd d8 4a 3c bd 88 3b 70 bd
       -0.049918987 -0.039760996 -0.045969814 -0.058650523
000010 b9 f4 22 bb 03 67 9c bc 69 a1 64 bd cc a5 19 bb
       -0.0024865104 -0.019092089 -0.055817995 -0.002344477
000020 b2 86 24 3c 10 79 97 3b e5 6c ee bd
       0.0100418795 0.004622586 -0.11641864

sequential/batch_normalization/FusedBatchNormV3 f4 [3]
000000 e5 8a 12 c0 5f c8 ac bf ab c9 93 bf
       -2.2897274 -1.3498648 -1.1545919

sequential/batch_normalization/FusedBatchNormV31 f4 [3]
000000 e2 77 93 3c cc 84 8b 3c 7f b6 9c 3c
       0.0180015 0.017031096 0.01912999

sequential/dense/MatMul f4 [256, 512]
000000 44 65 c6 bc 71 2b 9c bc f3 5a 46 3d 61 d8 c5 3a
       -0.02421821 -0.019063683 0.04842658 0.0015094393
000010 c0 35 25 3c 6b e1 90 3d fd 1e a0 3c 4a 56 41 bd
       0.010083616 0.07074245 0.019546026 -0.047201432
000020 d4 bc 05 3d 3b ef 0c be 8c d5 6f bd 99 52 9f 3d
       0.032650784 -0.13763134 -0.058553264 0.07779426
000030 89 8e 0b 3d 6b 60 6f 3d 69 0c 5d bd 97 45 9c 3c
       0.03407148 0.05844156 -0.053966913 0.019076152
000040 e7 62 85 bc 01 ae a5 bd dd 0e 85 3d d9 b2 04 be
       -0.016282512 -0.08089829 0.064969756 -0.1295885
000050 cf 9c 86 3d 87 c5 a2 3d 61 e0 f7 3c 9c 13 6a 3d
       0.065728776 0.079478316 0.03025836 0.057147607
000060 de 28 dc bd eb e1 87 bd 5d 42 95 3d b3 f1 3c 3d
       -0.10749982 -0.06634887 0.072880484 0.04612894
000070 75 2c ba bd fa 74 22 bc c9 e4 a0 bd 8a 69 5a bd
       -0.09090511 -0.009915585 -0.07856137 -0.053323306
000080 be 5a 5e 3d 8d 65 b2 3d c5 45 15 3c 0a d5 3f 3d
       0.054285757 0.087107755 0.009110873 0.04683403
000090 b9 58 97 bb c4 24 43 3d cb ac 89 bd ca 19 45 3c
       -0.004618731 0.047642484 -0.06722411 0.012030074
0000a0 15 3c 04 3e b0 fa 8e 3d bf f3 ea 3c 0a 8f 6f bd
       0.12913544 0.069814086 0.02868068 -0.058486022
0000b0 53 65 13 3d b1 4d 36 bd 60 72 99 bd f8 c3 6f bd
       0.035985302 -0.044507686 -0.074925184 -0.0585365
0000c0 c1 2a 6e bd 0b ce e2 bc 63 50 1d bd a2 92 b8 bd
       -0.058146242 -0.02768614 -0.03840674 -0.09012343
0000d0 cd ca 04 3d 71 a1 5b 3d f1 f4 a0 bc 22 20 69 bc
       0.03241997 0.05362076 -0.019648047 -0.0142288525
0000e0 a7 9b 97 bd 50 7a 50 bd 9d 7a cc 3c 8c b9 c5 bb
       -0.07402735 -0.050897896 0.02496081 -0.006034082
0000f0 56 23 cc 3d 71 34 1e bd e7 62 1a bc b5 8b 55 bd
       0.09967677 -0.03862423 -0.009422994 -0.052135188
000100 f3 5a 0f 3d 12 ec 97 bd 12 77 a9 3d 72 87 7b bd
       0.034998845 -0.07418074 0.08274664 -0.061408468
000110 87 57 d3 3c 3f 37 12 bd bd 48 ec bd e7 29 90 bd
       0.025798572 -0.035697218 -0.11537311 -0.07039242
000120 4b 97 6d bd 41 70 5a 3d b5 3f 90 3c 48 b3 f6 bd
       -0.058005612 0.05332971 0.017608503 -0.12045914
000130 30 3e 82 bd a5 7d 46 bd 1b 0d a2 3d 0c 57 4f 3d
       -0.063595176 -0.048459668 0.07912656 0.050620124
000140 a0 ce 02 be 5c a4 fc bd 5d 61 52 bd 68 7e fc bc
       -0.12774134 -0.123360366 -0.051362384 -0.030821994
000150 25 29 c3 bd cd 1a 08 be 39 21 d8 bd f2 31 8b bc
       -0.09529332 -0.13291474 -0.10553212 -0.01699159
000160 0e e1 f7 bc 72 3d 9b 3c ea 02 d6 bd 22 51 e8 3c
       -0.030258682 0.018950198 -0.104497746 0.028359
000170 36 aa cf 3c ac c8 55 bb 4e 11 97 3d 25 70 a6 bd
       0.025349718 -0.003262083 0.073763475 -0.081268586
000180 f1 2e 71 bd 31 ea f8 bd ee b1 44 3d 59 e1 d4 bc
       -0.058882657 -0.121540435 0.04802125 -0.02598636
000190 07 25 d3 3d a9 5b 9a bd 04 ca 85 bd 5c 3a a9 bc
       0.10309797 -0.07537014 -0.06532672 -0.02065771
0001a0 fd 95 f1 bd 4e a7 58 3d a1 7e 23 bd 70 2f 2b bd
       -0.11796186 0.05289393 -0.039915685 -0.041793287
0001b0 e6 48 85 bd b9 98 b4 3d 60 0c 24 3d af 5d 28 3d
       -0.06508045 0.08818192 0.040050864 0.04110497
0001c0 b0 ae 20 3d 58 cf a5 3c 90 f9 65 bd 97 07 cd 3c
       0.039229095 0.02024047 -0.056146204 0.025028033
0001d0 37 37 0c bd 76 25 13 bd ea 52 42 bd ab 80 24 be
       -0.034232344 -0.035924397 -0.047442354 -0.16064708
0001e0 d3 1c 22 bd 76 0f b6 3c 87 64 1b 3d 9e 0f be bd
       -0.03957827 0.02222417 0.037937667 -0.092803225
0001f0 3e 97 c3 bd 64 da 19 3c a9 80 3e bd e0 46 bb bc
       -0.095503315 0.009390447 -0.04650942 -0.022860944
000200 14 2e f7 bc db 94 d8 3c c2 8a 87 3d ef 30 ac 3d
       -0.030173339 0.026438167 0.06618263 0.08407771
000210 dc 6e 64 bd cf 09 15 bd ad 65 82 3d d1 e2 8f bd
       -0.055769786 -0.036386307 0.06367049 -0.07025684
000220 11 9d 8e 3d 4b d0 fe bb e9 f2 ff bb 53 0f 95 bd
       0.06963552 -0.0077762953 -0.0078109396 -0.072783135
000230 6c 2d 95 bd af 8f 80 bd 1f 9e fb 3b 15 43 15 3d
       -0.07284054 -0.062774055 0.0076787616 0.036440928
000240 87 e1 a6 bd 31 31 08 bd 18 31 aa 3d 6f 78 bb bd
       -0.08148485 -0.033250038 0.08310145 -0.0915383
000250 b0 f3 c1 3d 89 57 24 3d ec 23 03 bd 7e 27 d3 bc
       0.09470308 0.040122543 -0.03201668 -0.025775667
000260 8e 91 f9 3c d2 91 87 bd b9 06 42 3d 84 a6 97 3d
       0.030464914 -0.0661961 0.047369692 0.07404807
000270 e0 2a 99 bd 9a a3 1a 3d e5 40 1a 3d 1c 5b 14 bc
       -0.07478881 0.03775368 0.037659544 -0.009054925
000280 17 c8 7b bc b8 d3 2c bd 97 11 68 3d 5f 20 4d 3d
       -0.015367529 -0.0421941 0.0566574 0.0500797
000290 e1 3e 8b 3c b5 0e 26 3d c4 9f 82 3d 2b 2c d2 bd
       0.016997756 0.04054137 0.06378129 -0.102623306
0002a0 67 25 1a bc 8e 6f da 3c 68 2d d4 bd a4 c4 9e 3d
       -0.0094083315 0.026664522 -0.10360223 0.0775235
0002b0 52 73 a9 3d d8 9f 6f bd 9c d7 f5 3c 7d 4e 1a 3c
       0.08273949 -0.05850205 0.030010037 0.009418127
0002c0 f5 83 b5 3d 78 a1 84 bd ce b1 05 bc 9a b0 a6 3d
       0.088630594 -0.0647611 -0.008160068 0.08139153
0002d0 59 28 bb bd 78 d0 7b bc 60 6a 4c 3d 6f 57 51 bd
       -0.09138555 -0.015369527 0.049906135 -0.051108774
0002e0 8d 2f ef 3c 0e ab c9 3c e9 73 eb 3c 6a c9 97 3c
       0.029197479 0.024617698 0.028741794 0.018528659
0002f0 e1 7c 2e 3a 40 31 9c 3d ba 19 24 3d 46 0b 90 bd
       0.00066561816 0.07626581 0.040063597 -0.070334
000300 8f 75 86 3d 8d f3 b8 3c 72 7d 93 3d 95 36 10 bc
       0.06565391 0.022577072 0.07201661 -0.008802076
000310 c9 9d a8 bc d7 d1 ac bd e1 ee 5a 3d ae b0 65 bc
       -0.02058305 -0.08438461 0.05345047 -0.0140191745
000320 6b f1 1d bd 5f 5c 97 3d 83 0a 6a bc 1c e4 09 bd
       -0.038560312 0.07390665 -0.014284733 -0.033664808
000330 9c a9 7c bd 87 07 6a bd 1e 95 55 3d a6 1a d6 bc
       -0.06168519 -0.057136085 0.052144162 -0.026135754
000340 7c 51 fa bd 3f 64 68 3b 85 45 16 3d 35 1d 4c 3d
       -0.12222573 0.0035460142 0.036687393 0.04983254
000350 6e c2 18 3d c3 2f 0f bc 6b 66 27 bd 97 0c 86 3d
       0.037294798 -0.008739415 -0.040869158 0.0654537
000360 c1 47 9b bd 54 9b 96 bc 9a 65 4c 3d e3 1d 83 3c
       -0.07582045 -0.018384613 0.049901582 0.016005462
000370 0d 3d a7 bd 56 4a c9 3b e5 1e 15 bb d9 1d 55 bd
       -0.081659414 0.0061428947 -0.002275401 -0.052030418
000380 69 d0 8d 3d 75 d3 05 bd 58 2b c7 3b c8 b5 cc 38
       0.06924517 -0.032672364 0.006078165 9.7613374e-05
000390 33 0b 73 bd d4 0b 3b 3d 76 b9 32 3d ad 38 41 3d
       -0.059336852 0.045665577 0.0436339 0.04717319
0003a0 1e fb 5b bd 33 ee 86 bc a5 ba bf 3b b1 87 a6 3c
       -0.05370628 -0.016471004 0.005851107 0.020328375
0003b0 96 7c 0c 3d be 63 93 3d b9 92 c4 bc 50 bb 07 bd
       0.034298502 0.07196759 -0.023995744 -0.03313762
0003c0 6a f0 0c bd 14 77 e1 3d 27 b2 b3 bd f8 7d b6 bd
       -0.034408964 0.110090405 -0.08774214 -0.089107454
0003d0 eb da 9d 3d c1 1d 17 3c 51 ea ce bd 14 fe 98 bd
       0.07707771 0.0092234025 -0.10103286 -0.074703366
0003e0 b8 49 8f 3c 40 b1 ee 3b 83 46 84 bc 36 22 8d 3c
       0.017491207 0.0072843134 -0.016146904 0.017228227
0003f0 0c cb c3 3c 75 6e a6 3d 93 64 33 3b c6 07 61 bd
       0.023900531 0.08126537 0.002737318 -0.054939054

sequential/dense_1/MatMul f4 [11, 256]
000000 b7 6c ba bd 12 b5 0a 3e 14 1c da 3d cf 5f da bd
       -0.09102767 0.13545635 0.10649887 -0.10662805
000010 38 e6 53 bd 88 d1 7d 3d 35 99 b0 3d 72 5d df bd
       -0.051733226 0.061967403 0.08622972 -0.10906495
000020 ea 71 11 3b 6b 48 05 be c5 85 ab bd 46 f4 7b 3d
       0.0022193142 -0.13015907 -0.08375124 0.061512254
000030 2e 13 17 bd 57 58 c6 bd 71 e1 6f be a7 be 49 be
       -0.036883526 -0.09684818 -0.23425843 -0.19701634
000040 44 01 30 bd e4 bf c8 bd 13 30 c8 3c 6f 56 27 be
       -0.042969957 -0.09802225 0.024436986 -0.16341566
000050 10 9a e5 3d 62 d2 41 be c2 0d 07 be 53 0b 62 be
       0.11211026 -0.18927911 -0.13188842 -0.22074632
000060 ca 57 8f bd 0f 4b cd 3b 67 d1 aa 3d 48 37 83 3c
       -0.06999166 0.006265051 0.083407216 0.016017571
000070 f1 7f f1 bc fd d6 c5 bc 3e 4d b4 bd 07 35 2c be
       -0.029479953 -0.024150366 -0.08803795 -0.16817103
000080 12 1c ae 3d 99 42 8f 3d 6f bd a4 3d 97 50 ac 3d
       0.08501448 0.06995124 0.08043944 0.08413809
000090 d9 e5 97 3d 49 f8 73 3c 19 1d d5 3c 47 68 a7 bd
       0.07416887 0.014890739 0.026014851 -0.08174186
0000a0 b7 6c d5 3d a7 24 6c 3d e7 25 de 3c bf c8 86 bb
       0.10421126 0.057652142 0.027117683 -0.0041132863
0000b0 d9 86 a0 3d 8b 6d 14 3e b9 98 49 be 7f 88 a1 bc
       0.0783822 0.14494912 -0.19687165 -0.019718407
0000c0 c1 31 0d 3d 50 5a 58 be 91 af e4 bd 96 16 28 be
       0.034471277 -0.21128201 -0.11166299 -0.16414866
0000d0 11 aa 36 bd 4b 36 d3 3d fe 33 aa 3d d9 35 14 3d
       -0.04459578 0.1031309 0.08310698 0.036184166
0000e0 fa 9a 55 be b1 ee 19 be 42 8b 3c be 11 3f 4a be
       -0.208599 -0.1503246 -0.18412498 -0.1975062
0000f0 9c 79 3b b9 96 13 ca bd 64 30 c7 3d 83 8f 0e 3e
       -0.00017879013 -0.09867017 0.09726027 0.13921933
000100 27 b2 48 be 45 af 0f be 21 0a 22 be 19 99 2c bc
       -0.1959921 -0.14031704 -0.15824176 -0.010534548
000110 54 d7 4f 3d 2f 1b ea bd 23 20 e5 b9 aa 0b e3 3d
       0.050742462 -0.11430966 -0.00043702227 0.11086209
000120 25 76 22 bc 55 e1 85 bd 50 a8 35 bb 40 78 de bd
       -0.009915863 -0.06537119 -0.002771873 -0.108627796
000130 a4 7d 94 3d d9 f6 a4 3d 07 af 58 bd 9c 32 ed 3b
       0.072505265 0.08054895 -0.052901294 0.007238699
000140 83 b9 53 be ee e6 26 bd cf 58 2a be bc 4b 23 be
       -0.20676236 -0.040747575 -0.1663544 -0.15946859
000150 89 b9 3b bd 73 0b a3 bc e1 e7 c1 3d 3e a7 1f 3e
       -0.045831237 -0.01990292 0.094680555 0.15591142
000160 0e d1 49 be 0c a6 c5 3c 1c 3a b2 bd 1e 5e e3 bd
       -0.19708654 0.024127029 -0.0870249 -0.11101936
000170 a8 ac f5 bd 93 f0 36 be 7b df 99 3d 21 c3 e5 3c
       -0.11995822 -0.1786521 0.07513329 0.028047146
000180 62 84 82 bd c0 37 95 3d eb 20 a8 bd 68 47 f5 3c
       -0.06372906 0.07286024 -0.082094036 0.029941276
000190 17 43 44 bd 8a 3b 05 3e 73 77 b8 bc 21 a1 25 be
       -0.047915544 0.13010994 -0.022517895 -0.16174747
0001a0 3c 88 95 bd 27 b1 6c bc de bf 82 3d ee fe 71 bd
       -0.07301375 -0.014446533 0.06384252 -0.05908101
0001b0 ce 3f da bd 97 55 77 be 35 13 5a 3d 86 24 e3 bd
       -0.10656701 -0.24153744 0.053240974 -0.11090951
0001c0 b7 63 64 bd f5 77 ef 3b 9b 7c 26 be 56 ca 8e bd
       -0.055759158 0.007308001 -0.1625847 -0.06972186
0001d0 38 e1 8d bd d8 b4 63 be 1a d1 d1 bd 35 37 56 be
       -0.06927723 -0.22236955 -0.10244961 -0.20919497
0001e0 5f 0e d7 3d 53 fa 19 be 23 eb 04 be ac fd 9e 3d
       0.10500788 -0.15036897 -0.12980323 0.07763228
0001f0 80 0e a9 3c 6b 1b 1e be 1c 86 8d 3d 12 fd df 3c
       0.020636797 -0.15440147 0.06910345 0.027342353
000200 c6 e4 41 be ae 36 28 be d9 79 c2 3d 57 8d 8b bd
       -0.18934926 -0.16427109 0.09495897 -0.06814068
000210 17 0e 82 3b 0e 5f 98 bd 99 db e5 bd ec 41 32 be
       0.003968965 -0.07440005 -0.112235256 -0.1740796
000220 25 2c fb bd e2 71 9b bd 0f 18 18 be d2 6d 6a 3c
       -0.12264279 -0.07590081 -0.14852928 0.01430841
000230 a6 97 4a be e3 ed 8c bd d0 38 8a 3c 30 31 96 bd
       -0.19784412 -0.06881311 0.016872793 -0.073336005
000240 a0 7b 43 be 93 08 12 3d ab 80 46 3d f5 c5 38 bd
       -0.19090128 0.03565271 0.04846255 -0.04511066
000250 2d fd cb 3d f7 71 6d 3d 18 f7 d7 3d 52 da f9 3d
       0.09960399 0.057970013 0.10545176 0.121998444
000260 98 3a 4a be 87 53 19 3d 39 09 88 3d 7c 68 91 3d
       -0.19748914 0.037433174 0.06642384 0.07100007
000270 3b 15 72 bd 2d 2f db bd ba f3 8d bc 3f 45 59 be
       -0.05910228 -0.107023574 -0.017328132 -0.21217822
000280 ff 1e fb bd f6 ea af bd aa 9c 0d be 60 56 0e 3c
       -0.122617714 -0.08589737 -0.13829294 0.008687586
000290 dd 25 f1 bd 43 87 99 bd 0a 66 98 3c 5c 4d 3a be
       -0.117748 -0.07496502 0.018603344 -0.18193573
0002a0 da d3 3e be cf 7e 07 be 63 07 bb 3d e2 86 ee 3d
       -0.18635502 -0.13231967 0.09132268 0.116468206
0002b0 5d 1e 29 be 5a 44 d3 3c ac 40 09 3e 91 29 76 3a
       -0.16515489 0.025789429 0.13403577 0.0009390349
0002c0 d4 7d 82 bc d6 dd 31 be c3 70 44 3d 61 56 db bd
       -0.01592914 -0.1736978 0.0479591 -0.10709835
0002d0 b9 96 43 be dc e1 27 be de 2b a2 bd 27 8f 1f bd
       -0.19100465 -0.16394752 -0.07918523 -0.03895488
0002e0 84 61 5b 3d 53 73 2d 3d e1 54 86 3d d4 96 8e bd
       0.053559795 0.04234631 0.06559158 -0.06962362
0002f0 6d ca 3d 3d fa 0f 3e be 7a 91 cd bd fa 15 e3 3c
       0.046335626 -0.18560782 -0.10037513 0.02772044
000300 69 4f 33 be 14 3d d2 3b 36 e0 3e be 0d a8 0d be
       -0.17510761 0.0064159725 -0.18640217 -0.13833638
000310 3d b5 41 be d3 53 33 3d 1b 00 0f be f5 93 ad bd
       -0.18916793 0.043781113 -0.13964884 -0.08475486
000320 8b 78 dc 3d c7 0e c1 3c d4 4d a9 3d 6b bf f3 3c
       0.10765179 0.023566617 0.08266798 0.029754361
000330 ee bd 10 3d 98 41 51 3d 1e a6 5f bd c9 0c 1b 3e
       0.03533738 0.051087946 -0.05460178 0.15141596
000340 bd 99 fa bb 99 6d 6c 3c d3 22 5d be 6d 67 69 bd
       -0.0076477216 0.014430427 -0.21595316 -0.0569834
000350 dc 39 52 bb c3 db ae bb 3c d3 f5 3d f5 37 50 be
       -0.0032077944 -0.005336256 0.120031804 -0.20333846
000360 fe 19 41 3d 6f 06 46 be d8 9b b6 3d 04 71 39 be
       0.04714393 -0.19338392 0.089164436 -0.18109518
000370 08 9c 30 3d 28 1a 0e be 98 6d 9d bc 28 ff 2b be
       0.043117553 -0.13877165 -0.019217297 -0.16796553
000380 41 cd 15 be 1f 6e 7f bd 23 6c bb bc 1f 8d 28 be
       -0.1462908 -0.06236088 -0.022878712 -0.16460083
000390 87 da 1a bd b1 09 14 be 56 b1 29 be 9b c0 24 bd
       -0.03780606 -0.14456822 -0.16571555 -0.040222745
0003a0 52 9b 29 3d 1f 5e 1e 3c 1a e2 8f bd f3 37 ab bd
       0.04140789 0.009665995 -0.07025547 -0.08360281
0003b0 a4 13 4f bd 78 ed 93 bd e6 c7 a1 3d 97 12 0c 3e
       -0.05055584 -0.07223028 0.07899456 0.13678966
0003c0 0e 7e 26 be b5 97 e6 3d 5f bb 94 3c db 75 4b be
       -0.16259024 0.112594046 0.018155752 -0.19869177
0003d0 48 b3 2b bd f8 21 21 be 7b 7a 83 3d c4 3b 9e bd
       -0.041919023 -0.15735614 0.06419846 -0.07726243
0003e0 60 2f fc bd a1 12 92 bd af 43 ce 3d 23 5b c4 bd
       -0.123137236 -0.071324594 0.10071503 -0.095876954
0003f0 4b 2d 01 3e 17 04 01 3d 06 e5 20 be de 7b 0a 3e
       0.12614934 0.03149804 -0.15712366 0.13523814

sequential/conv2d/Conv2D f4 [32, 3, 3, 3]
000000 15 af 35 3d b9 81 12 be 5c d5 51 3d 7f 69 01 be
       0.044356424 -0.14307298 0.051228866 -0.126379
000010 4b 1e 95 bd c9 b7 8b 3d 41 72 0d be d3 a0 a1 3d
       -0.072811686 0.068221636 -0.13813116 0.07892003
000020 30 72 7b bc ae af 8f 3d 97 3d 16 be ff 0b b9 bd
       -0.015347049 0.0701593 -0.14671932 -0.09035491
000030 2f a6 97 bc f4 df 59 bd df 98 69 bd a0 42 c6 bd
       -0.01851186 -0.053192094 -0.057030555 -0.096806765
000040 c3 77 36 3d 2a 8a 50 bd 17 ed ae 3d 27 72 b5 3d
       0.044547807 -0.050913014 0.08541315 0.088596635
000050 27 30 9b bd ea 83 08 3e 14 ab 5a bd 41 2b f3 3d
       -0.07577544 0.13331571 -0.05338581 0.118734844
000060 3f ff 04 3e 57 27 fc 3d 50 e3 f1 bc df 78 94 3b
       0.12987994 0.12312191 -0.029527336 0.0045310105
000070 54 58 ca bd 1d e7 dc 3d a0 2d f0 bd 15 a3 5a 3b
       -0.098801285 0.10786269 -0.11727452 0.0033361365
000080 1a 1f 33 3d da bf 21 bc 61 b8 10 3e 55 30 6a 3c
       0.043730833 -0.009872401 0.14132835 0.01429375
000090 21 f1 b6 3d af fc bb bd 3e c1 b1 3d 98 4e 3b bd
       0.089327104 -0.09179055 0.08679436 -0.04572925
0000a0 23 a1 89 3d 11 3f 2f bd 10 3a f9 bd ab 46 df bc
       0.067201875 -0.042784754 -0.12169278 -0.027255377
0000b0 b4 db 3a 3d 08 ca b3 bd ad 21 24 3e 76 4d 42 bd
       0.04561968 -0.08778769 0.16028471 -0.047437154
0000c0 f7 25 f2 3a c3 ad 86 3d ee a7 34 bb 61 00 ee bd
       0.0018474449 0.06576111 -0.0027565914 -0.11621166
0000d0 bb 79 2e 3e 79 b1 88 bd b5 a8 41 3d c4 4e 01 3e
       0.17038624 -0.06674475 0.047280032 0.12627703
0000e0 16 69 c3 3d dc aa 33 3d f1 a8 81 3d 11 fb f1 bd
       0.09541528 0.043864116 0.06331051 -0.11815465
0000f0 7b c9 1c be 6d 8e 30 be 09 2b 6c be 4f 38 f9 3d
       -0.15311234 -0.17241831 -0.23063292 0.12168943
000100 eb 6f 27 3d 9e ba 66 3d 59 69 97 3d 4e fd 4f bd
       0.040878218 0.056330316 0.0739314 -0.05077868
000110 bd 29 8a 3d 6f 85 44 be 00 ef 2d bd 87 1d 14 be
       0.06746242 -0.19191526 -0.042464256 -0.14464389
000120 00 08 68 bd d3 37 2e 3e 3f 84 f7 3d 8f 5b 44 3d
       -0.056648254 0.17013483 0.12085771 0.04793888
000130 a6 5f 52 3d 75 1b c5 3d d4 ce c7 bd 0e 9b d3 3d
       0.05136075 0.09624378 -0.09756246 0.10332309
000140 e8 31 10 be 35 5a 07 be 17 c6 e8 3d b5 26 8c 3d
       -0.14081538 -0.13218005 0.11365908 0.0684332
000150 c4 4b 59 3d 5c 03 3c bd 55 ae db 3d 6f 41 21 be
       0.05305077 -0.04590164 0.107266106 -0.15747617
000160 57 7f eb 3d 33 ee db 3d f6 6d de bd ca d4 7e bd
       0.114988975 0.10738792 -0.10860817 -0.06221465
000170 82 05 d2 3d 91 3b 90 3d 5b f1 36 3e fd bc 01 be
       0.10254957 0.070426114 0.17865507 -0.1266975
000180 02 09 0b be 85 ad c3 3d 6f 98 86 3d e7 89 ab bd
       -0.13577655 0.095545806 0.06572043 -0.08375912
000190 b4 ea d6 bd 7d 19 09 bd e9 ec a5 3d 3e fa 82 3d
       -0.10493985 -0.033471573 0.08101828 0.06395386
0001a0 03 ba 98 3d 56 b4 2f bd db 02 d8 3d 3f d2 21 3c
       0.07457354 -0.04289659 0.1054742 0.009876787
0001b0 df 91 09 be 57 31 49 be c0 7e f8 bc 98 f9 18 bd
       -0.13434552 -0.19647728 -0.030333877 -0.037347406
0001c0 36 56 ee bb b2 dd 5a bc 1d d7 90 3d 9c f9 ea bd
       -0.0072734607 -0.01335852 0.070722796 -0.114733905
0001d0 c9 09 06 bc 7b 1a b7 bd 7b 79 a0 bd a6 d5 8b 3d
       -0.008181044 -0.089405976 -0.078356706 0.068278596
0001e0 d9 47 c8 bd b2 4a e0 3d 9d 15 0a bd 23 3f 1e 3e
       -0.09779329 0.10951747 -0.03371202 0.15453772
0001f0 f2 19 92 3d ea e3 1a 3d 2d 11 c7 3d 8e e8 3f bd
       0.07133855 0.037815012 0.09720073 -0.04685264
000200 63 3a 1c 3e 2e a2 35 bd a6 c7 d8 3d 5e 50 fc 3d
       0.15256648 -0.04434412 0.10584955 0.12320016
000210 72 d7 47 bd 3c 9e b0 bd 7e 3f 71 3c 21 3e 14 3c
       -0.04878945 -0.08623931 0.01472461 0.009048016
000220 ad 08 4d bc b6 e8 d4 bd 72 b7 1b be 9a 18 34 3b
       -0.0125142755 -0.103959486 -0.15206698 0.0027480484
000230 8e 34 d9 bb c8 2a ec bb 72 de 84 bd 9d 5d bb bd
       -0.0066285795 -0.0072072484 -0.064877406 -0.09148715
000240 56 b1 c4 3b d5 15 d4 bd cf 41 3d be ee a0 1a 3e
       0.0060025854 -0.10355727 -0.18482135 0.15100452
000250 b2 1b e2 3d e2 56 9a bc 1b 66 2d 3e b2 c7 25 3e
       0.11040439 -0.018840257 0.16933481 0.16189459
000260 4c 5f 37 bd 48 77 56 3d 3d b7 fe 3c d4 99 4d bd
       -0.044768617 0.05235985 0.031093234 -0.05019553
000270 f3 ba 2a 3d e3 19 da 3d b0 8f ae bd 51 e7 83 3c
       0.041682195 0.10649469 -0.085235 0.016101511
000280 15 50 f5 3c 07 f0 59 3c f1 c7 e1 3d b9 f2 c0 bc
       0.029945413 0.013301856 0.11024464 -0.02355324
000290 6d 32 87 bc 48 02 82 3c 35 a9 7f bd 9c 2c 29 bc
       -0.016503537 0.015870228 -0.062417228 -0.010325577
0002a0 cd fc f6 bd f3 ae 0c be 9d 02 27 3c cc a6 86 3d
       -0.12059937 -0.13738613 0.010193494 0.06574783
0002b0 36 a5 cd bd 09 72 b8 3d 8d 8b 33 3e 84 f0 12 be
       -0.10041277 0.090061255 0.17533703 -0.14349562
0002c0 91 bf d2 bd 3d b6 17 3e 4c 6e 3b 3d 4e ee 92 bc
       -0.10290445 0.14815612 0.045759484 -0.017935898
0002d0 84 8f cd 3d b1 ea 28 bd a9 ad 59 3d 5d 5d 3c 3d
       0.10037139 -0.041239444 0.05314413 0.045987476
0002e0 9a 84 fb bd 8c 3a ef 3b 00 3e 5e bd a4 ff 64 39
       -0.12281151 0.0073006805 -0.054258347 0.00021839008
0002f0 6e af e8 bd 10 b1 0e 3d fd 82 23 3d 4b c1 2f bd
       -0.113615856 0.03483683 0.039919842 -0.042908948
000300 0c 86 6e bd 4d 03 c5 3c c8 d1 ef 39 01 c9 95 3d
       -0.058233306 0.024049425 0.00045741932 0.07313729
000310 b4 bf 80 bd ff a1 01 3e 3c 1b de bd f1 47 14 be
       -0.062865645 0.12659453 -0.10845038 -0.14480568
000320 b0 62 da 3d b5 5c bd 3d df fc 0c be 3b 28 09 3e
       0.106633544 0.09246198 -0.13768338 0.13394253
000330 cc 51 d1 3d 94 10 92 bb fb d1 c6 3d 1e 32 99 3d
       0.1022068 -0.0044575427 0.09708019 0.07480262
000340 b1 df b6 3d 71 d4 65 3d 49 ac 0b be cc 03 bf bd
       0.089293845 0.056110803 -0.1363994 -0.09326896
000350 4a fc dc bb d1 1f cf bd d0 37 13 be 23 f1 b7 3c
       -0.0067439424 -0.101134904 -0.1437676 0.02245385
000360 ef d8 04 3d 4c 12 87 3d f8 6c 17 bd ba e1 f2 bc
       0.032433446 0.06595287 -0.036969155 -0.02964865
000370 50 a2 40 bc 92 27 49 3e de b8 30 3e 86 dd 5a 3d
       -0.011757448 0.19644001 0.17258021 0.053433917
000380 0b bb 0e 3e 60 44 e3 bb a4 5f 74 bc 93 60 f3 bd
       0.13938539 -0.006935641 -0.014915381 -0.118836544
000390 04 05 2f be 70 74 be bd 4a d6 92 3c 31 9b e9 bd
       -0.17091757 -0.092995524 0.017924447 -0.114065535
0003a0 a4 a6 9f bd f7 18 08 3e 02 74 7e 3d 31 5f 55 bd
       -0.07795456 0.13290773 0.062122352 -0.052092735
0003b0 c5 5c 45 bd b1 80 f3 bd 21 89 3d 3c 07 93 37 bd
       -0.048184175 -0.1188978 0.011568339 -0.04481795
0003c0 ac f9 ce b9 1c 83 9e bb bd 5d d1 3c 6b 5d cb 3d
       -0.00039477402 -0.004837407 0.025557393 0.099299274
0003d0 5c 7c 03 be f5 81 88 bd 36 e9 af 3d 9a e6 66 bd
       -0.12840408 -0.06665412 0.08589403 -0.056372263
0003e0 43 6a cf 3d b8 84 e1 3d f9 7a 95 3d 04 96 f0 b9
       0.1012769 0.11011642 0.07298846 -0.00045888138
0003f0 0c 9c 85 bd 27 1a 88 3d 12 ea 93 bc c5 0a 2d be
       -0.06523904 0.06645613 -0.01805595 -0.1689864

sequential/conv2d_1/Conv2D f4 [64, 3, 3, 32]
000000 6a d0 c3 3c cc f0 a4 3d f8 9f dd 3c 0c d0 90 bd
       0.02390309 0.08053741 0.027053818 -0.07070932
000010 8f 79 07 be 02 d7 3e 3d 7a f2 ba 3c 9e fc b9 3d
       -0.13229965 0.046591766 0.0228207 0.09081386
000020 09 33 7e 3c 51 13 f8 bd 4f 3a 4b 3d c4 ad d9 bc
       0.015515097 -0.12113059 0.049616154 -0.026572116
000030 d4 73 85 3d 7e 96 39 bd 35 09 19 bc a5 6e b9 bb
       0.06516233 -0.045309536 -0.009340574 -0.005658942
000040 50 2a bc 39 70 54 04 3d 83 2c 5a bc 99 13 42 bb
       0.0003588968 0.03230709 -0.0133162765 -0.0029613732
000050 1f 65 a4 3b d3 20 de 3d b2 19 61 bd 43 79 8a 3d
       0.0050169374 0.108461045 -0.054956146 0.0676141
000060 08 45 af 3d 6e d3 97 3c ca dd 51 3b a4 72 49 bc
       0.085580885 0.018533435 0.0032023066 -0.012295399
000070 68 df 5c bd b4 e7 2b be 18 ec 01 bd 1f 01 55 bd
       -0.053923994 -0.16787606 -0.031719297 -0.052003022
000080 6e 16 c9 3d a1 16 9b bb 1d 63 0b be af 91 a8 bd
       0.09818731 -0.004732922 -0.13612027 -0.08230912
000090 37 4b 5e bc bb cf 19 bb 79 33 22 bd 6b 0d 29 ba
       -0.013567737 -0.0023469764 -0.03959987 -0.0006448838
0000a0 8d 5f 82 bd c3 ed cc 3b 8e 11 26 3a 2a 61 36 3d
       -0.06365881 0.0062539293 0.00063350133 0.044526257
0000b0 e9 91 14 bc e5 73 02 be fb 66 98 3d 67 51 2d 3d
       -0.009067991 -0.12739523 0.07441517 0.04231396
0000c0 86 f8 ab 3d 9a d9 d3 bd b3 7e 18 3d fc 61 45 bd
       0.083970115 -0.103442386 0.037230205 -0.04818915
0000d0 12 12 df 3d 57 64 c0 3d 63 78 88 3d 66 eb af bd
       0.108921185 0.09394138 0.06663587 -0.085898206
0000e0 a3 24 33 bc 50 fb 95 bc f2 e7 47 bd 33 3c 3b bd
       -0.010934028 -0.018308312 -0.048805185 -0.045711707
0000f0 8b 85 51 3c ac 5b 47 3d 82 4a 97 bd f9 93 82 3b
       0.012788187 0.04867141 -0.07387258 0.003984925
000100 6d 8b 02 3d 7b 9d 0e bd 5e a0 10 be 54 ec 66 bc
       0.031871248 -0.034818154 -0.14123675 -0.014094431
000110 c2 0f ff 3d 49 8c 11 3e a8 14 9b bd 82 a2 85 3d
       0.124541774 0.14213671 -0.07572299 0.065251365
000120 56 7b a4 bd 96 18 bd 3b 88 ec 77 bd a8 4e 4f ba
       -0.08031337 0.005770753 -0.06052831 -0.0007908144
000130 bd 48 b7 bd 89 aa 69 bd ec f4 89 bd c2 8e 97 bb
       -0.089494206 -0.0570474 -0.06736168 -0.0046251724
000140 a6 7a 6d 3d 5c 89 03 3d 9e 90 c9 bc 87 40 1d bd
       0.057978295 0.032113418 -0.024605092 -0.038391616
000150 63 9a 1c 3e 2f 04 ae 3c 33 3b 06 3e a7 31 96 bd
       0.15293269 0.02124223 0.1310852 -0.07333689
000160 f6 4e a0 bd 8b 29 92 3d c4 3a 6a bd 7a 60 99 3d
       -0.078275606 0.0713683 -0.05718495 0.074891046
000170 70 5a e7 3d db ae cf 3d cb 41 3d bd f2 d9 8a bd
       0.112965465 0.10140773 -0.046205323 -0.06779851
000180 4e 1b 54 3d cc c2 9e 3c 15 f6 ea bd d0 98 df 3c
       0.051783852 0.019379996 -0.11472718 0.027294546
000190 6d f9 83 3c d3 2d 70 bb 5b 22 47 3d 68 34 3c bd
       0.016110146 -0.0036648407 0.04861675 -0.045948416
0001a0 87 79 9b 3c 13 87 82 3d 77 ce e0 3c 7b ad b2 bd
       0.018978847 0.063734196 0.0274422 -0.08724495
0001b0 6a 29 39 3c 86 c4 21 bd 69 51 10 bd 5e 3d 41 3c
       0.011301378 -0.03949406 -0.03523389 0.011794416
0001c0 ed e7 be 3c 4a 6f 35 bc 71 4d 98 3c 39 89 4c 3d
       0.02330395 -0.011073897 0.018591614 0.049935553
0001d0 8e bd 94 3c 01 dc 1b 3e ea e9 b2 3d 7f 76 5f bd
       0.018156793 0.15220644 0.08736022 -0.054556366
0001e0 32 27 f7 bd 1f 3d 0d be ff b5 6d 3d 7e 92 82 bc
       -0.12068023 -0.13792847 0.058034893 -0.015938994
0001f0 b0 78 91 3d c6 f0 02 3d bf 39 32 bd 40 f2 2a 3c
       0.071030974 0.0319679 -0.043512102 0.010433733
000200 7d 42 03 3e a2 da 7e 3d 57 ba a7 bd 12 58 5c bd
       0.12818332 0.062220223 -0.081898384 -0.053794928
000210 51 81 86 3d cf 80 08 3e 80 7b 18 bd 56 35 fd ba
       0.06567634 0.13330387 -0.037227154 -0.0019318264
000220 50 6e 89 bc 40 20 50 3d 9d 3a 25 bd 2e fd d6 bc
       -0.016776234 0.050812006 -0.0403391 -0.026243772
000230 f7 15 38 bd 84 52 a4 bd fb 51 99 3d 29 06 9a bd
       -0.044942822 -0.08023551 0.0748634 -0.07520706
000240 08 37 ef 3d 9f 8d 07 3d 90 21 80 3b 10 cd 04 bc
       0.11680418 0.033094045 0.003910251 -0.008105531
000250 fd fc 3c 3e 62 9a 00 3e 53 1d 63 3c 66 07 7d 3a
       0.18455882 0.12558892 0.013861972 0.00096522865
000260 5e a7 6b bd 8b fb 2e 3d 9f 58 3f bd 47 47 b1 3d
       -0.05753266 0.04272036 -0.046715375 0.08656173
000270 3e 5f a3 3d 9a c3 ae 3d 2f b4 c3 bc 84 3f 27 3a
       0.079771504 0.08533402 -0.02388963 0.0006380009
000280 51 4a 95 3d 4d 9d 91 3d 43 ab 6c bd 59 de 9d 3d
       0.07289565 0.07110081 -0.057780515 0.07708425
000290 f0 84 17 3e 3b e7 eb 3d bd b5 3a bd 16 85 69 bb
       0.14796805 0.11518713 -0.045583475 -0.0035632304
0002a0 b9 2d fb bd c4 19 d4 bc 53 df 77 3d df 28 bc bd
       -0.1226458 -0.025891192 0.060515713 -0.09187483
0002b0 77 19 08 bd 5f 17 91 bd 5f de 2e bd da cc 27 bc
       -0.03322741 -0.07084536 -0.04269254 -0.0102417115
0002c0 8b 9b 63 bb 84 75 c2 3c a3 d4 57 3d 80 d1 4c bd
       -0.0034730162 0.023737676 0.05269302 -0.050004482
0002d0 b2 f7 0d 3e b2 0a aa 3b 6b 1f a5 bc 5f 45 43 bd
       0.1386402 0.0051892633 -0.020156583 -0.04767358
0002e0 58 d6 b1 bc 91 08 59 bd 2b cf 3d bd 9c e2 ac 3d
       -0.021708652 -0.052986685 -0.04634015 0.0844166
0002f0 7c 3c b2 3d 8e 2c 7c 3c 7f dd eb bc 5c 11 d7 bb
       0.08702943 0.015391482 -0.028792141 -0.0065633487
000300 75 83 ac 3d 9f ed 5f 3d 90 6c fa 3a c4 f0 03 3c
       0.08423511 0.054669973 0.001910584 0.0080530085
000310 92 99 f0 3d 9c c2 08 3e 69 e6 96 bc 9f ea 97 bc
       0.11748041 0.13355488 -0.018420415 -0.018544493
000320 5d bc 8d 3c 08 77 07 bd a3 f4 38 bd fa c3 1b bc
       0.017301733 -0.0330725 -0.04515518 -0.009507174
000330 76 65 a6 bc 6b 57 38 3d c7 87 c7 bc 59 7b fc bc
       -0.020312052 0.045005243 -0.024356736 -0.030820535
000340 34 ca 19 3d 25 88 92 bd b1 08 5c 3d d7 63 2e bc
       0.03754635 -0.07154874 0.053719226 -0.010643921
000350 03 6f ab 3d 67 1a c8 3d b0 b3 b7 3d a2 17 29 bd
       0.08370783 0.09770661 0.089698195 -0.041282304
000360 e6 eb ba bc 03 81 1c 3b 4d 5f 3e 3d 6d 4b 4b 3d
       -0.022817563 0.0023880608 0.046477605 0.04963248
000370 7b c7 98 3d 60 df 99 3d 56 2e 9a bd bc 56 1c 3d
       0.07459923 0.075133085 -0.07528369 0.038168654
000380 ce 0f 0a bd 8a 06 08 3c 25 96 54 bd 67 85 9b 3b
       -0.03370648 0.00830234 -0.051901 0.0047461274
000390 40 57 f8 3d c1 55 83 3c 85 c9 06 3d 81 57 6a 3d
       0.121260166 0.016032102 0.032907028 0.057212356
0003a0 a5 fc 48 bd 91 22 8f bb a7 7e 86 3d e2 f3 d7 bd
       -0.049069066 -0.0043681343 0.06567126 -0.10544564
0003b0 16 26 d8 3a 8c 49 a6 bd af 23 94 3d 8c 02 f7 3c
       0.0016490843 -0.08119497 0.072333686 0.030152582
0003c0 87 d4 a0 3d a1 1a 4d bd 77 c3 99 3d 12 26 9e 3d
       0.078530364 -0.050074223 0.07507985 0.07722105
0003d0 37 0d f2 3c 9b 97 fd 3d c0 13 67 3d 74 b8 bc 3d
       0.029547317 0.12382432 0.05641532 0.09214869
0003e0 46 74 b9 bd 5f 11 c1 3d 82 c8 82 3d 3a e9 77 3d
       -0.090553805 0.094271414 0.063859 0.060525157
0003f0 90 13 1e bd a2 f7 96 3d eb 30 74 3d f2 93 5b 3d
       -0.038592875 0.07371451 0.059616964 0.05360789

sequential/conv2d_2/Conv2D f4 [64, 3, 3, 64]
000000 ea 15 08 bd 9a 77 15 bc 0a da c7 3d 89 9e 6e 3d
       -0.033224024 -0.0091227535 0.097583845 0.05825666
000010 82 50 1a bd cf 8f 84 3d 31 51 54 bd 14 02 93 3d
       -0.037674434 0.06472742 -0.051835243 0.07178131
000020 d5 a0 01 3e f4 44 40 bd 61 ec 63 3d ad a6 08 3d
       0.12659009 -0.04694076 0.05564535 0.03336208
000030 ba 1b ca bc 16 2c 56 bd d2 87 04 3d 9a a0 07 3d
       -0.024671424 -0.052288137 0.03235609 0.033112146
000040 9e 33 58 3d b2 e5 ce 3b 73 c2 94 bc 95 98 7d 3c
       0.0527836 0.006314003 -0.018159127 0.015478273
000050 4e eb b8 3c 87 70 c2 3c 11 14 ff 3b 3d 04 01 bb
       0.02257314 0.023735298 0.0077843745 -0.0019686364
000060 a8 79 55 3d dc 4d 47 bd d3 38 cb bb af 28 81 bd
       0.052117974 -0.048658237 -0.0062018423 -0.06306588
000070 c9 7c ac 3d f8 ab c4 bd bb ad 7a bd 7b 41 28 3d
       0.084222384 -0.09603113 -0.06120084 0.041078072
000080 3f 1b 96 bd 8f 96 df bc 8b e9 68 bc 9a 35 23 3c
       -0.073294155 -0.027293472 -0.014215837 0.00996151
000090 33 68 b5 3b 88 51 61 bd 7c 0e 34 3d a7 9b a5 3d
       0.005536103 -0.055009395 0.043959126 0.08086329
0000a0 d3 e3 81 3d fd 6d a1 3d 7d cd fd bb 51 79 c6 3c
       0.06342282 0.07882307 -0.0077454434 0.02422777
0000b0 74 40 45 3c 19 14 61 bd 82 82 e0 bb 5c 15 9c 3d
       0.012039293 -0.054950807 -0.0068514952 0.076212615
0000c0 c2 b8 d1 ba 97 c0 9c bc d6 0c 80 bd 60 2b c0 bc
       -0.0016000497 -0.019134803 -0.06252448 -0.023458183
0000d0 44 0f ea bc a5 54 87 bd 01 84 dc bd 0a bf 75 bd
       -0.028571732 -0.066079415 -0.10767365 -0.059996642
0000e0 70 81 09 3d 26 0e 75 bd 48 82 a4 3c 31 7e 6f bc
       0.033570707 -0.059827946 0.020081654 -0.014617489
0000f0 bd bc 7a bc c5 ee 04 bc 73 af f1 3c 3a fc 8c 3d
       -0.015303788 -0.008113568 0.029502606 0.06884046
000100 45 b0 cf bd 8c 96 86 3d 11 ce a1 bd c1 76 08 3e
       -0.101410426 0.06571683 -0.07900632 0.13326551
000110 86 45 a2 bd 7d 1b ae bc e7 bf fe bc a1 93 81 bd
       -0.07923417 -0.021253342 -0.031097366 -0.06326986
000120 8c 2a c0 3d fe be fb 3d 0a 4f 97 3d e3 a1 9d 3d
       0.09383115 0.12292288 0.073881224 0.07696893
000130 37 da d3 3c 95 d1 0f bd d5 65 f5 bd 90 65 94 3d
       0.025860889 -0.035111982 -0.119823135 0.07245934
000140 f9 d8 06 3d f9 05 4a 3d 5b ed d9 3c 54 4b 99 bd
       0.032921765 0.049322102 0.026602438 -0.07485071
000150 ea a7 8b 3d 37 7f c3 3d 22 d8 b4 bd aa 87 cc bd
       0.068191364 0.09545749 -0.088302866 -0.09986813
000160 f9 79 63 3d c5 1e d0 bd 08 1b d7 3d ef 70 22 bd
       0.055536244 -0.10162119 0.10503203 -0.039658483
000170 59 39 34 bb 79 4c e4 bc db 20 ce bc 61 6c 0b bd
       -0.0027500002 -0.027868496 -0.025162151 -0.034038905
000180 cf 3a b8 bd ac 2d bf bd 66 10 3b 3d 48 47 a2 3d
       -0.08995592 -0.09334883 0.045669936 0.07923752
000190 1d 52 05 3e 27 3b 7b bd 36 b9 54 bd 43 25 a3 bd
       0.13019605 -0.06133571 -0.051934443 -0.079660915
0001a0 aa 46 ab bc 3c a4 1b 3d 42 6a b6 3b 3d 60 90 bc
       -0.020907719 0.037998423 0.005566866 -0.017624015
0001b0 c6 94 7b bd 02 3a ec 3a 79 5b 47 bd eb d0 ee 3a
       -0.06142118 0.0018022659 -0.04867122 0.0018220221
0001c0 ec 24 bf bc 30 80 00 bd 00 3e 99 ba d5 b7 27 bd
       -0.023333035 -0.03137225 -0.0011691451 -0.0409468
0001d0 d1 2b af bd 10 02 0c be 67 50 3c bd b1 36 5d bc
       -0.08553279 -0.13672662 -0.045975115 -0.013501809
0001e0 c8 44 46 3d f8 9a c2 3c 5d 41 1e bd 49 aa 9a 3c
       0.04840544 0.023755535 -0.038636554 0.018880026
0001f0 ac 4a 7b bd a2 cd a2 bd ef 06 a5 bb 18 e1 cd 3d
       -0.06135051 -0.079493776 -0.005036227 0.10052699
000200 e9 d0 e4 bd 8c d8 2d be 93 10 03 bd b9 31 57 3d
       -0.11172659 -0.16977137 -0.03199823 0.052537654
000210 38 9b a6 bc aa 27 00 b9 61 60 ad 3d aa dd b2 bc
       -0.020337686 -0.00012221807 0.084656484 -0.021834213
000220 3a fd a4 3d 22 50 00 bc 40 14 84 3c 9e 5a 3e 3e
       0.08056112 -0.007831605 0.016122937 0.18589255
000230 06 01 69 bd d3 7f 0a 3d bd 64 19 3d a4 27 68 3d
       -0.05688574 0.03381331 0.037449587 0.05667843
000240 c4 ec 17 bd 91 b9 c8 bc 0a bf 7e 3d ff 92 14 3d
       -0.03709103 -0.024502547 0.062193908 0.036273
000250 b4 88 33 3e 22 b5 e1 bb 63 35 19 be 48 51 bc bd
       0.17532617 -0.006888048 -0.14961772 -0.09195191
000260 74 43 ce bd 6f 65 fc ba 1f 55 0b 3e e8 00 e5 bd
       -0.100714594 -0.0019256304 0.1360669 -0.111818135
000270 fb 2d d4 3d df 8d 51 3d 85 5c 96 bd 42 9e 0d 3c
       0.103603326 0.05116069 -0.073418655 0.008643689
000280 12 41 88 3c 1b fc a6 bd e2 e5 7a bc dd f5 a8 bc
       0.01663259 -0.08153554 -0.015313597 -0.02062505
000290 ae af cb 3d 7b 21 23 be bd 05 97 ba d3 c1 d2 bd
       0.099456176 -0.1593074 -0.0011522096 -0.10290875
0002a0 9b 16 91 bb 6b 26 e8 bd 4e 0c 94 3d fe d5 f1 bb
       -0.0044277436 -0.11335453 0.072289094 -0.007380246
0002b0 78 c8 c4 3d 32 0c 5f 3d c6 0a be bd 92 6a f8 bc
       0.09608549 0.05445499 -0.092793986 -0.030324254
0002c0 d6 00 22 3d 83 06 dc bd 97 1b 9a 3c dd f2 98 bc
       0.03955158 -0.107434295 0.018811984 -0.018670494
0002d0 d7 97 9a 3c 8d 30 36 3d 9c 53 91 bd 9c 51 17 bd
       0.018871231 0.044479895 -0.07096025 -0.036943063
0002e0 08 76 31 bc 02 7c f8 3b 33 64 f2 bd 6f 20 a9 bd
       -0.0108313635 0.0075831423 -0.11835518 -0.08258139
0002f0 98 41 94 bd 59 e7 63 3d 5f ea a3 bb ae 2e 77 bc
       -0.072390735 0.055640552 -0.0050023044 -0.015086813
000300 01 a7 db bc 64 56 fd 3b b5 57 0e be 60 f0 74 3d
       -0.026813032 0.007731246 -0.13900645 0.059799552
000310 5b 0c e5 bc 1b 6a 58 bd 38 6b d1 bc 64 72 d4 3c
       -0.027959993 -0.052835565 -0.025563821 0.025933452
000320 18 18 a5 3d f6 21 32 3d 6e 6d c3 bb 4c 4c 52 3c
       0.08061236 0.04348942 -0.005963973 0.012835573
000330 92 64 05 3d 30 64 ef 3d 4e 1a 8e bd 45 42 c1 3c
       0.032566614 0.11689031 -0.06938611 0.02359117
000340 89 87 db bd 8f cd 6c 3d 0e 51 18 bd 3e d8 0c bd
       -0.10719211 0.057813223 -0.037186675 -0.034385912
000350 95 23 22 3d d4 cc 0a 3d 70 30 42 bd b4 03 94 bd
       0.039584715 0.033886746 -0.047409475 -0.07227269
000360 c7 59 01 3d 2b 18 56 bb 81 28 7c 3c 27 b8 e6 bd
       0.03157976 -0.0032668214 0.015390516 -0.11265593
000370 b8 e9 43 ba da 6a 43 bd 19 4a 2c bb 82 f9 55 bb
       -0.00074734865 -0.047709323 -0.0026289283 -0.003264994
000380 ee 67 ea bd 7c c6 d4 bc a8 e5 29 3d e0 e7 a4 3d
       -0.11445604 -0.025973551 0.041478783 0.08052039
000390 72 df 99 3d 01 76 9b bb 4f c7 58 bd 10 34 84 bd
       0.07513322 -0.004744292 -0.05292445 -0.06455243
0003a0 07 7f 4b bc 68 a8 bc bd 69 76 43 bb ca 30 f8 bd
       -0.012420422 -0.092118084 -0.0029825217 -0.12118681
0003b0 09 bd 4f bd 5a fc 2f bc 8e 86 f6 bd 89 d3 4d bc
       -0.050717387 -0.010741318 -0.12037383 -0.012562641
0003c0 86 16 0f bd 1f 05 75 bc 1c b2 19 bd c3 5f 6c bd
       -0.03493359 -0.014954834 -0.037523374 -0.057708513
0003d0 eb ea 4e 3d 45 eb 06 bd ea 2a ed bd 03 a5 bb bc
       0.050517004 -0.032939214 -0.11580451 -0.022905832
0003e0 81 cf d2 bd 9d 7f 59 3d c7 df dd bd f9 a5 ce bc
       -0.102934845 0.053100217 -0.10833698 -0.025225626
0003f0 23 8e f5 bd 84 c4 59 3d 2b 2e ec bc 4e 86 db 3c
       -0.11990001 0.053165928 -0.028830608 0.02679744

sequential/conv2d_1/BiasAdd;sequential/conv2d_2/Conv2D;sequential/conv2d_1/Conv2D;sequential/conv2d_1/BiasAdd/ReadVariableOp/resource f4 [64]
000000 5f b5 01 3b c5 20 f8 bc b4 db db bc cc ec b0 bc
       0.0019791943 -0.030289063 -0.026838161 -0.021597289
000010 32 af 71 bd 54 ab fc bc 51 32 e0 ba b0 85 1c 3c
       -0.05900497 -0.030843414 -0.0017104839 0.009553358
000020 6a be a9 3a ee b5 36 3c 00 6d 52 bc 78 b9 16 bc
       0.0012950425 0.011151774 -0.01284337 -0.009199493
000030 fd 99 99 bd 32 9d 49 3d fa 39 13 bd 74 d8 b3 3c
       -0.07500074 0.04922218 -0.035943963 0.021953799
000040 bd 52 a8 bc 0b 0f 36 bd 3f f2 4f 3c 3a ce 76 3b
       -0.020547265 -0.04444794 0.012692033 0.0037659542
000050 32 95 a9 bc f2 2d ad bc c6 5e b0 3c ef f4 c6 bc
       -0.020701025 -0.021140072 0.021529566 -0.024286715
000060 57 a2 c6 bc 96 54 27 bc 91 3d fe bb 01 2d 22 bd
       -0.024247332 -0.010213038 -0.007758804 -0.0395937
000070 ca 72 03 ba 4a 21 0d bd ee 00 67 bd da 87 69 bd
       -0.00050143583 -0.034455575 -0.05639737 -0.057014324
000080 6c 9d 34 bd 90 67 17 bc a6 09 0a bb d2 4e 29 3d
       -0.04409544 -0.009241 -0.002106288 0.041334935
000090 a4 66 51 bb 8a 1c 06 bd 4d a2 89 bd dc 45 8d bd
       -0.0031952048 -0.03274206 -0.067204095 -0.0689809
0000a0 ac 00 80 bb b8 1a f8 bc 0f 0c 5d bc a5 bb e7 bc
       -0.00390633 -0.030286178 -0.0134916445 -0.028287718
0000b0 9b fd 9f ba 92 72 d0 bc 1a 35 6e bc 65 42 e6 3c
       -0.0012206318 -0.025445256 -0.014539028 0.028107831
0000c0 82 4f 86 bd eb be ed bb 71 0b 66 bb 6b 72 07 3d
       -0.06558134 -0.007255425 -0.0035102034 0.0330681
0000d0 37 12 ca b9 60 e9 34 bd 19 3b c5 bc fe 39 e6 3c
       -0.00038542013 -0.044167876 -0.024076032 0.028103825
0000e0 4c fa 88 bc 30 ef 8c bc 87 15 ee bc 6a c1 b9 bb
       -0.016720913 -0.017203897 -0.029063 -0.0056688087
0000f0 b8 6f 9f bd f9 9d d5 bc 43 6c 69 3a b9 11 3b bc
       -0.077849805 -0.026076304 0.0008904377 -0.0114178

sequential/conv2d_2/BiasAdd;sequential/conv2d_2/Conv2D;sequential/conv2d_2/BiasAdd/ReadVariableOp/resource f4 [64]
000000 02 ee 02 bd 86 43 01 bd a5 06 85 bd 99 1d 5b bd
       -0.031965263 -0.031558536 -0.06495408 -0.053495023
000010 58 0b 9f bd 1d 0d e9 bc ea c7 bd bc 5b 3e 19 3c
       -0.077658355 -0.028448636 -0.023166616 0.009353246
000020 2c 84 7a bd db 19 28 bd d8 48 ec bc b1 24 8c bd
       -0.061161205 -0.041040283 -0.028843328 -0.06842936
000030 ba 52 a9 bc c6 73 ff bc 13 8e b0 bb d8 cc b5 bc
       -0.02066933 -0.031183135 -0.0053880303 -0.022192404
000040 e8 ac 07 bd c3 c0 4f bd 64 fc 90 bd e2 90 4f bd
       -0.03312388 -0.05072094 -0.0707939 -0.05067528
000050 a3 18 36 bd 11 1e 32 bd 9a 2d 9a bd 65 40 ff bc
       -0.04445709 -0.043485705 -0.07528229 -0.031158635
000060 bf de 7a bd 0d 54 fd bb f0 02 a0 bd 99 b9 42 bd
       -0.061247583 -0.007730967 -0.0781306 -0.04754028
000070 98 6f 2d bd 0f b1 ed bb 11 75 f8 bc 5c 3b b9 bc
       -0.042342752 -0.007253773 -0.03032926 -0.022611313
000080 fa 01 1e bd b7 97 7c bd 78 83 d5 bc 3f bf 02 bd
       -0.038576104 -0.061668124 -0.026063666 -0.031920668
000090 45 fc 4c bd ef 45 89 bd 47 0f 05 bd ec 2e 8e bc
       -0.05004527 -0.06702792 -0.032485273 -0.017356358
0000a0 c1 2d 1e bd 1f 3c ca bd 44 10 08 bd db fd b6 bc
       -0.038617853 -0.098747484 -0.033218637 -0.022337845
0000b0 ee 9b 40 bd 54 5e d4 bd fc 5c 45 bd d3 4d 65 bd
       -0.047023706 -0.10369554 -0.04818438 -0.055982422
0000c0 10 1d 08 bd 08 67 1c bd 62 e3 84 bd 06 8a 22 bd
       -0.03323084 -0.038184196 -0.06488682 -0.03968241
0000d0 41 c6 5b bd 69 fd 78 bc a5 c1 bf bb a2 88 9c bd
       -0.053655867 -0.015197136 -0.0058519416 -0.07643248
0000e0 bc 25 fe bc c1 2a 38 bd 18 c9 37 bd 4c 44 35 bd
       -0.031023853 -0.04496265 -0.044869512 -0.044254586
0000f0 86 3e a1 bc 84 d9 47 bd c8 a6 91 bd 17 27 58 bd
       -0.019683134 -0.048791423 -0.07111889 -0.052771654
