dig_bk_v2.tflite (tflite, 356604 bytes, 12 tensors)

sequential/conv2d/BiasAdd/ReadVariableOp/resource f4 [32]
-0.03154815 0.0026908114 -0.05137641 -0.034501843 -0.018565949 -0.032929014 -0.027197193 0.038098406
0.06693804 0.012068986 0.013035647 -0.059310474 0.0134489415 -0.025522875 0.031847127 -0.025658516
-0.049677286 0.05108842 -0.04649566 -0.024678761 -0.056620356 -0.003248071 -0.028925758 -0.009231814
-0.07136626 -0.035141736 0.027775016 0.039779015 -0.03993992 0.009166353 0.07948193 -0.005594671
00000000: a238 01bd 5358 303b 1270 52bd ce51 0dbd
00000010: 9e17 98bc 93e0 06bd a6cc debc 130d 1c3d
00000020: d016 893d ffbc 453c 7793 553c 8aef 72bd
00000030: f358 5c3c 5915 d1bc 2272 023d cf31 d2bc
00000040: 697a 4bbd 1742 513d 3c72 3ebd 1d2b cabc
00000050: bfea 67bd 97dd 54bb b6f5 ecbc 0941 17bc
00000060: 7928 92bd c8f0 0fbd 6e88 e33c 52ef 223d
00000070: 0b98 23bd 792e 163c 6cc7 a23d 8053 b7bb

sequential/dense/BiasAdd/ReadVariableOp/resource f4 [256]
-0.030133551 -0.008872133 -0.015677383 -0.0057465513 0.025920175 0.006104633 0.0084502455 0.036297403
-0.015477772 -0.0048429426 -0.00823721 0.03683923 0.013523759 0.030176548 -0.0057844915 0.021794863
-0.011279918 0.021494009 -0.010769671 -0.012531092 -0.022296336 -0.011677593 0.02184793 0.0033125058
0.007182637 0.012615166 0.005351006 0.011617031 0.00079116586 0.0064087366 -0.0037245909 -0.007852863
-0.009327763 -0.0017331428 0.03443575 -0.012826856 -0.016310772 -0.01885991 -0.012775173 -0.022106739
0.026814286 -0.005720475 0.010175613 -0.033573836 0.018819975 0.0039196825 -0.005023663 0.022794653
0.0004531021 0.011355952 0.0033952775 0.018397713 -0.009712882 0.008422533 -0.01903639 0.0005785074
0.0016622128 0.024482984 0.048293542 0.02660023 0.039921764 -0.016523885 -0.0062742345 0.003983894
-0.004927245 0.011397691 0.006022688 0.008519775 0.02209437 -0.036229365 0.007237821 -0.011084179
-0.021258125 0.00034352418 -0.00097407727 0.015981017 -0.0042704227 -0.01865369 -0.0032341545 0.00018376009
0.015457567 -0.026666008 -0.021003319 -0.0058771255 -0.029562678 -0.012271039 0.010126995 -0.025094828
0.0041646734 0.018923094 0.0021058684 -0.016445465 -0.0048310235 -0.0078776665 0.016017925 0.0062820474
-0.0005279354 0.01639836 0.0078077507 -0.019466178 -0.019765284 0.0044124653 0.0066078333 -0.0043366877
0.0125690745 -0.0077644177 0.0100947255 0.00029244722 0.003246056 -0.0068847793 0.022934506 0.017258257
-0.013082648 0.0065786145 -0.012398005 0.021579986 0.0003086671 0.016267277 -0.003085298 -0.0020500855
-0.013776326 -0.00993953 0.009607717 0.007652854 -0.041516513 0.039053455 -0.002001923 -0.019364342
0.0045811064 -0.011050344 0.03122487 0.02441118 0.04381644 0.019054104 -0.0025468853 -0.010147409
0.01793225 0.0143576525 3.3953504e-05 0.019211922 -0.012410814 0.042555798 0.0023276727 -0.008769577
-0.0051272805 -0.005644122 -0.000841874 -0.031346336 -0.0056957887 -0.005332346 0.009661076 -0.016420843
0.011234954 0.0045029945 -0.0085454 -0.021416381 -0.005049963 0.010046443 0.0036676496 0.010211512
0.019187009 0.014630342 -0.0022321127 0.009240905 0.007914755 -0.003955708 0.038544055 -0.015096875
-0.011988072 -0.0029192711 0.01595419 0.008505839 -0.017001048 -0.010234436 0.0012254642 -0.035148893
0.0035900252 -0.011964962 0.015721068 0.0051588793 0.011819592 0.013681916 -0.013279867 0.012758144
-0.0024070153 0.024325933 -0.008366676 -0.029661424 -0.018741973 0.0011430439 -0.00037675505 0.020961652
-0.009467913 0.0036521864 0.008737573 0.017343497 -0.0061822985 -0.0023445226 0.011390148 0.0019597653
-0.0023385899 0.022882955 -0.011802113 -0.01687726 0.0015359763 -0.036864825 -0.025495606 -0.01555424
0.023519907 -0.005044672 -0.018596837 0.025627632 0.023738861 0.015287558 0.002315701 0.010841517
-0.014494729 -0.024287298 0.0036615403 -0.00070648774 -0.0077970847 0.004554457 -0.010769034 0.006552742
-0.005018033 -0.02260333 -0.022951221 0.01165886 0.006564116 -0.015053323 0.012110527 0.028632805
-0.010901616 0.008860419 -0.010717316 -0.018097626 -0.0061960807 0.012332894 0.035332516 0.02180292
-0.012168311 -0.033656534 0.011235718 -0.016009863 0.00557872 -0.0022786725 -0.0047236905 0.013914996
-0.008830116 -0.035604656 0.0012274976 -0.009066799 0.00075948396 -0.016463593 -0.029281966 -0.009792804
00000000: a3da f6bc 6c5c 11bc db6d 80bc 914d bcbb
00000010: 8c56 d43c 6009 c83b e672 0a3c 96ac 143d
00000020: 7b96 7dbc 8cb1 9ebb 5df5 06bc bce4 163d
00000030: c292 5d3c cf34 f73c d58b bdbb 248b b23c
00000040: 68cf 38bc 3414 b03c 4673 30bc 364f 4dbc
00000050: cea6 b6bc 6053 3fbc 6efa b23c a016 593b
00000060: 545c eb3b d7af 4e3c 7e57 af3b 5c55 3e3c
00000070: 3e66 4f3a 6100 d23b 4418 74bb 4ba9 00bc
00000080: 79d3 18bc 9f2a e3ba 800c 0d3d bc27 52bc
00000090: 2b9e 85bc 1980 9abc f64e 51bc 3119 b5bc
000000a0: a2a9 db3c d372 bbbb 9db7 263c b884 09bd
000000b0: 592c 9a3c ae70 803b 8a9d a4bb dabb ba3c
000000c0: 568e ed39 510e 3a3c 4e83 5e3b cdb6 963c
000000d0: c822 1fbc aafe 093c 34f2 9bbc f9a6 173a
000000e0: 9bde d93a 8a90 c83c 73cf 453d bae8 d93c
000000f0: 0185 233d 195d 87bc 1898 cdbb 538b 823b
00000100: ba74 a1bb 62bd 3a3c f859 c53b 8796 0b3c
00000110: 41ff b43c 3e65 14bd 3e2b ed3b 6b9a 35bc
00000120: 8525 aebc 091b b439 3859 7fba 9fea 823c
00000130: e7ee 8bbb a0cf 98bc 1cf4 53bb b9af 4039
00000140: bc41 7d3c ac72 dabc 270f acbc e794 c0bb
00000150: 6e2d f2bc 780c 49bc b2eb 253c ab93 cdbc
00000160: d077 883b 9b04 9b3c 9c02 0a3b a4b8 86bc
00000170: 904d 9ebb 5411 01bc 0638 833c a2d9 cd3b
00000180: 2565 0aba da55 863c 29d8 ff3b 8977 9fbc
00000190: ceea a1bc 7196 903b 8686 d83b c61a 8ebb
000001a0: 85ee 4d3c a86c febb 5964 253c 9a53 9939
000001b0: c8bb 543b b799 e1bb 25e1 bb3c 3061 8d3c
000001c0: 9a58 56bc 6b91 d73b 0121 4bbc 83c8 b03c
000001d0: 99d4 a139 f442 853c b632 4abb ba5a 06bb
000001e0: 19b6 61bc 69d9 22bc b069 1d3c cbc4 fa3b
000001f0: 380d 2abd 84f6 1f3d b232 03bb f8a1 9ebc
00000200: 1b1d 963b 810c 35bc 4ccb ff3c f4f9 c73c
00000210: de78 333d 5a17 9c3c a5e9 26bb 5141 26bc
00000220: a7e6 923c 5c3c 6b3c 4c69 0e38 5262 9d3c
00000230: ba56 4bbc fd4e 2e3d de8b 183b 46ae 0fbc
00000240: bf02 a8bb 54f2 b8bb 35b1 5cba 0465 00bd
00000250: bda3 babb f6ba aebb 7d49 1e3c 0185 86bc
00000260: d012 383c db8d 933b 0102 0cbc 6871 afbc
00000270: 297a a5bb d699 243c f35c 703b 304e 273c
00000280: 132e 9d3c 1ab4 6f3c a348 12bb 2a67 173c
00000290: e3ac 013c e29e 81bb 5fe0 1d3d e258 77bc
000002a0: 9e69 44bc 3e51 3fbb 5db2 823c 135c 0b3c
000002b0: c845 8bbc 56ae 27bc c19f a03a 49f8 0fbd
000002c0: a146 6b3b b008 44bc 78c9 803c d10b a93b
000002d0: f6a6 413c 1d2a 603c cd93 59bc 8907 513c
000002e0: 04bf 1dbb 2e47 c73c 6214 09bc 84fc f2bc
000002f0: c488 99bc 30d2 953a 3587 c5b9 c5b7 ab3c
00000300: 4e1f 1bbc 8559 6f3b 0a28 0f3c f313 8e3c
00000310: e194 cabb 90a6 19bb be9d 3a3c 686f 003b
00000320: 0743 19bb 0975 bb3c a65d 41bc 2e42 8abc
00000330: d052 c93a 92ff 16bd 29dc d0bc 36d7 7ebc
00000340: d2ac c03c c74d a5bb 6558 98bc 0af1 d13c
00000350: 0078 c23c aa78 7a3c 04c3 173b 9ea0 313c
00000360: 4d7b 6dbc 28f6 c6bc 74f6 6f3b 9733 39ba
00000370: b07e ffbb 8e3d 953b 9a70 30bc 62b8 d63b
00000380: 506e a4bb 9e2a b9bc 3304 bcbc ce04 3f3c
00000390: cc17 d73b 36a2 76bc 3b6b 463c 588f ea3c
000003a0: b19c 32bc 4a2b 113c ae97 2fbc 7941 94bc
000003b0: 7e08 cbbb e80f 4a3c d4b8 103d 0a9c b23c
000003c0: 985d 47bc 6fdb 09bd 0416 383c 1e27 83bc
000003d0: b2cd b63b c855 15bb 30c9 9abb b9fb 633c
000003e0: 31ac 10bc 30d6 11bd fce3 a03a e98c 14bc
000003f0: 1b18 473a a8de 86bc bce0 efbc ff71 20bc

sequential/dense_1/BiasAdd/ReadVariableOp/resource f4 [11]
-0.04663506 -0.04274433 -0.019701233 -0.0289195 0.007737244 -0.017592896 -0.010264064 -0.011075869
-0.010979501 -0.01075856 -0.08234727
00000000: 6804 3fbd ae14 2fbd 7b64 a1bc 96e8 ecbc
00000010: b588 fd3b fa1e 90bc 9b2a 28bc 9077 35bc
00000020: 5de3 33bc ac44 30bc afa5 a8bd

sequential/batch_normalization/FusedBatchNormV3 f4 [3]
-2.3719225 -1.4203176 -1.3097471
00000000: 94cd 17c0 f8cc b5bf cba5 a7bf

sequential/batch_normalization/FusedBatchNormV31 f4 [3]
0.017780663 0.018334378 0.021084815
00000000: c1a8 913c fa31 963c 10ba ac3c

sequential/dense/MatMul f4 [256, 256]
0.010970265 -0.069922075 -0.075083315 0.045471407 0.054099213 -0.07084162 -0.05632422 -0.06880441
-0.04850764 -0.098726735 0.002048668 0.11329437 -0.037797015 -0.048518017 -0.0048153405 -0.12164346
0.08208908 -0.08292405 -0.053218696 -0.056784548 -0.050793096 -0.08990045 0.07992898 -0.024527362
-0.0698497 0.025855023 -0.014101449 0.09749027 -0.04105915 0.08700799 -0.039907888 0.06124349
-0.11498692 -0.01227341 -0.060769796 0.08634044 0.012874934 0.14078301 0.10316721 0.0004568791
-0.034435317 -0.13171467 0.05590041 -0.106040984 -0.12695695 0.045567244 0.01414663 0.040677644
0.05246952 0.004491835 -0.030580388 -0.09085588 -0.06798536 -0.13483791 -0.08423993 0.09679256
-0.09739298 -0.03530919 0.048053622 -0.14810187 0.006135194 -0.012525435 -0.090797506 0.0013903731
-0.09123698 0.041236028 -0.017097745 -0.0052776467 0.024418011 -0.08822295 -0.17898946 -0.12882428
-0.019918783 0.053292703 -0.07872617 -0.120290756 -0.025732273 0.046836227 -0.08927853 0.12279737
-0.036757354 0.11298133 0.099057324 -0.038742255 -0.046364278 -0.059773 -0.04891982 -0.022907719
-0.09342164 -0.013787624 -0.025480753 0.092714936 -0.059694853 0.06328934 -0.102515206 0.08241399
0.000557209 -0.029213632 -0.115153134 -0.060710303 -0.033605643 -0.04870014 -0.07414131 -0.08525261
0.15486652 -0.013231468 0.083769396 -0.046670433 0.11139921 -0.02420223 0.056013975 -0.023805203
0.10452106 0.01274301 0.13889238 0.08346033 -0.059002068 -0.013645143 -0.089937985 -0.113609314
-0.0500769 -0.14102346 0.12266169 0.038194414 -0.10587705 0.07092533 -0.035395242 -0.06106537
0.055583544 -0.06393891 -0.07549351 -0.017071819 0.03472619 0.0030665358 0.0073623876 0.00033237095
0.06883664 -0.08858344 0.05673283 0.03803546 -0.0923138 0.03598137 -0.018694147 -0.008682957
-0.006912515 0.04250128 0.019616975 0.027243152 0.053865284 0.058525145 -0.022040874 -0.039509032
0.034111183 -0.15442392 -0.08384169 0.066860996 -0.0467286 -0.0059187543 -0.020154266 -0.05981771
0.087927505 -0.009528292 -0.115739934 -0.0020623077 0.0063207634 0.11454126 0.059253313 -0.008049043
0.047608104 0.013385033 0.08508173 0.08910475 -0.06276131 0.084088266 0.06386326 -0.04814112
0.07185162 0.034097973 -0.08650564 0.06390967 0.0749205 0.058638126 -0.008010053 0.027169738
0.03688837 -0.06930461 0.100393035 0.038897425 0.10350052 0.035092343 0.10366753 -0.10873013
0.012724304 -0.0725078 0.027485408 -0.10932482 0.009311982 0.099156715 -0.07878093 -0.12587804
0.005715587 0.03371224 0.013544108 -0.06881845 0.06231118 -0.023817671 0.05659698 0.07864649
0.083609655 -0.08857484 0.0062640533 -0.0027864387 -0.051959667 -0.034582775 0.12566139 -0.062397964
-0.0914368 -0.1016963 -0.05220364 -0.0681631 0.010329696 -0.057898734 -0.07600109 0.009036264
-0.060191743 0.011684731 -0.08949737 -0.06521785 -0.058278367 0.0007928286 -0.006024266 -0.025801672
-0.05627131 -0.04795119 0.07522135 0.008348508 -0.034639146 0.10435504 0.012665436 -0.054570455
0.037231762 0.08257079 -0.04262859 0.027684633 -0.11609842 -0.019646766 0.11035071 0.09730506
0.077261046 0.0047467994 -0.0130302645 -0.05255553 0.10913109 -0.03681943 -0.060544882 -0.080288276
00000000: a0bc 333c 4e33 8fbd 48c5 99bd 3a40 3a3d
00000010: 2397 5d3d 6915 91bd 3ab4 66bd 54e9 8cbd
00000020: f2af 46bd 3e31 cabd f242 063b e106 e83d
00000030: 0bd1 1abd d4ba 46bd 01ca 9dbb 3520 f9bd
00000040: 521e a83d 16d4 a9bd d9fb 59bd ea96 68bd
00000050: 6c0c 50bd ba1d b8bd ceb1 a33d 9bed c8bc
00000060: 5c0d 8fbd eacd d33c c409 67bc fba8 c73d
00000070: a42d 28bd 3f31 b23d 7476 23bd 74da 7a3d
00000080: 437e ebbd 6a16 49bc c0e9 78bd 42d3 b03d
00000090: 63f1 523c 6c29 103e 5549 d33d 4689 ef39
000000a0: 0c0c 0dbd 36e0 06be d4f7 643d 042c d9bd
000000b0: 0101 02be b8a4 3a3d 44c7 673c 9a9d 263d
000000c0: 48ea 563d 3e30 933b b983 fabc a612 babd
000000d0: e93b 8bbd f312 0abe fc85 acbd 2d3b c63d
000000e0: f875 c7bd 5fa0 10bd e0d3 443d 04a8 17be
000000f0: bd09 c93b 7b37 4dbc 0bf4 b9bd 2e3d b63a
00000100: 74da babd 1ce7 283d 9210 8cbc 1cf0 acbb
00000110: 4808 c83c 3cae b4bd 0349 37be 83ea 03be
00000120: b72c a3bc 7349 5a3d 303b a1bd 005b f6bd
00000130: 7dcc d2bc 58d7 3f3d a9d7 b6bd 307d fb3d
00000140: e18e 16bd c162 e73d 91de ca3d 33b0 1ebd
00000150: 78e8 3dbd 89d4 74bd 2660 48bd f8a8 bbbc
00000160: d853 bfbd 7de5 61bc 03bd d0bc 54e1 bd3d
00000170: 9782 74bd d79d 813d 7ef3 d1bd aac8 a83d
00000180: aa11 123a 6d51 efbc 68d5 ebbd 5eab 78bd
00000190: 12a6 09bd cc79 47bd 66d7 97bd ec98 aebd
000001a0: 5495 1e3e cdc8 58bc 4a8f ab3d 7f29 3fbd
000001b0: 4525 e43d c143 c6bc e96e 653d 2103 c3bc
000001c0: 230f d63d 0fc8 503c ce39 0e3e 40ed aa3d
000001d0: 27ac 71bd e18f 5fbc 6831 b8bd 00ac e8bd
000001e0: 6f1d 4dbd 7468 10be 0d36 fb3d bf71 1c3d
000001f0: 11d6 d8bd 4d41 913d 9afa 10bd ae1f 7abd
00000200: 92ab 633d 67f2 82bd 579c 9abd 33da 8bbc
00000210: 0d3d 0e3d eff7 483b 2f40 f13b 1342 ae39
00000220: 39fa 8c3d 3c6b b5bd af60 683d 12cb 1b3d
00000230: 040f bdbd 3361 133d 7824 99bc f642 0ebc
00000240: 6182 e2bb d215 2e3d c7b3 a03c 082d df3c
00000250: d8a1 5c3d 10b8 6f3d 108f b4bc 39d4 21bd
00000260: 2bb8 0b3d 4e21 1ebe 31b5 abbd 6bee 883d
00000270: 7d66 3fbd 1cf2 c1bb 8f1a a5bc 6a03 75bd
00000280: 5613 b43d 8e1c 1cbc 0f09 edbd c827 07bb
00000290: 681e cf3b 9c94 ea3d 9ab3 723d 22e0 03bc
000002a0: b700 433d e64c 5b3c 543f ae3d 8d7c b63d
000002b0: 0089 80bd 7836 ac3d beca 823d 9f2f 45bd
000002c0: f126 933d 51aa 0b3d de29 b1bd 13e3 823d
000002d0: eb6f 993d 882e 703d 993c 03bc 1293 de3c
000002e0: 4218 173d 93ef 8dbd dd9a cd3d e852 1f3d
000002f0: 15f8 d33d fdbc 0f3d a44f d43d e7ad debd
00000300: 9979 503c f87e 94bd 1429 e13c b1e5 dfbd
00000310: 4991 183c ad12 cb3d e557 a1bd 2ce6 00be
00000320: d249 bb3b d915 0a3d 1be8 5d3c b0f0 8cbd
00000330: 023a 7f3d 471d c3bc 3cd2 673d 6911 a13d
00000340: 8a3b ab3d ba66 b5bd b042 cd3b af9c 36bb
00000350: a9d3 54bd aba6 0dbd 61ad 003e 0295 7fbd
00000360: 3843 bbbd 2646 d0bd 7cd3 55bd 1899 8bbd
00000370: e33d 293c 3927 6dbd 76a6 9bbd d70c 143c
00000380: 9e8b 76bd 5071 3f3c 664a b7bd f090 85bd
00000390: 4cb5 6ebd d4d5 4f3a 3567 c5bb 075e d3bc
000003a0: bf7c 66bd 7868 44bd a70d 9a3d 2ec8 083c
000003b0: c7e1 0dbd 18b8 d53d b082 4f3c 4585 5fbd
000003c0: 5580 183d e01a a93d 519b 2ebd e2ca e23c
000003d0: 02c5 edbd 41f2 a0bc 8eff e13d e047 c73d
000003e0: 0a3b 9e3d 0a8b 9b3b e47c 55bc 7844 57bd
000003f0: 1f80 df3d f8cf 16bd e9fd 77bd 2e6e a4bd

sequential/dense_1/MatMul f4 [11, 256]
-0.014214626 0.09999003 0.03859432 0.02476281 0.031318933 0.031668257 -0.18975182 -0.09337849
-0.06374845 0.14736885 -0.091202766 -0.03828824 -0.12557714 -0.030973088 -0.010787154 -0.16406175
-0.07948474 0.09066411 0.031009212 0.045442194 -0.0918646 -0.0005423489 -0.071387984 -0.112025686
-0.03723808 -0.1649323 -0.14676963 -0.03451829 -0.0961719 -0.13496022 -0.17527856 -0.21419604
-0.080285095 -0.13163568 -0.16275495 -0.13471158 0.08173255 -0.178805 0.08466666 0.0011758043
-0.086353846 0.068680376 0.11583942 0.044471886 0.06902561 0.03434805 0.04926483 0.07256424
-0.029895714 -0.18104333 0.081726395 -0.046223443 -0.099135354 -0.23895696 -0.036259063 0.06645493
-0.12445193 -0.015077593 -0.20449169 -0.17374314 -0.17573877 -0.09411811 0.104594 0.08045412
-0.0077096424 -0.0707298 -0.052850556 0.033122502 0.112646624 -0.026698094 -0.11732102 -0.13368525
-0.08118989 -0.20327337 0.026970368 0.1070756 0.026076876 0.13584664 0.052528284 0.010410898
0.10100232 0.025066482 0.06415599 -0.11739242 -0.12556665 0.05181939 -0.013561227 0.034049235
-0.06716995 -0.030979682 -0.07043475 -0.046772584 -0.11844805 0.07450257 -0.10219431 -0.057016708
-0.004358577 0.051773768 0.14308055 0.09918642 -0.026356226 -0.087577 -0.013315466 0.00785612
0.13420752 0.18119554 -0.18954027 -0.21122625 -0.11511797 -0.07392283 -0.15085734 -0.068357125
0.012410234 -0.12066945 -0.12102757 -0.006955741 -0.009914315 0.048862033 0.10651677 -0.077143535
-0.11289892 0.056991998 -0.080409765 -0.0438848 -0.094366774 -0.19574197 0.102606624 -0.13615361
-0.0715255 -0.12834507 0.0046230243 -0.07235897 -0.18687522 -0.06485001 0.08009904 -0.03469863
0.059392843 0.06468425 0.05071198 -0.03846854 -0.04180989 -0.20104486 0.07876043 0.031468872
-0.14704666 0.11731356 0.11633866 -0.06965585 -0.11213103 -0.062791996 0.077547476 -0.12982239
-0.23618042 -0.17169006 -0.16076174 -0.036533203 -0.050695125 0.00673069 -0.08493869 -0.014108637
-0.0812511 0.04824857 -0.042548258 -0.15019035 -0.08531033 -0.12591507 -0.12879527 0.016844176
-0.09216955 0.108705655 -0.15025187 -0.06102571 -0.07738195 -0.15478016 0.0038440472 -0.15526947
-0.13855004 0.049216576 -0.083261885 -0.11597016 0.04610216 0.016676323 0.07435189 -0.17441805
0.046113905 0.05305256 -0.113160044 -0.07015062 -0.06158059 -0.10233316 0.030243713 -0.13857602
-0.18939796 -0.036464486 -0.0877494 -0.15679297 -0.04454404 -0.15353906 -0.14811994 -0.18725199
0.08842397 -0.09901919 -0.11274849 0.03081712 -0.034828577 0.102964684 0.16218576 0.041343316
0.02946634 0.115205005 0.11820348 -0.12548079 -0.026014525 0.04307527 -0.04981877 0.012427421
-0.026971953 0.024324141 -0.17612383 0.08770455 -0.12839314 -0.16321725 -0.13347965 -0.067292556
-0.1681978 0.09772551 -0.106845595 -0.06994834 0.06425914 -0.0133082075 -0.044286538 -0.12199469
0.0010547405 0.012491544 -0.18343863 0.030344054 0.18363553 0.047045648 -0.14046784 -0.08102738
0.100539766 -0.13059022 -0.16681592 -0.09453131 -0.075606205 0.07867856 0.09425102 -0.14947473
0.006135667 0.08781381 -0.031730067 -0.1652596 0.04366805 0.018046211 0.056083385 0.13479222
00000000: 76e4 68bc 93c7 cc3d 1415 1e3d 60db ca3c
00000010: 4848 003d 93b6 013d 4d4e 42be 393d bfbd
00000020: 8c8e 82bd dce7 163e 84c8 babd 21d4 1cbd
00000030: 4b97 00be 46bb fdbc 9abc 30bc ceff 27be
00000040: e5c8 a2bd 1bae b93d 0807 fe3c 9821 3a3d
00000050: 8223 bcbd 6b2c 0eba dd33 92bd b96d e5bd
00000060: f586 18bd 03e4 28be c74a 16be 0d63 0dbd
00000070: c6f5 c4bd 0333 0abe 397c 33be 3556 5bbe
00000080: 836c a4bd 81cb 06be 3ca9 26be d5f1 09be
00000090: 6563 a73d a818 37be b765 ad3d 721d 9a3a
000000a0: 49da b0bd 4ca8 8c3d 383d ed3d 2728 363d
000000b0: 4d5d 8d3d 8ab0 0c3d ebc9 493d 8f9c 943d
000000c0: dbe7 f4bc 6c63 39be 2b60 a73d cb54 3dbd
000000d0: 7a07 cbbd 22b1 74be 6284 14bd 8619 883d
000000e0: a7e0 febd 0208 77bc 4566 51be b9e9 31be
000000f0: ddf4 33be ffc0 c0bd 6135 d63d 21c5 a43d
00000100: 2ba1 fcbb c9da 90bd d379 58bd 76ab 073d
00000110: 46b3 e63d f6b5 dabc 0146 f0bd c9e4 08be
00000120: e346 a6bd e526 50be f6f0 dc3c 744a db3d
00000130: 2c9f d53c 621b 0b3e e627 573d 7992 2a3c
00000140: 4eda ce3d 3958 cd3c 3764 833d 706b f0bd
00000150: 8b94 00be 9240 543d e92f 5ebc 3677 0b3d
00000160: 6690 89bd 1ac9 fdbc 1840 90bd 9c94 3fbd
00000170: e494 f2bd ce94 983d 404b d1bd 5a8a 69bd
00000180: 65d2 8ebb bb10 543d b583 123e 4022 cb3d
00000190: 03e9 d7bc 925b b3bd 1d29 5abc f5b6 003c
000001a0: b26d 093e 538b 393e d816 42be b24b 58be
000001b0: f8c2 ebbd da64 97bd 597a 1abe d2fe 8bbd
000001c0: 4b54 4b3c 8b21 f7bd 4ddd f7bd fcec e3bb
000001d0: a76f 22bc 8e23 483d 7725 da3d 6efd 9dbd
000001e0: 8d37 e7bd 7170 693d e0ad a4bd 8cc0 33bd
000001f0: 5e43 c1bd 9570 48be 6c23 d23d da6b 0bbe
00000200: f67b 92bd e46c 03be bd7c 973b f130 94bd
00000210: 385c 3fbe 15d0 84bd f70a a43d 2720 0ebd
00000220: e945 733d 2d79 843d 5db7 4f3d 3091 1dbd
00000230: d940 2bbd b4de 4dbe 264d a13d 81e5 003d
00000240: 6693 16be 1742 f03d f742 ee3d baa7 8ebd
00000250: f4a4 e5bd 1799 80bd 36d1 9e3d 29f0 04be
00000260: 48d9 71be 85cf 2fbe ba9e 24be d7a3 15bd
00000270: b1a5 4fbd 1f8d dc3b 56f4 adbd ea27 67bc
00000280: fa66 a6bd 4ba0 453d 1547 2ebd 80cb 19be
00000290: 2fb7 aebd e1ef 00be e8e2 03be ccfc 893c
000002a0: 64c3 bcbd 12a1 de3d a0db 19be 18f6 79bd
000002b0: 6e7a 9ebd b17e 1ebe 69ec 7b3b f6fe 1ebe
000002c0: 10e0 0dbe 5297 493d 3585 aabd c381 edbd
000002d0: 9ed5 3c3d c99c 883c ce45 983d a59a 32be
000002e0: efe1 3c3d a44d 593d 74c0 e7bd 21ab 8fbd
000002f0: ee3b 7cbd 0c94 d1bd aac1 f73c dfe6 0dbe
00000300: 8af1 41be c95b 15bd f5b5 b3bd 568e 20be
00000310: d073 36bd 5839 1dbe c1ac 17be fcbe 3fbe
00000320: a017 b53d 93ca cabd aee8 e6bd 2f74 fc3c
00000330: 69a8 0ebd 26df d23d 0614 263e 9c57 293d
00000340: 6563 f13c 9af0 eb3d ab14 f23d 097e 00be
00000350: 6a1c d5bc b26f 303d c40e 4cbd 629c 4b3c
00000360: 49f4 dcbc 6c43 c73c ce59 34be 719e b33d
00000370: 7e79 03be 6c22 27be e4ae 08be aed0 89bd
00000380: 0b3c 2cbe 5024 c83d ddd1 dabd 1341 8fbd
00000390: 4c9a 833d ab0a 5abc cd65 35bd 5ad8 f9bd
000003a0: 383f 8a3a 55a9 4c3c 56d7 3bbe 1894 f83c
000003b0: f40a 3c3e f0b2 403d cdd6 0fbe aff1 a5bd
000003c0: cbe7 cd3d 71b9 05be cbd1 2abe a299 c1bd
000003d0: 6dd7 9abd 3a22 a13d ae06 c13d e70f 19be
000003e0: b50d c93b bad7 b33d 63f7 01bd d039 29be
000003f0: 45dd 323d a6d5 933c b1b7 653d f906 0a3e

sequential/conv2d/Conv2D f4 [32, 3, 3, 3]
-0.1350198 -0.09806786 -0.08368403 0.012754358 -0.13731603 -0.025145061 0.016601056 0.016915524
0.1143791 0.11266516 -0.081078984 0.026488714 -0.106778435 0.1315801 0.05731974 0.12657604
-0.06850177 0.044445783 -0.12069794 0.15334566 0.1402251 0.037241988 -0.09242339 0.1524622
0.076554745 -0.04877633 -0.121461906 -0.04346535 -0.10237353 -0.15980029 -0.06743285 0.111184925
0.03932114 -0.10173607 0.17487581 0.19162087 -0.056943618 0.06431493 -0.16641696 -0.0023453794
-1.8055378e-05 -0.0058154697 0.07855536 0.16224037 -0.00011355199 0.04258946 0.016349211 0.045030363
-0.046659175 0.15512723 -0.041267704 -0.08946573 0.043178495 0.12697303 0.06348044 0.015414147
-0.014417768 0.03598949 -0.090426296 -0.01697146 -0.14239456 -0.017962597 0.013260459 -0.08435265
0.06804126 0.0485968 -0.050483402 0.113299884 -0.10192331 -0.0355232 0.010856315 -0.07169614
-0.0865421 -0.029328326 -0.0949894 -0.04981424 -0.0760096 0.1578691 0.13166302 -0.043941453
0.11574544 -0.015444213 0.101637766 -0.03770828 -0.0053134966 -0.13876133 -0.12819628 -0.07421216
-0.09565095 -0.17652662 0.15942918 0.098030716 0.17514202 -0.051376615 -0.023960263 -0.14615318
-0.013830057 0.038293194 -0.11221021 0.14859062 0.14555973 0.029552357 -0.087668136 -0.016409753
0.0783256 -0.092103966 -0.056809925 -0.1313959 -0.13296227 0.004589571 -0.103661746 0.1063034
0.0032187023 0.14324473 -0.10534199 0.14680059 0.11208644 -0.12815127 -0.10454364 -0.020301662
-0.09101208 0.051489282 -0.071682796 0.058079533 0.0735246 -0.05714002 0.010956175 0.09958315
-0.014849872 0.06840844 -0.04626733 0.1251423 -0.031715073 0.14468628 0.076198556 -0.023235904
0.04098884 -0.051187947 -0.1038639 -0.10824543 -0.07003806 -0.08773494 -0.12648357 0.0031144316
-0.126508 -0.0023042161 -0.1281626 -0.051278118 -0.08333685 -0.008588296 0.017941078 0.13195544
0.07785851 -0.040294908 0.042465046 0.17947626 0.1473127 0.090667345 0.043486107 0.09695169
0.055308383 0.08710019 -0.031334653 -0.071849264 0.11070315 -0.13257854 -0.022366986 -0.0908117
-0.027444836 0.091050915 0.0705652 -0.1367387 -0.13894819 0.09094294 -0.05946094 0.016721629
0.0635841 -0.09677213 0.025676068 0.037016664 -0.13596338 -0.07912256 -0.0065819616 0.0029020365
-0.047814492 -0.100345805 -0.10134965 -0.018921094 -0.010737422 -0.0085678045 0.14872164 0.08268245
-0.09886072 0.07967221 -0.07108156 0.088600054 -0.074895315 0.09722974 -0.14066225 0.11368127
0.11518469 -0.011043168 0.13898359 0.06575777 0.06277347 -0.03998414 0.026547093 -0.015448612
0.05590755 0.09831894 0.0026542651 0.13872397 0.04983974 -0.13539442 -0.09022648 -0.13380457
0.089471705 0.10418388 0.10462842 -0.014656223 0.18836308 0.11945287 0.031231157 0.04067413
-0.07177204 -0.10725955 0.121960364 0.111198545 -0.07734684 0.14915009 0.06739978 -0.11866454
-0.1222846 -0.024712253 -0.1311046 0.14832073 -0.024729285 0.08885288 -0.08823849 0.056085568
-0.100078456 -0.10309071 -0.13684346 0.07683973 -0.17476477 -0.1847511 0.04323389 -0.08182861
-0.17881908 0.013997953 -0.14970668 -0.045245025 0.11163908 -0.00892673 0.008580441 -0.05955633
00000000: a142 0abe cdd7 c8bd 8862 abbd a8f7 503c
00000010: 939c 0cbe 04fd cdbc f0fe 873c 6d92 8a3c
00000020: 973f ea3d febc e63d bd0c a6bd dcfe d83c
00000030: a7ae dabd efbc 063e 1bc8 6a3d 269d 013e
00000040: a84a 8cbd c80c 363d 7b30 f7bd a506 1d3e
00000050: 2b97 0f3e 0e8b 183d 7948 bdbd 0d1f 1c3e
00000060: bcc8 9c3d b0c9 47bd 05c1 f8bd b908 32bd
00000070: 37a9 d1bd b0a2 23be 3c1a 8abd ecb4 e33d
00000080: 340f 213d 005b d0bd a512 333e 4338 443e
00000090: b63d 69bd 8cb7 833d 3569 2abe f0b4 19bb
000000a0: a175 97b7 b28f bebb a2e1 a03d 5722 263e
000000b0: c322 eeb8 4972 2e3d c8ee 853c c271 383d
000000c0: b11d 3fbd acd9 1e3e 5308 29bd cf39 b7bd
000000d0: efdb 303d 3805 023e 0802 823d 9e8b 7c3c
000000e0: 8138 6cbc b769 133d 6c31 b9bd bb07 8bbc
000000f0: e1cf 11be 4c26 93bc 6542 593c 15c1 acbd
00000100: 3759 8b3d 700d 473d afc7 4ebd c509 e83d
00000110: 2bbd d0bd c680 11bd afde 313c 6dd5 92bd
00000120: fc3c b1bd f541 f0bc cd89 c2bd 040a 4cbd
00000130: ecaa 9bbd 70a8 213e acd2 063e f4fb 33bd
00000140: f20b ed3d b909 7dbc 7627 d03d ff73 1abd
00000150: d71c aebb 7317 0ebe e345 03be 8cfc 97bd
00000160: a5e4 c3bd 65c3 34be 6741 233e 54c4 c83d
00000170: 6e58 333e 4970 52bd 5048 c4bc 2ea9 15be
00000180: 7797 62bc 53d9 1c3d 77ce e5bd 2428 183e
00000190: 9c0d 153e c917 f23c 5a8b b3bd bf6d 86bc
000001a0: 2c69 a03d 01a1 bcbd 86b1 68bd a68c 06be
000001b0: 4327 08be 1d64 963b 9c4c d4bd 99b5 d93d
000001c0: ddf0 523b bfae 123e 8bbd d7bd e552 163e
000001d0: 938d e53d 163a 03be fa1a d6bd ac4f a6bc
000001e0: 8b64 babd 6de6 523d 6ece 92bd cee4 6d3d
000001f0: 1194 963d a70b 6abd 8781 333c 40f2 cb3d
00000200: e14c 73bc b919 8c3d d082 3dbd 4e25 003e
00000210: aae7 01bd a428 143e fd0d 9c3d 3959 bebc
00000220: eae3 273d 74aa 51bd 99b6 d4bd c8af ddbd
00000230: 1d70 8fbd 60ae b3bd e984 01be 7e1b 4c3b
00000240: 508b 01be 5502 17bb 0e3d 03be 0109 52bd
00000250: 83ac aabd edb5 0cbc 2bf9 923c 541f 073e
00000260: 4874 9f3d 460c 25bd d4ef 2d3d a0c8 373e
00000270: 24d9 163e cdaf b93d 7d1e 323d 9c8e c63d
00000280: 0b8b 623d 9661 b23d c458 00bd b525 93bd
00000290: 55b8 e23d abc2 07be f83a b7bc 7cfb b9bd
000002a0: fed3 e0bc e778 ba3d 7d84 903d 3b05 0cbe
000002b0: 6f48 0ebe 4b40 ba3d 518d 73bd ccfb 883c
000002c0: 6138 823d 7730 c6bd 9e56 d23c c99e 173d
000002d0: fc39 0bbe 020b a2bd 7fad d7bb 1830 3e3b
000002e0: 21d9 43bd 1a82 cdbd 6890 cfbd 6900 9bbc
000002f0: 03ec 2fbc fa5f 0cbc 7c4a 183e 6b55 a93d
00000300: 7d77 cabd 2f2b a33d 3593 91bd f273 b53d
00000310: b762 99bd 6320 c73d c409 10be bad1 e83d
00000320: f3e5 eb3d 67ee 34bc b751 0e3e 02ac 863d
00000330: 618f 803d 69c6 23bd 4a79 d93c 2d1c 7dbc
00000340: 51ff 643d 715b c93d 2ef3 2d3b a80d 0e3e
00000350: c124 4c3d d6a4 0abe a9c8 b8bd 1104 09be
00000360: f13c b73d 5c5e d53d 6d47 d63d a820 70bc
00000370: 40e2 403e b5a3 f43d 7cd8 ff3c eb99 263d
00000380: 38fd 92bd e5aa dbbd 5bc6 f93d 10bc e33d
00000390: 0568 9ebd cdba 183e e508 8a3d 6506 f3bd
000003a0: 5970 fabd 5a71 cabc 4940 06be 64e1 173e
000003b0: 1295 cabc 80f8 b53d 62b6 b4bd fbb9 653d
000003c0: eff5 ccbd 3921 d3bd b120 0cbe 265e 9d3d
000003d0: 89f5 32be 642f 3dbe 0516 313d c295 a7bd
000003e0: 591c 37be ac57 653c b54c 19be d952 39bd
000003f0: 08a3 e43d 6b41 12bc fa94 0c3c 57f1 73bd

sequential/conv2d_1/Conv2D f4 [32, 3, 3, 32]
0.081526004 -0.1066269 0.05791589 0.02779713 -0.10506641 -0.07693165 0.035586223 -0.07747849
0.031183891 0.09616655 -0.122407645 0.10236855 0.050121028 -0.0022801738 -0.09430317 -0.011317154
0.10335524 0.052917574 0.015678244 0.0453608 0.14682943 0.082021296 0.06753861 0.036082126
0.10584671 0.011064655 0.023444967 -0.110523336 -0.054672636 0.053303465 -0.054449484 0.010282507
0.054443914 -0.07075728 0.0074819294 0.12231909 -0.047572713 -0.03523616 -0.05176334 -0.11818629
0.0101735275 0.118622996 -0.15048565 0.03573118 0.03285498 -0.021687638 0.04489705 -0.06410655
0.027539978 -0.03297947 -0.0489369 -0.04561618 0.1367219 0.0040452844 -0.017300827 -0.13332911
0.07546473 0.050373454 -0.043941293 -0.0202862 -0.060550716 0.0020326648 0.05843119 0.11819559
-0.1105656 -0.15422432 0.0686353 0.050805155 -0.055594403 -0.097169 0.00616645 0.044379596
-0.052578412 -0.059303187 -0.08875196 0.119196154 -0.076853104 0.0014608308 0.051720038 0.074267
0.0007645204 -0.12303232 0.0678742 0.038071286 -0.07701966 0.091858566 0.041922998 -0.0705939
-0.0846697 -0.05943711 -0.008455297 -0.00034257045 -0.07705701 -0.017422108 0.019553084 0.125804
-0.09512299 -0.111586295 -0.028610038 -0.059417468 0.00071661646 -0.018280322 0.0076629245 -0.059551407
-0.07613519 -0.022688508 -0.043153834 0.057041094 0.081909046 0.07871726 0.03205959 0.07643166
0.0549206 0.079141796 0.09626672 0.11300509 0.008081144 -0.07153724 0.06073128 0.0065121884
0.050974473 0.10160433 0.06988559 0.0396676 -0.09902063 0.0020678344 -0.099146895 -0.06504095
0.10180404 -0.12028538 0.012437817 -0.030314675 0.07887917 0.117191665 -0.00095363485 0.03283188
-0.028625626 -0.019490289 0.046188347 0.061711054 -0.060532082 0.124479435 -0.022894155 0.0326698
0.07955198 -0.012152161 0.019782605 -0.054295175 0.14987189 0.030982118 0.2045282 -0.061936166
0.018751198 -0.09132442 -0.09530101 0.013192409 0.0039287615 -0.06783246 0.03712218 0.028088992
0.06370672 -0.12675917 -0.08921324 0.13640794 -0.03502476 0.08142808 -0.01725898 -0.01665683
-0.10234351 0.012495349 -0.056047186 0.02915258 -0.13188435 0.1478415 -0.10326381 0.07057126
0.08014918 -0.08445739 -0.07209509 0.030086318 0.06346309 -0.0053377524 0.048123952 -0.12831806
0.0739172 -0.05281561 0.11364817 -0.07134277 0.005714291 -0.082314886 -0.002439196 0.060905736
0.050739437 -0.018805286 -0.12831092 -0.10821817 -0.08728085 0.042293858 0.007099312 -0.13479292
-0.08387719 0.05655324 -0.019004915 0.034362517 -0.07703805 -0.008148817 -0.11929871 0.035544004
0.076089054 0.028351849 0.03178079 -0.070556395 0.07626248 0.05283606 -0.060059704 0.043844216
-0.08966212 0.10511659 -0.068680584 -0.17225353 -0.026383642 -0.105012275 -0.0014215768 -0.11297049
0.05723591 -0.0816899 0.055184163 -0.023286475 -0.0028671857 -0.027516589 -0.0059019374 0.06073549
-0.064243026 -0.04212733 0.0312543 -0.011744457 -0.10793516 0.12945998 0.0070563075 0.080162376
0.0830888 -0.027859109 -0.03921072 0.013552579 0.119555905 -0.114854865 0.158931 0.084452674
-0.08049554 0.08594832 -0.00027699905 -0.11137194 0.11825568 -0.037802704 0.009233093 -0.05769034
00000000: 1bf7 a63d 345f dabd 3639 6d3d cfb6 e33c
00000010: 0f2d d7bd 578e 9dbd dcc2 113d 0bad 9ebd
00000020: 5c75 ff3c f8f2 c43d dcb0 fabd 9aa6 d13d
00000030: b54b 4d3d f86e 15bb 0522 c1bd 966b 39bc
00000040: e9ab d33d 19c0 583d a96f 803c 3fcc 393d
00000050: 745a 163e c8fa a73d af51 8a3d daca 133d
00000060: 29c6 d83d 8748 353c a90f c03c 0f5a e2bd
00000070: 6af0 5fbd bc54 5a3d 6c06 5fbd f677 283c
00000080: 9500 5f3d 31e9 90bd f92a f53b 6e82 fa3d
00000090: 9bdb 42bd cb53 10bd cc05 54bd a70b f2bd
000000a0: deae 263c 9df0 f23d e918 1abe dc5a 123d
000000b0: f292 063d 46aa b1bc f8e5 373d 4b4a 83bd
000000c0: 859b e13c 7b15 07bd 0f72 48bd 08d8 3abd
000000d0: d300 0c3e 4e8e 843b 77ba 8dbc 6d87 08be
000000e0: 418d 9a3d 6554 4e3d c9fb 33bd 3f2f a6bc
000000f0: 0704 78bd 7536 053b 8b55 6f3d 8810 f23d
00000100: 3870 e2bd fbec 1dbe aa90 8c3d 1119 503d
00000110: f5b6 63bd 8a00 c7bd ef0f ca3b 61c7 353d
00000120: 765c 57bd e6e7 72bd 96c3 b5bd 1d1d f43d
00000130: 2965 9dbd 5979 bf3a 64d8 533d 4c19 983d
00000140: 186a 483a 5ef8 fbbd a101 8b3d a3f0 1b3d
00000150: 7cbc 9dbd 5820 bc3d 73b7 2b3d 8993 90bd
00000160: 4f67 adbd 5474 73bd 1688 0abc 079b b3b9
00000170: 11d0 9dbd cfb8 8ebc ca2d a03c c4d2 003e
00000180: d8cf c2bd 5b87 e4bd 995f eabc bb5f 73bd
00000190: 51db 3b3a 9dc0 95bc 4519 fb3b 2dec 73bd
000001a0: c4ec 9bbd 40dd b9bc 13c2 30bd eca3 693d
000001b0: eebf a73d 8436 a13d eb50 033d 3488 9c3d
000001c0: 6cf4 603d 1815 a23d 7c27 c53d 366f e73d
000001d0: c666 043c 1e82 92bd 5dc1 783d 3264 d53b
000001e0: 9cca 503d ee15 d03d 2d20 8f3d 7e7a 223d
000001f0: 54cb cabd 8184 073b 870d cbbd 3134 85bd
00000200: a37e d03d 2e58 f6bd fcc7 4b3c 7b56 f8bc
00000210: 678b a13d 2f02 f03d 5afd 79ba b97a 063d
00000220: 4a80 eabc 19aa 9fbc fe2f 3d3d bbc4 7c3d
00000230: 7df0 77bd 13ef fe3d 868c bbbc c5d0 053d
00000240: 26ec a23d dc19 47bc 210f a23c 9e64 5ebd
00000250: 0478 193e 36ce fd3c d76f 513e c7b0 7dbd
00000260: 1d9c 993c 4c08 bbbd 2d2d c3bd f924 583c
00000270: d7bc 803b bfeb 8abd 6d0d 183d e31a e63c
00000280: ab78 823d 28cd 01be 6eb5 b6bd 86ae 0b3e
00000290: 1f76 0fbd c4c3 a63d b462 8dbc e873 88bc
000002a0: 7999 d1bd 4bb9 4c3c bc91 65bd 64d1 ee3c
000002b0: b10c 07be c363 173e fa7b d3bd aa87 903d
000002c0: 4125 a43d fff7 acbd 97a6 93bd 9577 f63c
000002d0: f0f8 813d 50e8 aebb 9f1d 453d cf65 03be
000002e0: e761 973d 2e55 58bd 5fc0 e83d 281c 92bd
000002f0: f23e bb3b b594 a8bd ebda 1fbb 4b78 793d
00000300: 28d4 4f3d 8b0d 9abc f063 03be 7da1 ddbd
00000310: 4dc0 b2bd 533c 2d3d 58a1 e83b 2807 0abe
00000320: cec7 abbd 5fa4 673d 32b0 9bbc b6bf 0c3d
00000330: 20c6 9dbd 9e82 05bc e252 f4bd 9796 113d
00000340: 94d4 9b3d 2342 e83c 932c 023d df7f 90bd
00000350: 812f 9c3d a06a 583d 2a01 76bd fe95 333d
00000360: c6a0 b7bd 5e47 d73d 68a8 8cbd 3b63 30be
00000370: 8222 d8bc ad10 d7bd 3454 baba 125d e7bd
00000380: 3470 6a3d 094d a7bd ca08 623d 47c3 bebc
00000390: 65e7 3bbb 786a e1bc 0a65 c1bb c7c5 783d
000003a0: d991 83bd b58d 2cbd 8204 003d d36b 40bc
000003b0: 1c0d ddbd 2891 043e 9938 e73b 2c2c a43d
000003c0: 762a aa3d c938 e4bc 6c9b 20bd a30b 5e3c
000003d0: bad9 f43d 0739 ebbd cfbe 223e 86f5 ac3d
000003e0: d8da a4bd ac05 b03d 2f3a 91b9 f916 e4bd
000003f0: 0930 f23d 02d7 1abd 6646 173c b54c 6cbd

sequential/conv2d_2/Conv2D f4 [32, 3, 3, 32]
0.031476025 0.08574093 0.06024224 -0.09515586 0.06363062 -0.05532919 0.035989564 -0.008372485
-0.025981268 -0.041645017 0.08080504 -0.12207042 -0.10900999 0.011468801 -0.08889651 -0.051778004
0.08753981 -0.064245425 -0.08388451 0.039012287 -0.07487921 0.06963406 0.13640976 -0.038366877
-0.06475073 -0.08674185 -0.06821738 -0.010738728 0.053436123 -0.07754486 -0.12194054 -0.060358316
-0.06189131 0.017591622 -0.0004049981 -0.02301586 -0.011102231 -0.16819791 0.0041822945 -0.013707173
-0.07443136 -0.14358619 -0.16261448 0.003223374 -0.016784681 0.038286217 -0.10026767 -0.1572315
-0.037669044 0.012422858 -0.035092175 0.01874136 -0.0073126163 0.09126483 0.0076297936 0.057921074
-0.044134002 -0.07428249 -0.10422808 0.13893422 0.043331094 -0.057316784 -0.029143311 -0.00064528966
0.12735566 -0.08371711 0.072489984 -0.12357194 0.008460025 -0.0577971 0.046413407 -0.06804737
-0.06835094 -0.096701466 -0.08280508 -0.042370412 0.013108772 -0.011012656 0.023471067 -0.13829488
-0.14286521 -0.0054057078 -0.008499552 -0.03183029 -0.061175074 -0.014601086 0.08029883 -0.04046406
-0.03300704 0.07121512 -0.01129573 0.102670215 -0.06780445 0.041812625 -0.07740212 -0.09418104
-0.06827599 0.04235475 -0.12507506 -0.11142212 0.034915116 0.041271605 0.01928951 0.05206274
0.03470802 -0.02856605 -0.044251624 0.023647182 -0.06490272 -0.06265305 -0.047656193 0.05673038
0.045086395 0.059227128 -0.121188246 -0.048500292 -0.008951304 -0.14896688 -0.09858523 -0.056809064
-0.059930068 -0.09444084 0.026271021 -0.065767094 -0.055193737 -0.023011042 -0.07222732 0.06403747
-0.10755403 0.03235695 -0.0439957 0.016624708 0.03705672 0.060813673 -0.058083866 0.009000571
-0.07539642 -0.062393915 0.0051784217 -0.0075842203 0.092264324 -0.070312314 0.027373943 -0.09630412
0.031729396 -0.13696131 -0.04072788 -0.07043817 -0.13885841 -0.067285955 0.018246187 0.018571753
0.046417303 -0.1458952 -0.12445998 -0.08807789 -0.07327747 0.0055325814 0.008834488 -0.027048972
-0.07088439 0.06968356 -0.016516116 0.0008575735 0.055290684 0.02223266 -0.028135385 0.004687599
-0.0638472 -0.0654239 -0.051802833 0.08221833 0.061153427 0.039662946 0.07010908 -0.0076464885
-0.04875797 0.0663572 -0.04499695 0.0099224765 0.03493722 -0.048913527 0.100155786 0.07193708
-0.15280192 -0.03780903 -0.052248586 0.13082734 0.12681396 -0.052462272 -0.03191059 0.07048683
-0.043023176 -0.024332574 0.10274443 0.06858545 -0.004165055 0.043293957 0.039076783 -0.04550527
-0.077169836 0.09474373 -0.049594764 0.052208245 -0.015112477 -0.115681276 -0.11791221 -0.14732012
-0.02457093 0.016572198 0.10079705 -0.056402154 0.046193246 0.07509633 0.0143737495 -0.052821476
0.05871821 0.022884065 0.07426607 0.08133136 0.03350863 0.116510674 0.06857719 -0.021790765
-0.0064066867 0.010635138 0.028949587 0.1122469 0.082324535 0.043059792 0.096159674 -0.04842691
-0.034037087 -0.03409908 0.028175158 0.033725005 0.0015016058 -0.056274932 0.020745078 -0.051967464
0.10445096 0.046589576 0.079426676 -0.002528324 -0.014157949 -0.057203587 -0.08715816 0.059464276
-0.00025923856 -0.03856996 -0.02404057 0.025887018 0.030841278 0.107784815 0.116702154 -0.13467455
00000000: 01ed 003d f198 af3d 91c0 763d 13e1 c2bd
00000010: c550 823d dca0 62bd cb69 133d bf2c 09bc
00000020: abd6 d4bc f793 2abd 1d7d a53d 0e00 fabd
00000030: a140 dfbd a3e7 3b3c 600f b6bd 2c15 54bd
00000040: 1248 b33d 1b93 83bd a4cb abbd 59cb 1f3d
00000050: 455a 99bd 4d9c 8e3d 00af 0b3e 9626 1dbd
00000060: 089c 84bd b6a5 b1bd 8eb5 8bbd 7df1 2fbc
00000070: d6df 5a3d d7cf 9ebd f6bb f9bd 483a 77bd
00000080: be81 7dbd 4e1c 903c ed55 d4b9 c28b bcbc
00000090: 22e6 35bc 133c 2cbe a10b 893b 0d94 60bc
000000a0: 786f 98bd 4208 13be 6984 26be 3e3f 533b
000000b0: 0780 89bc 02d2 1c3d 2359 cdbd 4b01 21be
000000c0: db4a 1abd 3e89 4b3c d0bc 0fbd 7b87 993c
000000d0: ac9e efbb 0ee9 ba3d 5903 fa3b a63e 6d3d
000000e0: dbc5 34bd 6b21 98bd 8875 d5bd c644 0e3e
000000f0: f27b 313d 01c5 6abd f4bd eebc a828 29ba
00000100: 8669 023e e073 abbd a175 943d 4913 fdbd
00000110: eb9b 0a3c a7bc 6cbd fc1b 3e3d 6b5c 8bbd
00000120: 94fb 8bbd 6b0b c6bd b695 a9bd 998c 2dbd
00000130: 2dc6 563c 6d6e 34bc 6546 c03c 2c9d 0dbe
00000140: 424b 12be 5d22 b1bb b441 0bbc 7a60 02bd
00000150: b792 7abd 6539 6fbc b773 a43d a4bd 25bd
00000160: 6432 07bd 3cd9 913d ba11 39bc c344 d23d
00000170: 0fdd 8abd b743 2b3d 0185 9ebd fde1 c0bd
00000180: 48d4 8bbd 2d7c 2d3d ad13 00be 4831 e4bd
00000190: 2703 0f3d 6a0c 293d 0905 9e3c bd3f 553d
000001a0: ff29 0e3d 5903 eabc 3141 35bd bcb7 c13c
000001b0: b8eb 84bd 3e50 80bd 2433 43bd 1d5e 683d
000001c0: 83ac 383d 2598 723d 8b31 f8bd 3ea8 46bd
000001d0: 7da8 12bc c68a 18be 0ee7 c9bd 9fb0 68bd
000001e0: 3b79 75bd 336a c1bd 5336 d73c e6b0 86bd
000001f0: d412 62bd a781 bcbc ebeb 93bd 1426 833d
00000200: 4a45 dcbd b988 043d d634 34bd 8a30 883c
00000210: cac8 173d c217 793d 59e9 6dbd 2277 133c
00000220: 7069 9abd c390 7fbd c0af a93b 0d85 f8bb
00000230: 14f5 bc3d e7ff 8fbd 523f e03c 183b c5bd
00000240: aff6 013d 963f 0cbe 47d2 26bd e341 90bd
00000250: e630 0ebe 38cd 89bd 0779 953c ca23 983c
00000260: 1220 3e3d 8d65 15be e0e4 febd 2e62 b4bd
00000270: 8012 96bd a84a b53b 87be 103c ce95 ddbc
00000280: d62b 91bd 41b6 8e3d ce4c 87bc c9ce 603a
00000290: 7c78 623d 4421 b63c 2e7c e6bc 6e9a 993b
000002a0: 52c2 82bd f7fc 85bd 352f 54bd 1562 a83d
000002b0: 047c 7a3d 9d75 223d 5995 8f3d 658f fabb
000002c0: 70b6 47bd 49e6 873d b94e 38bd e291 223c
000002d0: 551a 0f3d 8d59 48bd 7a1e cd3d bf53 933d
000002e0: 1b78 1cbe a4dd 1abd 9d02 56bd 9af7 053e
000002f0: 85db 013e aee2 56bd aeb4 02bd 665b 903d
00000300: 1239 30bd 1b55 c7bc ac6b d23d 8776 8c3d
00000310: 047b 88bb 0155 313d fa0e 203d bc63 3abd
00000320: 380b 9ebd 0009 c23d e123 4bbd 50d8 553d
00000330: 539a 77bc 4eea ecbd f57b f1bd 16db 16be
00000340: fa48 c9bc 6bc2 873c af6e ce3d f205 67bd
00000350: 2135 3d3d 1bcc 993d e07f 6b3c 555b 58bd
00000360: 8182 703d 5d77 bb3c cf18 983d 0e91 a63d
00000370: 5840 093d 269d ee3d 3372 8c3d 8c82 b2bc
00000380: 2fef d1bb 003f 2e3c af27 ed3c b4e1 e53d
00000390: c499 a83d 775f 303d 5def c43d 4c5b 46bd
000003a0: 796a 0bbd 7aab 0bbd 97cf e63c 3b23 0a3d
000003b0: 88d1 c43a 8b80 66bd 95f1 a93c d6db 54bd
000003c0: 63ea d53d b6d4 3e3d 74aa a23d 3db2 25bb
000003d0: bef6 67bc 4f4e 6abd fa7f b2bd d090 733d
000003e0: 69ea 87b9 89fb 1dbd bbf0 c4bc 0311 d43c
000003f0: d9a6 fc3c 49be dc3d 8a01 ef3d 20e8 09be

sequential/conv2d_1/BiasAdd;sequential/conv2d_2/Conv2D;sequential/conv2d_1/Conv2D;sequential/conv2d_1/BiasAdd/ReadVariableOp/resource f4 [32]
-0.016407894 0.018226638 -0.011764482 -0.06590359 0.02282713 -0.013532102 -0.020205444 -0.016076017
0.012895192 -0.003541658 0.037051868 -0.029921629 -0.01032881 -0.024481062 -0.010878824 -0.025425429
-0.031657863 -0.025908234 0.036854222 -0.018557193 -0.03819066 0.048806626 -0.070386216 0.021279482
0.027078144 0.04133936 -0.0043561924 0.017186461 4.1609084e-05 -0.024577405 0.025525963 -0.042635527
00000000: d969 86bc 0850 953c d0bf 40bc 76f8 86bd
00000010: f6ff ba3c c0b5 5dbc e385 a5bc dab1 83bc
00000020: 5b46 533c 291b 68bb b3c3 173d 341e f5bc
00000030: 2b3a 29bc 828c c8bc 183d 32bc fd48 d0bc
00000040: adab 01bd 813d d4bc 74f4 163d 4105 98bc
00000050: cf6d 1cbd 75e9 473d a626 90bd 4f52 ae3c
00000060: fcd2 dd3c 7653 293d 64be 8ebb 9fca 8c3c
00000070: 6a85 2e38 8e56 c9bc d31b d13c 97a2 2ebd

sequential/conv2d_2/BiasAdd;sequential/conv2d_2/Conv2D;sequential/conv2d_2/BiasAdd/ReadVariableOp/resource f4 [32]
-0.008812324 -0.013966586 -0.014117473 -0.0568758 -0.05069087 -0.041404944 -0.050641943 -0.078437254
-0.07041403 -0.07416729 -0.039950423 -0.044046015 -0.057145372 -0.051197015 -0.012243458 -0.019458115
-0.04220876 -0.05720948 -0.042435408 -0.0062254146 0.0051397057 -0.06545461 -0.053060766 -0.05422937
-0.08208107 -0.06152287 -0.02089571 -0.025266038 -0.05814387 -0.042558942 -0.05581988 -0.04063849
00000000: 9161 10bc 1cd4 64bc f94c 67bc 99f6 68bd
00000010: 3ba1 4fbd 3b98 29bd ed6d 4fbd b6a3 a0bd
00000020: 3b35 90bd 05e5 97bd 0ea3 23bd 9869 34bd
00000030: 4411 6abd f6b3 51bd c998 48bc a066 9fbc
00000040: 18e3 2cbd 7d54 6abd c0d0 2dbd 90fe cbbb
00000050: fa6a a83b 110d 86bd 3f56 59bd 9e1f 5ebd
00000060: 1f1a a8bd 68ff 7bbd 7b2d abbc b9fa cebc
00000070: 4428 6ebd 4952 2ebd 63a3 64bd 8c74 26bd
