dig_bk_v3.tflite (tflite, 219388 bytes, 12 tensors)

sequential/conv2d/BiasAdd/ReadVariableOp/resource f4 [32]
0	0xbd3ad498	-0.0456129
1	0x3c2ebb55	0.010664781
2	0xbda9f889	-0.082993574
3	0xbd51196b	-0.05104963
4	0xbcb7531d	-0.022378499
5	0xbdda0209	-0.106449194
6	0x3c63d77e	0.013906358
7	0x3be66bc2	0.0070318887
8	0x3decfb24	0.11571339
9	0xbd24a6f9	-0.0401983
10	0x3cf227ac	0.029559933
11	0x3c30a0e8	0.010780551
12	0xbcc1c3a0	-0.023652852
13	0x3c260c08	0.010134704
14	0x3d95f91d	0.07322905
15	0xbd206e26	-0.039167546
16	0xbb91383a	-0.0044317516
17	0xbc5c2b64	-0.0134380795
18	0x3e04d20a	0.12970749
19	0xbc868b96	-0.016423982
20	0xbbd7dd2e	-0.006587646
21	0xbd914b07	-0.070943885
22	0xbccdc787	-0.025119556
23	0xbd91bf08	-0.071165144
24	0xbd6b49c5	-0.0574434
25	0xbd951bd6	-0.072807
26	0xbdab6f51	-0.08370841
27	0xbc937627	-0.018000675
28	0xbd01c9af	-0.03168648
29	0xbde10f79	-0.10989279
30	0xbd04b6a4	-0.032400742
31	0xbda958ff	-0.08268928

sequential/dense/BiasAdd/ReadVariableOp/resource f4 [128]
0	0x3cbd68bd	0.023121232
1	0xba9969fe	-0.0011704562
2	0xb911d2fd	-0.00013906877
3	0x3d2a3aea	0.04156009
4	0xbc798c3d	-0.015231189
5	0xbd1df995	-0.038568098
6	0x3c77eb3e	0.01513177
7	0xbbabe1cb	-0.0052454225
8	0x3c4a901d	0.012363461
9	0xbd083418	-0.033252805
10	0xbcd3ec1a	-0.025869418
11	0xbc0f3e51	-0.008742885
12	0xbc446076	-0.011985889
13	0xbd01e3e9	-0.031711493
14	0x3d018948	0.031625062
15	0x3ac66a56	0.0015137892
16	0xbc3793fe	-0.011204718
17	0x3bc3f91d	0.0059806244
18	0xbbf9a1bd	-0.0076181577
19	0x3b916e99	0.004438233
20	0xbb641507	-0.0034802572
21	0x3c87f08e	0.016594198
22	0xbca803e6	-0.020509671
23	0xbc61cb33	-0.013781357
24	0xbc07796b	-0.008268694
25	0x3d1497d6	0.036277615
26	0x3d5119f8	0.051050156
27	0xbbbedf74	-0.0058249775
28	0x3d0cddc3	0.034391176
29	0xbcbb5532	-0.022867773
30	0xbc461390	-0.012089625
31	0x3ada4065	0.0016651271
32	0xbcadcef0	-0.02121684
33	0x3cbe59ea	0.023236234
34	0x3c113fdf	0.008865326
35	0x3c10e361	0.008843274
36	0xbcf3a9bf	-0.029744027
37	0xbcbd5c75	-0.023115376
38	0x3d0e4a9d	0.034739126
39	0xbc4a01d2	-0.012329536
40	0x3d2ae262	0.0417198
41	0x3b9eecaf	0.004849992
42	0xbc3ee44c	-0.01165111
43	0x3ba23b3d	0.0049509094
44	0x3c95a2cf	0.01826611
45	0xbcfd248c	-0.030901216
46	0xbb01c17f	-0.001979917
47	0xbc378d36	-0.011203101
48	0xbc9cff60	-0.019164741
49	0xbc9f32ad	-0.019433344
50	0x3bd542fe	0.00650823
51	0x3accc9bc	0.0015624086
52	0x3c50ec41	0.01275164
53	0x3cd50ef5	0.026008109
54	0xbd0537f2	-0.032524057
55	0xbb90d616	-0.0044200523
56	0x3d1e9ded	0.03872483
57	0xbcfc5090	-0.030800134
58	0xbd5cb306	-0.053881668
59	0xbc4e2b97	-0.012583635
60	0x3cd2a382	0.025712732
61	0xbd28ec5e	-0.041241042
62	0x3c9c9721	0.019115033
63	0x3cb6c396	0.02231006
64	0xbc9eb6ca	-0.01937427
65	0xbc915ac1	-0.01774347
66	0xbd53a848	-0.051674157
67	0xbca7f67c	-0.020503275
68	0xbce81410	-0.028329879
69	0xbd657305	-0.056017894
70	0x3c4ab8f2	0.012373196
71	0xbd04ae7d	-0.032392967
72	0xbd1a1854	-0.037620857
73	0xbbc455be	-0.0059916666
74	0x3c9e0c05	0.01929284
75	0xbd1a69c7	-0.037698533
76	0xbd67a22d	-0.056551147
77	0x3b6742cb	0.0035287614
78	0xbc1b4794	-0.009477515
79	0xba073789	-0.00051581167
80	0x3c9143f4	0.017732598
81	0xbc44b6ca	-0.012006471
82	0x3cd9d496	0.026590627
83	0xbd35a928	-0.044350773
84	0xbd1287bc	-0.035773978
85	0xba243362	-0.000626376
86	0x3da194c2	0.078897014
87	0x3d2d7d89	0.042356048
88	0xbd637c77	-0.05553862
89	0xbd5d5ca1	-0.054043416
90	0xbc019ba1	-0.00791064
91	0xbd1e2236	-0.038606845
92	0xbca8202f	-0.020523159
93	0x3d2aab13	0.041667055
94	0xbbb90786	-0.005646649
95	0xbbdf7dd4	-0.00682042
96	0x38a5c36a	7.904212e-05
97	0xbc2d69de	-0.010584323
98	0xbc989cac	-0.018629394
99	0xbbcaeeea	-0.0061930316
100	0x3c37cb83	0.011217955
101	0xbcddcfac	-0.027076565
102	0x3d5423a6	0.05179181
103	0xbc47f38c	-0.012204062
104	0xbc8bffdf	-0.017089782
105	0x3ba80885	0.0051279687
106	0xbc7d735f	-0.015469401
107	0xbd0c2a7e	-0.03422021
108	0xbc50f45a	-0.01275357
109	0x3cff5b47	0.031171454
110	0xbccd4d4e	-0.025061276
111	0x3cc19cd8	0.02363436
112	0xbc96dfc8	-0.018417254
113	0x39c68dae	0.00037871063
114	0xbbc25162	-0.0059301117
115	0xbb05246e	-0.0020315903
116	0xbc07ab68	-0.0082806125
117	0xbc6be828	-0.014398612
118	0x3cb9b417	0.022668881
119	0xbbb20bf5	-0.0054335543
120	0x3d23e978	0.040017575
121	0xbcd1d44a	-0.025613923
122	0x3cf70e51	0.030158194
123	0x3d18b52f	0.037282165
124	0xbcacad54	-0.021078743
125	0xbc9fe842	-0.019519929
126	0x3bc3616f	0.0059625427
127	0x3b29bf3a	0.0025901333

sequential/dense_1/BiasAdd/ReadVariableOp/resource f4 [11]
0	0xbd9200a7	-0.07129031
1	0xbd642ed8	-0.055708736
2	0xbd140756	-0.03613981
3	0xbd5c89a3	-0.053842198
4	0xbd3185d2	-0.04334051
5	0xbcee8be3	-0.029119438
6	0xbd404dd4	-0.046949223
7	0xbb550dca	-0.003250944
8	0xbcb08716	-0.021548789
9	0x3ce3b39c	0.027795605
10	0xbddaf086	-0.106904075

sequential/batch_normalization/FusedBatchNormV3 f4 [3]
0	0xc0170f04	-2.3602915
1	0xbfbe86b7	-1.4884862
2	0xbf99ea03	-1.202454

sequential/batch_normalization/FusedBatchNormV31 f4 [3]
0	0x3c9abfef	0.01889035
1	0x3c99c725	0.018771717
2	0x3ca94415	0.020662347

sequential/dense/MatMul f4 [128, 256]
0	0x3d1d40c6	0.03839185
1	0xbdbaf25a	-0.09128256
2	0x3ba399e4	0.0049927104
3	0xbcc6a2a0	-0.024247468
4	0x3e1c5da6	0.15270099
5	0xbc303567	-0.01075492
6	0x3d4028ad	0.04691379
7	0xbe0c49b2	-0.13699988
8	0xbcef8d46	-0.02924217
9	0xbd0ea3c3	-0.034824144
10	0xbdddeb4c	-0.10835895
11	0x3bfb7dc7	0.007674906
12	0x3d891f88	0.06695467
13	0x3d603183	0.054734718
14	0x3d2aef1b	0.041731935
15	0x3df84508	0.12122542
16	0xbbe54987	-0.0069972905
17	0xbd679f4a	-0.056548394
18	0x3dfe8e9b	0.124295436
19	0x3da47ab5	0.08031217
20	0x3cc938a7	0.024563147
21	0xbdbc86cc	-0.09205398
22	0x3d879347	0.06619888
23	0xbd0ab770	-0.033866346
24	0x3d3e41ed	0.04644959
25	0x3c588831	0.013216064
26	0xbe0220c1	-0.12707807
27	0x3d2b20bd	0.04177927
28	0x3b143632	0.002261531
29	0x3dc6a8a3	0.09700134
30	0xbe274d5c	-0.16338104
31	0xbdb81c6d	-0.08989797
32	0xbd9c15b5	-0.07621328
33	0x3d0034ec	0.03130047
34	0xbdc4b29f	-0.09604382
35	0x3dc8056a	0.09766658
36	0xbd4480d2	-0.047974415
37	0xbe079dad	-0.13243742
38	0xbe23f80f	-0.16012596
39	0xbdc6d59d	-0.09708712
40	0xbe32bb6b	-0.17454307
41	0xbd930b90	-0.0717994
42	0xb9aeee21	-0.00033365286
43	0xbda86f0d	-0.08224306
44	0x3d723dac	0.059140846
45	0x3b79de50	0.0038126893
46	0x3d2a2762	0.041541465
47	0xbd80b75e	-0.062849745
48	0xbc641301	-0.0139205465
49	0x3e181d1e	0.14854857
50	0x3dd41c77	0.10356992
51	0xbc1d9a6e	-0.009619338
52	0xbdd6cb92	-0.10488047
53	0x3e1260ee	0.14294788
54	0x3d65ebf5	0.05613323
55	0x3d0a945d	0.033832897
56	0x3e062cb6	0.13102993
57	0xbe0663bb	-0.13123982
58	0xbd73b5f2	-0.05949969
59	0xbe0e2b1a	-0.1388363
60	0x3dd1ca0d	0.10243616
61	0x3e42b0a2	0.19012693
62	0xbd9e7e8f	-0.07738983
63	0x3cad03b6	0.021119934
64	0xbcab2bfe	-0.020895
65	0x3d45ef93	0.04832418
66	0xbde5364a	-0.111919954
67	0xbdd56fce	-0.10421716
68	0x3d70f5b9	0.05882809
69	0x3d274e83	0.04084636
70	0x3b3fae50	0.0029248185
71	0x3dbd78cc	0.09251556
72	0xbdf01c1f	-0.11724114
73	0x3e05dfdd	0.13073678
74	0xbcc1dcc6	-0.023664843
75	0xbcccb2ff	-0.024987696
76	0xbdba66ce	-0.0910164
77	0xbe2ae83d	-0.16690154
78	0xbd9410d5	-0.07229773
79	0xbe0dfd48	-0.1386615
80	0xbd26d155	-0.04072698
81	0xbd316e81	-0.043318275
82	0x3dacf5bf	0.0844531
83	0x3db70549	0.08936555
84	0x3abc418c	0.0014362796
85	0xbdf2f7a3	-0.11863639
86	0x3d2342c7	0.039858606
87	0x3d8fcad1	0.07021106
88	0x3e2503cf	0.16114734
89	0xbd9c632c	-0.07636103
90	0xbdf026f3	-0.11726179
91	0x3d378b9e	0.044810884
92	0x3dcbf62f	0.09959065
93	0xbc10f5de	-0.008847682
94	0xbd5f219b	-0.054475408
95	0x3c1e310d	0.009655249
96	0xbd9eef89	-0.077605315
97	0x3cf677dd	0.030086452
98	0xbe1a5fad	-0.1507556
99	0x3dbfcfd0	0.09365809
100	0x3d5c4753	0.053778958
101	0xbdce0a2f	-0.10060536
102	0x3deee26d	0.11664281
103	0x3d67bd73	0.056577157
104	0x3e2b5627	0.16732083
105	0x3d0274df	0.03184974
106	0xbe29cfa0	-0.16583109
107	0x3e18137a	0.1485118
108	0x3dd39b4a	0.103323534
109	0xbbbabfa5	-0.0056991153
110	0xbd43c995	-0.047799665
111	0x3ca97aa4	0.020688362
112	0x3d72ec83	0.059307586
113	0xbc83d588	-0.01609303
114	0xbc4ab4bc	-0.012372192
115	0xbd7cb6af	-0.06169766
116	0xbd1df58f	-0.03856426
117	0x3d243383	0.040088188
118	0x3d860e00	0.06545639
119	0xbbde2d04	-0.0067802686
120	0xbd40a2dc	-0.047030315
121	0xbda10100	-0.07861519
122	0xbe07cafa	-0.13261023
123	0xbd4a3fc0	-0.049377203
124	0x3e0d5d1f	0.13805054
125	0xbdc01983	-0.09379866
126	0xbda6af7d	-0.081389405
127	0xbd8a6f30	-0.067594886
128	0x3d7612b4	0.06007643
129	0x3d16d07e	0.036819927
130	0xbd9461d6	-0.07245223
131	0xbdc8a82f	-0.097977035
132	0x3d422784	0.047400966
133	0x3c5ab305	0.013348346
134	0xbcceb27e	-0.025231596
135	0x3dca2504	0.098703414
136	0x3dae723c	0.08517882
137	0x3e2e28ce	0.17007753
138	0xb959a221	-0.0002075513
139	0x3ccdf148	0.025139466
140	0xbd72f1db	-0.059312683
141	0x3d8aaf2b	0.06771692
142	0xbde2ac6d	-0.11068044
143	0xbd887b5e	-0.066641554
144	0x3cfe79dc	0.031063966
145	0x3dda485b	0.10658332
146	0xbd6309ea	-0.055429377
147	0xbd0ce0fb	-0.034394246
148	0xbd8fbb4e	-0.070181474
149	0xbd622799	-0.055213545
150	0xbdea8b37	-0.114523344
151	0x3d653978	0.05596301
152	0xbd77fda7	-0.060544636
153	0x3e0c5898	0.13705671
154	0xbe1c2c7b	-0.15251343
155	0xbd182a0e	-0.03714948
156	0x3e3393cc	0.17536849
157	0x3c5329a0	0.012888342
158	0x3d96c513	0.07361808
159	0xbcd4d51b	-0.025980523
160	0x3de4b232	0.111668006
161	0x3d0c8ccc	0.034313962
162	0x3e0c2d5b	0.13689177
163	0xbddb3186	-0.10702805
164	0xbd65b6f9	-0.0560827
165	0xbdafc7eb	-0.08583053
166	0xba2fb54d	-0.0006702736
167	0x3de22638	0.11042446
168	0x3d9b0abd	0.075704075
169	0xbd9e1a1d	-0.077198245
170	0xbcee4376	-0.029084902
171	0xbcdf7300	-0.027276516
172	0xbc85966c	-0.016307078
173	0xbd689eb5	-0.05679198
174	0x3d77a29d	0.060457814
175	0xbdbaf884	-0.09129432
176	0xbdc477f1	-0.095931895
177	0xbe111f0c	-0.14172
178	0x3c39accd	0.011332703
179	0x3dbfd93a	0.093676046
180	0xbcea369a	-0.02859049
181	0x3dfacaa1	0.1224568
182	0xbd054da2	-0.03254474
183	0x3cd03873	0.025417542
184	0x3d9817cd	0.07426415
185	0xbd2dbc3a	-0.042415835
186	0x3debf107	0.11520582
187	0xbcb7275b	-0.022357633
188	0xbddd75b5	-0.108134665
189	0x3d4b6fc3	0.04966713
190	0x3d6817c1	0.05666328
191	0x3dc65f38	0.0968613
192	0xbdd784f1	-0.105234034
193	0x3da6c8f7	0.081438
194	0x3db43546	0.087992236
195	0x3e0b35fe	0.13594815
196	0xbd680695	-0.056646902
197	0x3bba5ea8	0.0056875534
198	0x3d080aad	0.033213306
199	0x3e04ca77	0.12967859
200	0x3c17601f	0.009239226
201	0x3dde7e9e	0.10863994
202	0x3dfab069	0.12240679
203	0x3da8f1b5	0.08249227
204	0x3dfd44e3	0.12366655
205	0xbdd1b254	-0.102390915
206	0xbd27dfb6	-0.04098483
207	0x3c23e547	0.010003394
208	0xbce7916f	-0.02826759
209	0x3dafd9eb	0.085864864
210	0x3da05e10	0.07830441
211	0xbded4a1f	-0.11586403
212	0xbca8024d	-0.02050891
213	0x3e0585a3	0.1303926
214	0xbd4d4188	-0.050111324
215	0x3d9fc38f	0.07800972
216	0x3e00d415	0.12580903
217	0x3d8fc412	0.07019819
218	0x3de561dc	0.11200306
219	0x3e450f34	0.19244081
220	0x3dfed0fa	0.12442203
221	0x3e180153	0.14844255
222	0x3d811938	0.06303638
223	0xbd8584d5	-0.06519476
224	0x3bae0f0a	0.0053118514
225	0xbd9d6191	-0.07684625
226	0xbca69f94	-0.020339765
227	0xbd6d5f62	-0.057952292
228	0x3b0bd241	0.0021335038
229	0x3d26614e	0.04062014
230	0xbd3befcd	-0.04588299
231	0xbd1ab0b9	-0.037766192
232	0xbddd6eae	-0.10812126
233	0x3cc6a5b1	0.02424893
234	0xbcb46178	-0.022019133
235	0xbd0b0193	-0.03393705
236	0xb99305e7	-0.00028042422
237	0xbe100c0f	-0.140671
238	0x3e173710	0.14767098
239	0x3d3b6359	0.045749042
240	0xbda9e5fa	-0.08295818
241	0xbc3c5d4f	-0.011496856
242	0xbda214f1	-0.079141505
243	0xbd13a26f	-0.03604358
244	0xbd77d82e	-0.0605089
245	0x3c9d7427	0.019220425
246	0x3db4d394	0.08829418
247	0xbcead0a2	-0.028663937
248	0x3df4f472	0.11960687
249	0x3d1db0e2	0.038498767
250	0x3da71f92	0.081603184
251	0x3d99cec4	0.075101405
252	0x3de3b14d	0.11117802
253	0xbd445b00	-0.047938347
254	0x3ccc426d	0.024934018
255	0x3e2ea7e8	0.17056239

sequential/dense_1/MatMul f4 [11, 128]
0	0xbc0bc05d	-0.00852975
1	0x3d3c79af	0.046014484
2	0x3e39092a	0.18069902
3	0xbe929be5	-0.28634563
4	0xbdee480d	-0.11634836
5	0xbe45e037	-0.19323812
6	0xbe62816d	-0.22119685
7	0x3dfaf38a	0.12253483
8	0xbe02f168	-0.12787402
9	0xbe19acec	-0.1500737
10	0xbe4d65cd	-0.20058365
11	0x3df00710	0.11720097
12	0x3d0a06de	0.033697955
13	0xbe2e0419	-0.1699375
14	0xbe7d6659	-0.24746074
15	0xbd8bc4b1	-0.06824625
16	0xbd87e04b	-0.06634577
17	0x3c52fd9c	0.012877848
18	0xbda99378	-0.082800806
19	0x3d011533	0.031514358
20	0xbd258b5f	-0.040416118
21	0x3d11e473	0.035618257
22	0x3dc265d5	0.09492079
23	0xbdac1b71	-0.084036715
24	0x3d306da3	0.043073308
25	0xbd5a8585	-0.05334999
26	0xbc3c8061	-0.011505217
27	0x3c8f9c28	0.017530516
28	0xbea1c658	-0.31596637
29	0xbe4e38cc	-0.20138854
30	0x3de0d070	0.10977256
31	0x3d56fdbb	0.05248807
32	0xbdf8644b	-0.12128504
33	0xbe8e4b0b	-0.27791628
34	0xbe6c8f80	-0.23101616
35	0x3d1ff06a	0.039047636
36	0x3abc8f7a	0.0014386021
37	0xbc1ee78e	-0.009698762
38	0xbe9729f8	-0.29524207
39	0xbe313040	-0.17303562
40	0x3d9a055d	0.07520554
41	0xbdd3360b	-0.10313042
42	0xbd7055d4	-0.058675602
43	0xbe530086	-0.20605668
44	0x3cea6cad	0.028616274
45	0x3da07e2f	0.078365676
46	0xbd85102d	-0.06497226
47	0x3c9d8ea3	0.019233054
48	0xbe307b73	-0.17234592
49	0x3d1897d8	0.037254184
50	0x3db13918	0.08653468
51	0xbdfb67cb	-0.12275656
52	0x3dcc58fe	0.099779114
53	0x3d7b3044	0.061325327
54	0xbe007a51	-0.1254666
55	0x3df4c3ae	0.119513854
56	0xbe996f83	-0.2996789
57	0xbda8e0c8	-0.082459986
58	0x3d68caa6	0.056833886
59	0xbe2cc23d	-0.16870971
60	0xbe7ed237	-0.24884878
61	0x3c2ca6ee	0.010537846
62	0xbde94c99	-0.11391563
63	0xbe67c34e	-0.22633097
64	0x3dd0cbff	0.10195159
65	0x3c07fa6a	0.008299449
66	0x3e095ed4	0.1341508
67	0xbe9b4c01	-0.30331424
68	0x3e104de3	0.14092211
69	0xbdfa1b6d	-0.12212262
70	0x3df08d71	0.11745728
71	0xbe257a98	-0.16160047
72	0xbdb43202	-0.08798601
73	0x3d826a28	0.06367904
74	0x3d1de8f2	0.038552232
75	0xbe18a9fd	-0.14908595
76	0x3db9dfd5	0.09075896
77	0xbe89265e	-0.26787084
78	0x3e4b1d78	0.1983546
79	0xbde604a3	-0.11231353
80	0xbe49a607	-0.1969224
81	0x3e0bbe86	0.13646898
82	0xbe958f88	-0.29211068
83	0x3ddbac11	0.107261784
84	0x3e0ff32d	0.14057608
85	0x3ae4d23a	0.0017457672
86	0x3d6b6eca	0.057478704
87	0xbe1caef8	-0.1530112
88	0x3ddb37e2	0.10704018
89	0xbe800abb	-0.25008187
90	0xbd2218f9	-0.039574597
91	0xbde443db	-0.11145755
92	0xbd295e23	-0.04134954
93	0xbd887ce1	-0.06664444
94	0xbc9018db	-0.017589977
95	0xbdc1a0f2	-0.09454526
96	0x3d6f7ca0	0.05846846
97	0xbe6d782b	-0.23190372
98	0x3d466924	0.048440114
99	0x3d15057c	0.036382183
100	0x3d997862	0.07493664
101	0xbe923f3f	-0.28563878
102	0xbe83466d	-0.25639668
103	0x3e0853d1	0.13313223
104	0xbd86cc0b	-0.06581887
105	0xbe715b53	-0.23569994
106	0xbe4698db	-0.19394247
107	0x3d8edc1b	0.069755755
108	0x3be3e3d6	0.0069546504
109	0x3dd39551	0.10331214
110	0x3e466a1e	0.19376418
111	0xbbe7ba1e	-0.0070717474
112	0x3dd46eb3	0.10372677
113	0x3e525314	0.20539504
114	0xbe9f804c	-0.3115257
115	0xbd4d4fa4	-0.05012478
116	0x3df23021	0.11825586
117	0x3d9eeba2	0.07759787
118	0xbe624921	-0.22098209
119	0x3d874557	0.066050224
120	0xbe13f774	-0.14449865
121	0xbe717f50	-0.23583722
122	0x3a42d72a	0.00074325746
123	0xbd339e3e	-0.043852083
124	0xbdfd733f	-0.12375497
125	0xbd126fcd	-0.035751153
126	0xbd5272d3	-0.051379036
127	0x3e086e77	0.13323389
128	0xbe38bfa7	-0.1804186
129	0x3e4977af	0.19674562
130	0xbd312275	-0.04324575
131	0xbcca8f7f	-0.024726627
132	0x3de08703	0.109632514
133	0x3d2241bc	0.03961347
134	0x3e4619a6	0.19345722
135	0x3d57510f	0.052567538
136	0x3e023b7a	0.12718001
137	0xbe811ae8	-0.2521584
138	0x3cb0a077	0.02156089
139	0xbc85f400	-0.0163517
140	0xbe85d4f6	-0.2613904
141	0xbdfcb472	-0.12339105
142	0x3d6779db	0.056512695
143	0x3c297dba	0.010344917
144	0xbd7cd36a	-0.061725058
145	0xbe0ed67f	-0.13949011
146	0x3d0bb2a6	0.03410592
147	0xbe40e8c7	-0.18838798
148	0xbde0119e	-0.1094086
149	0xbe0fa0c0	-0.14026165
150	0xbdfd3fde	-0.12365697
151	0x3cfeece2	0.031118814
152	0xbdb7192b	-0.08940347
153	0xbea90c90	-0.33017397
154	0x3db556d5	0.088544525
155	0x3e5ac67c	0.21364778
156	0xbdc53e7b	-0.09631058
157	0xbd4400f9	-0.04785249
158	0x3e25d51c	0.16194576
159	0xbd8ad7d0	-0.06779444
160	0x3dd23681	0.10264302
161	0xbe93679a	-0.2878998
162	0xbe2a27d1	-0.16616751
163	0xbe1d6680	-0.15371132
164	0x3e32a241	0.17444707
165	0x3b915c3a	0.004436043
166	0xbdb9c987	-0.090716414
167	0xbe68b243	-0.22724251
168	0x3ddbcb28	0.10732108
169	0xbd9e0df3	-0.07717504
170	0x3e1c2cf3	0.15251522
171	0x3e07c053	0.1325696
172	0xbe386d04	-0.18010336
173	0xbe94ed93	-0.29087505
174	0x3e0e9224	0.13922936
175	0xbe830959	-0.2559307
176	0xbd5dad4b	-0.054120343
177	0xbe9d94d8	-0.3077762
178	0xbe10cf45	-0.14141567
179	0xbe693dae	-0.22777435
180	0xbe9ac677	-0.30229542
181	0xbe823351	-0.25429776
182	0x3bc6a0b7	0.006061639
183	0xbddd8a8c	-0.10817441
184	0xbe950df5	-0.2911221
185	0x3d5f700d	0.05455022
186	0xbd7a77ed	-0.061149526
187	0xbb37b461	-0.0028031098
188	0x3d80f14e	0.06296025
189	0xbadb1c32	-0.0016716777
190	0xbdc9a866	-0.098465726
191	0xbd5fcd2f	-0.054639038
192	0xbd3f5089	-0.046707664
193	0x3d168e12	0.036756583
194	0xbdf6d4a2	-0.12052275
195	0xbe04616f	-0.12927793
196	0xbe35b7a6	-0.17745838
197	0xbce01788	-0.02735497
198	0x3da1b349	0.07895524
199	0xbe44a6e0	-0.19204283
200	0xbd365417	-0.044513788
201	0xbe7ffe6f	-0.24999402
202	0xbdbdbbb2	-0.09264316
203	0xbd07b228	-0.033128887
204	0xbdce232f	-0.100653045
205	0x3df60d95	0.12014309
206	0xbe32fe9f	-0.17479943
207	0x3e2b127a	0.16706267
208	0x3e1ad26d	0.15119334
209	0xbe40646e	-0.18788311
210	0xbd995ca2	-0.074883714
211	0xbe08d888	-0.1336385
212	0x3ce0c3a8	0.027437046
213	0xba5564fc	-0.0008140353
214	0xbdb993cd	-0.09061394
215	0xbe0ac7c5	-0.13552769
216	0xbdfbf7a6	-0.123030946
217	0xbd1925bf	-0.037389513
218	0xbe3f152f	-0.18660425
219	0xbc93e209	-0.018052118
220	0xbe52fdd5	-0.20604642
221	0xbe69a8fa	-0.22818366
222	0x3d6a48da	0.057198383
223	0x3e0d7c02	0.13816836
224	0xbe920105	-0.28516403
225	0x3e527bf2	0.20555094
226	0xbdc5745f	-0.09641337
227	0xbd989a97	-0.07451361
228	0x3e317ccc	0.17332762
229	0xbe7a5c87	-0.24449359
230	0xbe8c3e25	-0.27391163
231	0x3d822b6d	0.06355939
232	0x3e091a1b	0.13388865
233	0x3e0bfe82	0.13671306
234	0x3dd82a03	0.10554888
235	0xbe402724	-0.18764931
236	0xbde483bf	-0.11157941
237	0xbda06342	-0.07831432
238	0xbe1c9d23	-0.15294318
239	0xbdce24ca	-0.10065611
240	0x3b783716	0.003787463
241	0xbd9c238d	-0.07623968
242	0xbe4aa120	-0.19788027
243	0xbd68576b	-0.056723993
244	0x3d5fc778	0.054633588
245	0x3e14d22b	0.14533298
246	0xbe3c6126	-0.18396434
247	0xbdd1ecb5	-0.102502264
248	0xbdb0f3bf	-0.08640241
249	0xbe52a713	-0.20571546
250	0x3e38d23f	0.18048953
251	0xbb1d3d86	-0.002399297
252	0x3d4569db	0.048196655
253	0x3d8a356b	0.0674847
254	0x3e2a243a	0.16615382
255	0xbe31326e	-0.17304394

sequential/conv2d/Conv2D f4 [32, 3, 3, 3]
0	0x3d98044b	0.07422694
1	0xbd35d18c	-0.044389293
2	0x3b127470	0.0022347234
3	0xbd8acc33	-0.06777229
4	0x3d9019b0	0.070361495
5	0x3e19b2a5	0.15009554
6	0xbce48b5c	-0.027898483
7	0x3c124ca4	0.008929405
8	0x3ddc8414	0.107673794
9	0x3e0699b1	0.13144566
10	0x3e12a73b	0.14321606
11	0x3dc0f3f8	0.09421533
12	0x3e0891f9	0.13336934
13	0xbd870ce6	-0.06594257
14	0x3d5c9724	0.053855076
15	0xbd9ea21d	-0.077457644
16	0xbd9a1eea	-0.07525428
17	0xbd84497d	-0.06459329
18	0x3d0632b2	0.03276319
19	0x3ddbe4ed	0.107370235
20	0xbdb58b1d	-0.088644244
21	0xbd5649bc	-0.052316412
22	0x3d02589b	0.031822782
23	0xbd8bfa02	-0.068347946
24	0xbe480873	-0.19534473
25	0xbdd5142d	-0.10404239
26	0xbc338065	-0.010955905
27	0x3d6c69c4	0.057718053
28	0xbb78b8de	-0.0037951986
29	0x3da9c7ca	0.0829006
30	0x3dd5820b	0.10425194
31	0x3d5320a1	0.05154479
32	0x3bb0e6f9	0.005398628
33	0xbd26f320	-0.040759206
34	0x3df699fd	0.1204109
35	0x3dae403a	0.08508344
36	0x3dd701fc	0.10498425
37	0x3d98a202	0.074527755
38	0xbd2ebc56	-0.04266008
39	0x3da940f4	0.08264342
40	0x3dfc7d8a	0.12328632
41	0xbdb96949	-0.09053285
42	0x3df16c94	0.11788288
43	0xbcc667f0	-0.024219483
44	0x3e081fe1	0.13293411
45	0x3ce140c9	0.027496712
46	0xbd43750d	-0.04771905
47	0xbe101b70	-0.14072967
48	0x3d21be52	0.039488144
49	0x3a85e623	0.0010215681
50	0xbe1136d3	-0.1418107
51	0xbdc25d39	-0.09490437
52	0x3e01625f	0.12635182
53	0x3cfc92fb	0.030831804
54	0x3e2b071f	0.16701935
55	0x3e1a5186	0.15070161
56	0x3d9489cf	0.072528474
57	0xbb5f7579	-0.0034097119
58	0x3d001b07	0.031275775
59	0x3dca371e	0.09873794
60	0xbe141c39	-0.14463891
61	0xbccfa3ae	-0.025346603
62	0xbd850f6d	-0.06497083
63	0x3e2229fb	0.15836327
64	0x3d931901	0.071825035
65	0x3e2635d4	0.16231471
66	0xbdc5d443	-0.09659626
67	0x3e16d968	0.14731371
68	0x3d768ade	0.060191028
69	0xbe556e42	-0.20842841
70	0xbd30af4e	-0.043135934
71	0xbe342d2e	-0.1759536
72	0x3cf537e6	0.029933881
73	0x3dccc594	0.099986225
74	0x3d9de16c	0.077090114
75	0xbd6ddb87	-0.058070686
76	0x3d551bf4	0.05202861
77	0xbcef3d81	-0.029204132
78	0xbe0fd664	-0.14046627
79	0xbe21f02f	-0.15814279
80	0xbc8ca7b4	-0.01716981
81	0xbdd099e3	-0.101856016
82	0x3d592479	0.0530133
83	0xbcd170e4	-0.025566526
84	0xbd884a81	-0.066548355
85	0x3c9be56b	0.019030293
86	0x3d2fc8db	0.04291616
87	0x3cd5ef13	0.026114976
88	0x3dfbd879	0.12297148
89	0xbca0cb00	-0.019628048
90	0xbdae0cfb	-0.084985696
91	0x3e03c864	0.12869412
92	0xbdb7ca0e	-0.08974086
93	0xbe192a64	-0.14957577
94	0x3cd0892b	0.025456032
95	0x3da04dd3	0.07827344
96	0x3d191ffd	0.037384022
97	0x3da2f169	0.079562016
98	0x3df0998d	0.117480375
99	0xbd3c3735	-0.045951087
100	0x3e105b45	0.14097317
101	0x3da1f2fb	0.07907673
102	0x3dcee122	0.101015344
103	0xbbbf0a1b	-0.005830062
104	0xbb2f5cc1	-0.0026758166
105	0xbe021034	-0.12701494
106	0xbd441db2	-0.047879882
107	0xbd8689bb	-0.06569239
108	0xb8df1a11	-0.00010638324
109	0x3d701c5b	0.058620792
110	0xbde7779a	-0.11302109
111	0x3e1e6336	0.15467533
112	0xbe235287	-0.1594945
113	0xbd1f43c3	-0.038882982
114	0x3d83bbf1	0.06432331
115	0x3d454142	0.048157938
116	0x3c8f4733	0.017490005
117	0x3d7a6343	0.06112982
118	0x3bd47c56	0.0064845486
119	0x3bc80877	0.0061045247
120	0x3dcb25a3	0.09919288
121	0xbd9cd91e	-0.07658599
122	0x3b3ebd79	0.0029104634
123	0x3dc118d3	0.09428563
124	0xbd328971	-0.043588106
125	0xbd7fd088	-0.06245473
126	0x3e319da7	0.17345296
127	0x3d6a5121	0.057206277
128	0xbddaaae5	-0.10677127
129	0xbd89bce1	-0.06725479
130	0xbd860f96	-0.065459415
131	0xbcacd62f	-0.021098224
132	0x3e0b58cf	0.13608097
133	0xbe30cce0	-0.17265654
134	0x3d0b96df	0.03407943
135	0x3b1f3ee1	0.0024298953
136	0x3e2b9770	0.16756988
137	0x3c2290d1	0.009922222
138	0xbe18a43c	-0.149064
139	0x3cd08e21	0.025458397
140	0xbd98718c	-0.07443532
141	0xbdb731dd	-0.089450575
142	0xbdbb0c2a	-0.091331795
143	0xbe72d9e4	-0.23715931
144	0x3dafdc21	0.08586908
145	0x3c250083	0.010070923
146	0x3e01eb38	0.12687385
147	0xbc36ed1d	-0.011164931
148	0xbcca8dac	-0.024725758
149	0x3cf9345e	0.030420478
150	0xbda9a6e3	-0.08283784
151	0xbe0455a9	-0.12923302
152	0xbde23b9f	-0.11046528
153	0x3e1e8833	0.15481643
154	0x3e725b02	0.23667529
155	0x3c314369	0.0108192945
156	0xbca00bd0	-0.019536883
157	0x3e3363ed	0.17518587
158	0x3d5b01c3	0.053468477
159	0xbdf55fb2	-0.11981143
160	0x3bdaf640	0.0066821873
161	0xbd31d81b	-0.043418985
162	0xbe3fe8c7	-0.18741141
163	0x3deb643d	0.11493728
164	0x3dafed44	0.08590177
165	0xba629502	-0.000864342
166	0x3e36276d	0.17788477
167	0x3d7e68ef	0.06211179
168	0xbe10c1f7	-0.14136492
169	0x3dc27c59	0.09496374
170	0x3cbc7ff8	0.023010239
171	0xbc1221fa	-0.008919233
172	0x3d63e3d4	0.055637196
173	0xbe2689f9	-0.1626357
174	0x3d752d01	0.059857372
175	0x3d871c7c	0.0659723
176	0x3d0712f0	0.032977045
177	0xbdebffea	-0.11523421
178	0xbd370613	-0.044683527
179	0xbdc2e8e5	-0.09517077
180	0xbe25c3c9	-0.16187967
181	0x3de9e3f0	0.11420429
182	0xbdb4beaf	-0.088254325
183	0x3bd41632	0.0064723724
184	0x3d961154	0.07327524
185	0x3da2ed87	0.07955461
186	0x3d95a057	0.07305973
187	0x3d86aa31	0.0657543
188	0x3e0ad77c	0.13558763
189	0xbc3c75f7	-0.011502734
190	0x3d12d0c6	0.035843633
191	0x3cf8a52c	0.030352198
192	0x3d5142c3	0.05108906
193	0x3e2f089f	0.17093132
194	0x3db7bf76	0.08972065
195	0x3dd8bfb6	0.10583441
196	0x3dfcb207	0.123386435
197	0x3e101035	0.14068682
198	0xbd3b4b98	-0.04572639
199	0xbe324d59	-0.17412318
200	0xbe2bbd94	-0.16771537
201	0xbdb2fe3d	-0.08739898
202	0x3d1afd50	0.037839234
203	0x3db7b061	0.089691885
204	0xbdc89c34	-0.097954184
205	0xbe062fd1	-0.13104178
206	0x3d7ed1c6	0.062211774
207	0x3db2780a	0.08714302
208	0xbd7e61b9	-0.062104914
209	0xbe26c65e	-0.16286609
210	0xbdedc7a6	-0.116103455
211	0xbd8a026c	-0.06738743
212	0x3d84cd7c	0.064845055
213	0x3ced6a93	0.028981483
214	0xbbf5689b	-0.0074892766
215	0xbdc45f9e	-0.0958855
216	0xbd2bb50a	-0.0419207
217	0xbd818439	-0.063240476
218	0x3dbd228e	0.092351064
219	0x3e41e307	0.1893426
220	0x3d4b4bd7	0.049632873
221	0xbd950552	-0.072764054
222	0x3d100cba	0.035168387
223	0xbd943049	-0.07235772
224	0xbd86a3b0	-0.0657419
225	0x3c67735f	0.014126628
226	0xbe0cab53	-0.1373723
227	0xbaa1e183	-0.0012350533
228	0x3dca0389	0.098639555
229	0xbe3a23e7	-0.18177758
230	0x3d38f44e	0.045154862
231	0x3d9e110c	0.07718095
232	0xbd8d5658	-0.069012344
233	0xbe01b790	-0.1266768
234	0x3dfedf39	0.1244492
235	0xbcc9c3b7	-0.024629457
236	0x3e224f78	0.15850627
237	0xbc8292da	-0.015939165
238	0xbd3a8b33	-0.045542907
239	0x3c8445c2	0.016146544
240	0x3d99b7f5	0.0750579
241	0x3b8739da	0.0041267695
242	0xbdec2863	-0.11531141
243	0x3c951198	0.018196866
244	0xbe21fc31	-0.1581886
245	0xbe046e15	-0.12932618
246	0xbdc3aef8	-0.09554857
247	0xbcef7619	-0.029231118
248	0xbdcb7797	-0.09934919
249	0xbe4afb4f	-0.19822429
250	0xbe43e43b	-0.19130032
251	0xbc86e1ef	-0.016465155
252	0x3d748c8d	0.059704352
253	0x3e0133b0	0.12617373
254	0xbd70ee8f	-0.058821257
255	0x3d7578e0	0.05992973

sequential/conv2d_1/Conv2D f4 [32, 3, 3, 32]
0	0xbdc3730e	-0.09543429
1	0x3c11ff17	0.008910916
2	0x3d85c122	0.06530978
3	0xbe0569f7	-0.13028704
4	0x3d3b019f	0.045655843
5	0x3da14006	0.078735396
6	0x3d3718d3	0.04470141
7	0xbca455b3	-0.020060396
8	0x3d915d56	0.070978805
9	0x3e097167	0.13422166
10	0x3d4a3753	0.049369168
11	0xbcc2076e	-0.023685183
12	0xbe27c77e	-0.16384694
13	0x3de5a350	0.1121279
14	0xbdb32371	-0.08746994
15	0xbd5dbfe1	-0.054138068
16	0x3d219a55	0.039453823
17	0x3dd43248	0.10361153
18	0xbd8225a1	-0.063548334
19	0xbd0920a9	-0.033478413
20	0xbdb7213c	-0.08941886
21	0xbc8f7cda	-0.017515589
22	0x3d18016d	0.037110735
23	0xbd24da14	-0.040247038
24	0x3da2407a	0.07922454
25	0xbc92bab3	-0.01791129
26	0xbca7d46c	-0.020487033
27	0x3d983ae0	0.074331045
28	0xbcb7c6a7	-0.022433592
29	0x3db3f202	0.08786394
30	0xbc6405c7	-0.013917393
31	0xbd348fdd	-0.04408251
32	0xba3590d9	-0.0006926186
33	0xbd888544	-0.066660434
34	0x3c08a63c	0.008340415
35	0xbd48da1e	-0.049036138
36	0x3ce23009	0.027610796
37	0x3db66805	0.08906559
38	0xbdfdd4c3	-0.12394097
39	0x3d8650d5	0.06558386
40	0x3d4b8d09	0.04969505
41	0xbcb10545	-0.021608958
42	0x3d1d8d3f	0.03846478
43	0xbcc96f0d	-0.024589086
44	0xbd27daf9	-0.040980313
45	0x3b580ffb	0.003296851
46	0xbe091494	-0.13386756
47	0xbe020e07	-0.12700664
48	0xbdc058da	-0.09391947
49	0xbd0ddab1	-0.03463239
50	0xbd972205	-0.073795356
51	0x3da6beaa	0.08141835
52	0x3d867df1	0.0656699
53	0xbad6bc55	-0.0016383032
54	0x3dd7535a	0.10513945
55	0x3d834f0e	0.06411563
56	0xbe0379dc	-0.12839454
57	0x3ccc939e	0.024972733
58	0x3daa9526	0.08329229
59	0x3c565b4b	0.013083289
60	0xbc1b89a3	-0.009493264
61	0xbd4abaa1	-0.04949439
62	0x3dc7eabd	0.0976157
63	0x3e1226f4	0.14272672
64	0xbdb7e5f5	-0.08979408
65	0xbe498a72	-0.19681719
66	0x3d96b995	0.07359616
67	0xbd8eece0	-0.06978774
68	0xbd13141b	-0.035907846
69	0xbd00127d	-0.03126763
70	0x3b4f96af	0.0031675508
71	0x3caba0eb	0.020950755
72	0xbd791b48	-0.060817033
73	0x3d46403e	0.04840111
74	0xbe05fa34	-0.13083726
75	0x3d89ec75	0.06734554
76	0xbc54ecfc	-0.012995955
77	0x3e024bdf	0.12724255
78	0x3c406da9	0.011744895
79	0x3dedcb03	0.11610987
80	0xbd3a21b3	-0.045442294
81	0x3dc1c25f	0.094609015
82	0x3b3cdad2	0.002881695
83	0x3db4aab2	0.0882162
84	0x3d6ca92d	0.057778526
85	0xbc33561d	-0.010945824
86	0x3dbb4e4b	0.091457926
87	0x3e0abb1d	0.1354794
88	0xbda097e6	-0.07841472
89	0xbd877d6a	-0.06615718
90	0xbd87ba80	-0.06627369
91	0xbd586564	-0.05283107
92	0x3db80517	0.08985346
93	0x3d639763	0.055564296
94	0x3e27ad2e	0.16374657
95	0x3d9f2b9e	0.07771991
96	0xbd9a2330	-0.07526243
97	0x3d1ef965	0.03881206
98	0x3d59ae13	0.053144526
99	0xbd745304	-0.059649482
100	0x3d4a67fb	0.04941557
101	0x3d2a3c6f	0.04156154
102	0x3da3ffef	0.080078
103	0x3dab9fb0	0.08380067
104	0x3d79ca88	0.060984164
105	0xbc8615eb	-0.016367873
106	0x3dc6ffc6	0.09716754
107	0xbd4facbb	-0.050701838
108	0xbd1edf8e	-0.038787417
109	0x3d9bdf50	0.07610953
110	0xbda03eae	-0.07824455
111	0x3cf57fc0	0.029968143
112	0xbe1dc8cf	-0.15408634
113	0xbcc48b18	-0.023992106
114	0xbdfac33e	-0.12244271
115	0xbd9f8f80	-0.07791042
116	0x3cfb9d13	0.030714547
117	0x3cb2f55a	0.021845508
118	0xbc85d415	-0.01633648
119	0xbd93d1d6	-0.072177574
120	0x3cffad39	0.031210529
121	0xbdfdef0a	-0.12399109
122	0xbd93e06d	-0.0722054
123	0x3d93d5aa	0.072184876
124	0xbdeac9de	-0.11464284
125	0xbbd842be	-0.006599753
126	0xbd3dff54	-0.046386078
127	0xbb749ee4	-0.0037326152
128	0xbcf25f50	-0.029586464
129	0xbd80719d	-0.0627167
130	0xbdbad914	-0.091234356
131	0xbdea7992	-0.11448969
132	0x3caad7ff	0.020854948
133	0x3d45ad07	0.048260715
134	0xbdc1cca7	-0.094628625
135	0x3e1b9367	0.15192948
136	0xbc078be7	-0.008273101
137	0x3d562941	0.052285437
138	0xbd7f489f	-0.062325116
139	0xbcd6ab60	-0.026204765
140	0xbb29b9b6	-0.0025898046
141	0x3e00cf4a	0.12579075
142	0x3d01d289	0.031694923
143	0xbd994a15	-0.07484833
144	0xbdc00afe	-0.093770966
145	0x3d0bce04	0.03413202
146	0xbd99aa34	-0.07503167
147	0xbdabda0d	-0.08391199
148	0xbd447d9d	-0.047971357
149	0x3ddd3d94	0.10802761
150	0xbcf89d38	-0.030348405
151	0xbde2298b	-0.1104308
152	0x3d927671	0.07151497
153	0xbb8b8f49	-0.0042590243
154	0xbd9e92d3	-0.07742848
155	0x3d0fb92e	0.03508871
156	0x3d8b3b90	0.0679847
157	0x3d69b318	0.057055563
158	0x3db57eb0	0.08862054
159	0x3e22eac2	0.15909865
160	0x3da0b654	0.07847276
161	0x3cfac6d1	0.030612381
162	0xbcea5e0e	-0.028609302
163	0x3db7ee65	0.08981017
164	0x3c38b6c3	0.011274043
165	0xbd182caa	-0.03715197
166	0x3c20c0a0	0.00981155
167	0x3dcb83b7	0.09937232
168	0xbdef12e1	-0.11673523
169	0xbd3a632c	-0.045504734
170	0xbdaf1d60	-0.08550525
171	0xbda99cf9	-0.08281893
172	0x3dd931ef	0.10605227
173	0xbd70df75	-0.058806855
174	0xbd5b23ad	-0.05350082
175	0x3dcf90aa	0.10135014
176	0x3d512ee8	0.051070124
177	0x3df218cf	0.11821138
178	0x3da88072	0.08227624
179	0xbc1e2217	-0.009651682
180	0xbd79db16	-0.060999952
181	0x3dba76e7	0.0910471
182	0x3c6a0b8b	0.014284979
183	0xbcc90905	-0.024540434
184	0x3d265e9d	0.040617574
185	0x3dbca186	0.09210496
186	0x3cb359c5	0.021893391
187	0xbca470fd	-0.020073408
188	0xbc224ce5	-0.009906028
189	0x3ce1be22	0.027556483
190	0x3df75c5c	0.12078163
191	0x3dce26fb	0.10066029
192	0xbd9a8b63	-0.07546117
193	0xbd03e949	-0.0322049
194	0x3d8dbb8b	0.069205366
195	0xbd743255	-0.059618313
196	0xbd666f8f	-0.056258734
197	0x3c06ec4b	0.008235048
198	0xbd777f0a	-0.06042389
199	0x3dcbe030	0.0995487
200	0xbdd6cd2a	-0.10488351
201	0xbdb10add	-0.0864465
202	0xbd823955	-0.063585915
203	0xbd83a86f	-0.064286105
204	0xbdf67ea5	-0.12035874
205	0xbd8f5ce8	-0.07000142
206	0x3d995384	0.074866325
207	0xbc8c6515	-0.017138043
208	0xbdc3bc23	-0.095573686
209	0x3cbbdb25	0.022931645
210	0xbd43a877	-0.047768082
211	0xbd442c57	-0.04789385
212	0xbdf8cce8	-0.12148458
213	0x3d8e92d2	0.069615975
214	0x3df37e38	0.11889309
215	0xbde49a3b	-0.111622296
216	0xbd7c5061	-0.061600093
217	0x3dc3cac5	0.095601596
218	0x3d1ff8d1	0.03905565
219	0x3d5d20de	0.053986423
220	0xbda2e878	-0.07954496
221	0xbd1fcc63	-0.039013278
222	0x3d92239a	0.07135697
223	0xbbd2764d	-0.006422794
224	0xbdaf96e8	-0.08573705
225	0xbd9ade7c	-0.07561967
226	0xbd57b63d	-0.05266403
227	0xbcfba573	-0.03071854
228	0xbc9fdb15	-0.019513646
229	0x3d5fef05	0.054671306
230	0xbbf6356c	-0.0075136926
231	0xbbe322b1	-0.006931626
232	0xbd982831	-0.07429541
233	0xbd706a09	-0.058694873
234	0xbdaaa767	-0.08332711
235	0x3d485727	0.04891124
236	0xbd30cb6d	-0.043162752
237	0x3d9ad08d	0.07559309
238	0xbca23380	-0.019799948
239	0x3d5c3570	0.0537619
240	0xbce83679	-0.028346287
241	0x3ccad45d	0.024759466
242	0x3d6f22a7	0.058382656
243	0x3d5d965d	0.054098476
244	0xbde1a9cb	-0.110187136
245	0xbc1a1e07	-0.009406573
246	0xbd75e48e	-0.06003242
247	0xbd098fde	-0.033584468
248	0x3dacb65e	0.08433221
249	0x3d60e3f4	0.054904893
250	0x3b98d297	0.004663776
251	0x3d8d9fad	0.06915221
252	0x3d9b9dfa	0.07598491
253	0x3db2e7ee	0.08735643
254	0x3c98f5b8	0.018671855
255	0xbb6c98b7	-0.0036101767

sequential/conv2d_2/Conv2D f4 [32, 3, 3, 32]
0	0xbd2dd2ad	-0.042437244
1	0x3db74988	0.08949572
2	0x3d56e16c	0.052461073
3	0x3c5cae4a	0.013469288
4	0xbdd02be2	-0.1016462
5	0x3d715e90	0.058928072
6	0xbdadca94	-0.08485904
7	0xbc3d9a1a	-0.011572385
8	0x3d8fc1d8	0.07019395
9	0xbdd280fa	-0.102785066
10	0x3c88b77a	0.016689051
11	0xbd7e2bb0	-0.062053382
12	0xbdf2a348	-0.1184755
13	0xbcab0e94	-0.020880975
14	0xbba21f0d	-0.004947549
15	0x3d9c37f2	0.07627858
16	0xbc8ca047	-0.01716627
17	0xbd92f92e	-0.071764335
18	0x3d14a930	0.036294162
19	0xbd5ef88d	-0.054436255
20	0x3d973115	0.073824085
21	0xbc52f04a	-0.012874672
22	0x3cdd4fba	0.027015556
23	0xbbb3e594	-0.0054900143
24	0xbc7fc8de	-0.015611855
25	0xbd2498da	-0.040184833
26	0x3c170904	0.009218458
27	0xbe0ce5db	-0.13759558
28	0x3d13df0c	0.036101386
29	0x3d69d456	0.057087265
30	0x3d9ce00d	0.07659922
31	0xbd9a4f47	-0.07534652
32	0x3d1b1f9f	0.037871953
33	0x3dc2e0cc	0.09515533
34	0x3de686e0	0.11256194
35	0xbd0e6a4d	-0.034769345
36	0x3da377c8	0.07981831
37	0x3cfbebac	0.030752026
38	0xbd920af2	-0.07130994
39	0x3cf3aa46	0.029744279
40	0x3cf35ed8	0.029708311
41	0x3e0d4acf	0.13798068
42	0xbdb6fa16	-0.08934419
43	0x3dabb46d	0.08384023
44	0x3d736bd9	0.059429023
45	0xbcc51c66	-0.024061393
46	0xbd8060bc	-0.062684506
47	0x3dbd3244	0.09238103
48	0xbd599eba	-0.05312989
49	0xbde21592	-0.110392705
50	0x3e043ffb	0.12915032
51	0x3d7060ff	0.058686253
52	0x3d979fc1	0.074035175
53	0xbe1b5a84	-0.15171248
54	0x3cf74863	0.030185884
55	0x3dbd2720	0.09235978
56	0x39c3824f	0.00037290386
57	0x3c25dc3e	0.010123311
58	0xbe31c39d	-0.17359777
59	0xbb283b87	-0.0025670247
60	0xbd9c0beb	-0.07619461
61	0xbdd5dbf1	-0.10442341
62	0xbd502b88	-0.050822765
63	0x3d810053	0.0629889
64	0xbda9616d	-0.082705356
65	0xbd9e583a	-0.07731672
66	0x3c0f9e04	0.008765701
67	0xbd4b9325	-0.049700875
68	0xba7c3bea	-0.0009621965
69	0x3e6011b0	0.21881747
70	0xbd31ca8e	-0.04340606
71	0xbd876593	-0.066111706
72	0x3dea4d62	0.11440541
73	0x3dfa2cad	0.122155525
74	0xbd48db38	-0.04903719
75	0x3d2e5f20	0.042571187
76	0xbc8e4d58	-0.017370865
77	0x3b8b56ba	0.004252282
78	0xbdfc3c2c	-0.123161644
79	0xbc39405c	-0.011306848
80	0x3cb76b33	0.022389984
81	0xbd07dbfe	-0.033168785
82	0xbdb828bf	-0.08992147
83	0xbd629923	-0.055321824
84	0x3db0ce7e	0.08633135
85	0x3bdf9722	0.0068234364
86	0xbdb97652	-0.09055771
87	0xbcede729	-0.02904089
88	0x3ddbb02d	0.10726962
89	0xbc92f18c	-0.017937444
90	0xbe2511b1	-0.1612003
91	0x3d388f20	0.04505837
92	0xbd11d553	-0.035603832
93	0xbc5a03f4	-0.013306607
94	0xbd054e9f	-0.032545682
95	0xbdafbd6a	-0.0858105
96	0x3cd1cf5a	0.025611568
97	0xbe136afc	-0.1439628
98	0x3ccb65c5	0.024828801
99	0x3e123517	0.14278065
100	0x3d26700b	0.040634196
101	0x3dbe3184	0.09286788
102	0x3bb49af7	0.0055116373
103	0x3d184f93	0.037185263
104	0xbe0a86b0	-0.13527942
105	0xbd1fc882	-0.03900958
106	0x3d55e466	0.05221977
107	0x3cd075bd	0.025446767
108	0xbceeb5df	-0.029139457
109	0x3d0cdbab	0.03438918
110	0xbc053737	-0.00813084
111	0xbca626f8	-0.020282254
112	0xbd7edf80	-0.062224865
113	0x3d0e39df	0.03472316
114	0xbe618279	-0.22022428
115	0x3d89b5cc	0.06724128
116	0x3b8349f8	0.0040066205
117	0x3a93f870	0.001128925
118	0x3e08bea3	0.13353972
119	0x3e0e4cfa	0.13896552
120	0x3e202fba	0.15643206
121	0xbba054a1	-0.004892901
122	0x3dcded21	0.100549944
123	0x3dd5b827	0.10435515
124	0xbe07091d	-0.1318707
125	0xbd9b05db	-0.07569476
126	0xbdc0d1ac	-0.09414992
127	0xbdb37866	-0.087631986
128	0xbca17d00	-0.019712925
129	0x3ca9cfc8	0.02072896
130	0xbd732f10	-0.059371054
131	0xbdba4a83	-0.09096243
132	0xbcb86298	-0.02250795
133	0xbd7ecedd	-0.062209
134	0x3c237737	0.0099771535
135	0xbe1d39e1	-0.1535411
136	0x3d72f9a7	0.05932012
137	0x3d895a37	0.0670666
138	0x3cf5083b	0.029911151
139	0xbdcd9603	-0.10038378
140	0xbd34ec5b	-0.04417072
141	0xbdcfa8a9	-0.10139591
142	0x3cca57fe	0.024700161
143	0xbd402aef	-0.046915945
144	0xbdbda2b7	-0.09259551
145	0xbd3b15f3	-0.04567523
146	0x3e2f3f5d	0.17114015
147	0xbdaaebb3	-0.08345737
148	0x3cb26987	0.021778835
149	0xbd131e11	-0.035917345
150	0x3d917985	0.07103256
151	0x3caa5ed0	0.020797163
152	0x3e0b384f	0.13595699
153	0xbb9eccca	-0.00484619
154	0xbd3b1394	-0.045672968
155	0xbdbca5dc	-0.09211323
156	0xbdb38ed2	-0.08767475
157	0x3e5961d5	0.21228726
158	0x3d60c021	0.05487073
159	0x3c50f987	0.012754804
160	0x3cab0a5c	0.020878963
161	0x3d46acd9	0.048504684
162	0x3d80d94a	0.062914446
163	0xbe33f1c9	-0.17572702
164	0x3e086f18	0.13323629
165	0x3e3d8c75	0.18510611
166	0x3dd5c3fe	0.10437773
167	0xbddb533b	-0.10709234
168	0x3d1e172a	0.03859631
169	0x3aa916ae	0.0012900436
170	0x3e1ed473	0.1551073
171	0xbdf1ffaf	-0.11816346
172	0xbd8520eb	-0.06500419
173	0xbc4c2b3e	-0.012461482
174	0xbdab22e6	-0.08356266
175	0xbdaa588b	-0.083176695
176	0x3dc37a88	0.09544855
177	0x3e1476b3	0.14498405
178	0x3e38851c	0.18019527
179	0x3c3f47bc	0.011674818
180	0x3d2744ad	0.04083698
181	0x3e166877	0.14688288
182	0xbe081890	-0.1329062
183	0xbd330d91	-0.04371411
184	0xbdded4f3	-0.108804606
185	0x3de2e011	0.110778935
186	0xbe186494	-0.14882118
187	0x3dcee3b2	0.10102023
188	0xbd5ec6ad	-0.05438869
189	0x3d6a52b2	0.05720777
190	0xbd13a75b	-0.036048274
191	0x3c366e06	0.01113463
192	0x3e079f9a	0.13244477
193	0x3df0d247	0.11758857
194	0x3d4bc73e	0.04975056
195	0xbe1b8ba8	-0.15189993
196	0x3d016d72	0.031598516
197	0x3e96361e	0.29338163
198	0x3dd9282c	0.10603365
199	0x3d861040	0.06546068
200	0x3e42c7b0	0.19021487
201	0x3d42ee86	0.047590755
202	0xbd93a9ed	-0.07210145
203	0x3ddd4a20	0.10805154
204	0x3dab7cc0	0.083734035
205	0x3dac1ed9	0.08404321
206	0xbd74dc63	-0.05978049
207	0xbc6a8d0a	-0.014315853
208	0x3dde14bb	0.10843798
209	0x3dcc2349	0.099676676
210	0xbdee4759	-0.11634702
211	0xbafc4ff2	-0.00192499
212	0x3d220944	0.039559618
213	0x3e1cc798	0.15310514
214	0x3be033ad	0.0068420977
215	0x3dcfc403	0.10144808
216	0xbb9e5cb8	-0.0048328303
217	0xbe09aa3e	-0.13443848
218	0xbc84a09e	-0.01618987
219	0x3da5b2a0	0.08090711
220	0xbdbecfce	-0.09316979
221	0xbd23e66c	-0.04001467
222	0x3d00339e	0.031299226
223	0xbddb3235	-0.107029356
224	0xbd1859f8	-0.037195176
225	0x3d82108f	0.063508146
226	0xbda4238d	-0.08014593
227	0xbc4bd2d0	-0.012440398
228	0x3d0e6228	0.034761578
229	0x3bccc367	0.0062488797
230	0xbdfa3147	-0.1221643
231	0x3ab2e514	0.0013648593
232	0xbcf84005	-0.030303964
233	0xbe42f153	-0.1903737
234	0xbd27aba6	-0.04093518
235	0x3c78145a	0.015141571
236	0xbdcceb4f	-0.10005819
237	0x3d9c31e3	0.07626703
238	0x3dccf7e7	0.10008221
239	0xbd2397fe	-0.039939873
240	0xbc2ea5b9	-0.010659629
241	0x3d5f5b81	0.054530624
242	0xbd9ca709	-0.07649047
243	0x3dba62dd	0.09100888
244	0xbd298ba9	-0.041392956
245	0xbda37296	-0.0798084
246	0x3dfd5b89	0.123709746
247	0x3d5802d5	0.052737076
248	0x3d0fb17b	0.035081368
249	0x3dc1bbfd	0.09459684
250	0x3dd1567b	0.10221573
251	0xbde1c5d0	-0.11024058
252	0xbd9a0e43	-0.075222515
253	0x3d4648ea	0.04840938
254	0x3c8bf100	0.017082691
255	0x3d31a76b	0.043372553

sequential/conv2d_1/BiasAdd;sequential/conv2d_2/Conv2D;sequential/conv2d_1/Conv2D;sequential/conv2d_1/BiasAdd/ReadVariableOp/resource f4 [32]
0	0xbd0b9747	-0.034079816
1	0xbd00951a	-0.031392194
2	0xbcf9f3dc	-0.030511789
3	0x3c57d922	0.013174327
4	0x3c8d9100	0.017281055
5	0xbdcd4645	-0.100231685
6	0xbd95a804	-0.07307437
7	0x3c130177	0.008972517
8	0xbafab254	-0.0019126632
9	0xbbe7948b	-0.0070672682
10	0xbc337d57	-0.010955176
11	0x3d06f815	0.032951433
12	0x3c27d696	0.010244032
13	0x3b66d21e	0.0035220454
14	0x3d2954eb	0.04134075
15	0xbbffd06a	-0.0078068273
16	0x3b7b13db	0.0038311395
17	0xbda4d67d	-0.08048723
18	0xbb0ce238	-0.0021497142
19	0x3d082cd5	0.03324588
20	0x3bc804a5	0.0061040693
21	0xbcb749d8	-0.022374079
22	0xbd3b551a	-0.045735456
23	0xbcf509d4	-0.029911913
24	0x3d82b99d	0.06383059
25	0xbd375179	-0.044755433
26	0x3cb6e260	0.02232474
27	0xbda8379a	-0.0821373
28	0x3cbfd48c	0.02341678
29	0x3b9c4df2	0.004770034
30	0xbc92dc2c	-0.017927252
31	0x3b497c83	0.003074438

sequential/conv2d_2/BiasAdd;sequential/conv2d_2/Conv2D;sequential/conv2d_2/BiasAdd/ReadVariableOp/resource f4 [32]
0	0xbdade774	-0.08491412
1	0xbda324dd	-0.079660155
2	0xbd67cec2	-0.056593664
3	0xbd825e90	-0.063656926
4	0xbd9c9e94	-0.07647434
5	0xbd673e51	-0.056455914
6	0x39d66c3d	0.00040897905
7	0xbcf20d98	-0.029547498
8	0xbd9fb5df	-0.07798361
9	0xbd462c42	-0.04838205
10	0xbd6262b2	-0.055269904
11	0xbd550adf	-0.05201232
12	0xbd9581c6	-0.07300143
13	0xbd5fd699	-0.054648016
14	0xbd18d98c	-0.037316844
15	0xbd41550a	-0.04720024
16	0xbda2fb4e	-0.07958089
17	0xbd8b05ce	-0.067882165
18	0xbd8409f2	-0.064472094
19	0xbd22dce7	-0.03976145
20	0xbd1343f3	-0.035953473
21	0xbc883b8c	-0.016629957
22	0xbd291db3	-0.04128809
23	0xbd32eeab	-0.043684643
24	0xbd3f7e8a	-0.046751536
25	0xbd7a94f4	-0.06117721
26	0xbd08e8a8	-0.033425003
27	0xbd3562ec	-0.044283792
28	0xbd739085	-0.059463996
29	0xbd54b072	-0.051926084
30	0xbd61c684	-0.05512096
31	0xbd71d49a	-0.059040643
