dig_bk_v3.tflite (tflite, 219388 bytes, 12 tensors)

sequential/conv2d/BiasAdd/ReadVariableOp/resource f4 [32]
000000 fc c9 b0 bc 90 ea 16 3d bb 41 9d 3b de bc 0a 3b
       -0.021580689 0.03684479 0.0047990954 0.0021169703
000010 af a1 f7 bc 3c 69 26 bc d8 a8 3e 3b d6 6c 3b bd
       -0.030228464 -0.010156926 0.0029092338 -0.04575809
000020 66 73 0e 3b 1f 39 6e bc 0f 56 30 3d 70 14 b1 3c
       0.0021736263 -0.014539986 0.043050822 0.02161619
000030 fe 57 15 3d 85 05 82 3c 60 dd 9f bc fe 9c 8a bc
       0.03646087 0.015871773 -0.01951474 -0.016920563
000040 c3 8a 43 3c e8 52 56 3b 32 d0 e7 bc 17 34 4b bd
       0.011934939 0.0032703225 -0.028297517 -0.049610224
000050 6c b5 7c 3c 93 6f 84 3c e8 05 0c bc 9f 75 f0 3b
       0.015424114 0.016166484 -0.00854633 0.0073382403
000060 90 4e 23 3d b5 a3 3c bc cf e7 2c bc 0f a6 a7 3c
       0.039869845 -0.01151364 -0.010553314 0.020464925
000070 e8 07 85 3d 5d b8 c2 bc 00 f0 a4 bc 9b f1 7e 3c
       0.064956486 -0.023769552 -0.020133972 0.015560533

sequential/dense/BiasAdd/ReadVariableOp/resource f4 [128]
000000 e2 34 5e 3c 7a 90 69 bb ed 66 00 bc 6a 07 21 3c
       0.013562413 -0.0035639093 -0.007837039 0.009828428
000010 56 7c ee bb a3 3d 68 bb 23 0c c0 3c e9 27 90 bb
       -0.0072780056 -0.003543713 0.023443287 -0.004399289
000020 18 51 7b 3c 60 b3 8c bc c3 cb 54 bc ab 65 1d bc
       0.0153391585 -0.017175376 -0.012988034 -0.009606759
000030 88 70 99 3c 43 36 ff 3c bd 31 89 3b c4 bb 94 3c
       0.018730417 0.031153804 0.0041868375 0.01815594
000040 73 6a 22 bc 90 1a 10 bb 22 02 44 bb 87 24 56 bb
       -0.009913075 -0.0021988489 -0.0029908498 -0.003267558
000050 06 0f 6b bb 52 b6 7e 3c e5 f6 b3 3a be 5d 19 bb
       -0.003586711 0.015546398 0.0013730197 -0.0023401822
000060 71 77 aa bc b1 e6 c1 3c 7b 9f 1c bb 36 77 aa bc
       -0.020808907 0.023669573 -0.0023898769 -0.020808797
000070 5a 49 9d bc c8 7a 77 3c f1 c8 b6 3b c2 95 f7 3a
       -0.019200016 0.015104957 0.0055781533 0.0018889236
000080 e3 ea 63 3c 3a 5b 8b bc 62 de 02 bc 69 de 00 3c
       0.013910982 -0.017011274 -0.0079875905 0.007865527
000090 92 b5 ab bc da aa d8 bc fb 3c 09 3d b4 34 48 bb
       -0.020960603 -0.026448656 0.03350542 -0.0030548992
0000a0 1b e7 96 3c 70 69 8b 3c 06 db ab 3c aa 36 5c bc
       0.018420747 0.01701805 0.020978462 -0.013440767
0000b0 a0 bb 81 bc 21 82 c4 3b 70 93 18 3c 56 c7 32 bc
       -0.015836537 0.005996958 0.009312496 -0.010911783
0000c0 7a 3f fc 3a a0 a4 cd 3c 98 59 34 bb 07 dc be 3c
       0.0019244992 0.025102913 -0.0027519222 0.023298277
0000d0 be ff 23 3d 84 b0 cc 3a 6d 45 5e 3c 26 0a 6a bc
       0.040038817 0.0015616571 0.013566357 -0.014284646
0000e0 86 7c b9 bb 1b a1 5e bc 7c d3 a0 3b c7 f5 9d 3c
       -0.0056605963 -0.013588215 0.0049080234 0.019282235
0000f0 f8 7f db 3b ce 17 60 3b 55 34 3a bc b1 c4 2a 3d
       0.0066986047 0.0034193876 -0.011365016 0.041691486
000100 29 eb b8 bc f8 15 c4 3c 45 c1 83 bc 13 54 0c bb
       -0.02257307 0.023936257 -0.016083369 -0.0021412417
000110 48 39 5a 3c f2 3f 01 3d 6f 88 00 3d 38 55 a6 3c
       0.013319321 0.031555124 0.031380113 0.020304307
000120 b3 23 9a ba 00 fc db 3b 08 bd 7b bc b2 cc 4d 3c
       -0.0011759907 0.0067133904 -0.015364893 0.01256101
000130 8a 5a 8c bc ad a0 2d 3c 08 53 6a 3c c9 97 b8 bc
       -0.017133016 0.01059739 0.014302023 -0.022533314
000140 72 fb 4a 3a c0 80 34 bb 69 1c 16 bc b3 4a e4 3b
       0.0007743157 -0.0027542561 -0.009162047 0.0069669127
000150 9f 28 5f 3c a2 4d 86 bb b4 b3 4e 3b 64 ab c9 3b
       0.013620525 -0.00409861 0.0031540217 0.0061544646
000160 47 ab 54 bc 43 ae 31 bb b5 08 fd 3b 89 b1 ce 3a
       -0.012980289 -0.0027111925 0.007721985 0.0015769462
000170 a7 ff 05 3d df 74 9f bb 82 c4 f9 bb 9f 7f 42 3a
       0.032714512 -0.004866227 -0.0076223025 0.000741953
000180 15 c3 20 3a 01 34 25 3c 41 98 0b 3d 25 f5 67 3a
       0.0006132585 0.0100831995 0.034080748 0.000884848
000190 98 9f 2d bb 3b 2c ab bb 78 aa 8c bc 69 71 c5 3b
       -0.002649283 -0.0052237785 -0.01717113 0.0060254824
0001a0 7a a5 35 3b aa bf ab bb bf 3e 49 3c 62 0f 90 bc
       0.002771704 -0.005241354 0.012283026 -0.01758546
0001b0 1a 18 ba bc 08 05 74 bc 5e e8 d1 3c 4d b4 93 3c
       -0.02271657 -0.014893778 0.025623497 0.01803031
0001c0 37 e7 d8 bb cd b1 02 bc 3c 20 dc 3b 6b 9f 8b 3c
       -0.00661936 -0.007976961 0.00671771 0.01704379
0001d0 2e 41 48 3c ea 6e cf 3b 1b 83 ee 3c 73 55 96 bc
       0.012222571 0.0063303607 0.02911525 -0.018351292
0001e0 61 fc b8 3c 15 15 0b 3c ee 84 bf bb b7 d7 c2 3c
       0.022581281 0.008488913 -0.005844704 0.023784501
0001f0 d6 3a 07 3b 9e 27 99 b8 b3 09 94 3c fb 8b e7 bb
       0.0020634434 -7.302988e-05 0.018071031 -0.0070662475

sequential/dense_1/BiasAdd/ReadVariableOp/resource f4 [11]
000000 f9 df bf bc 82 79 89 bc 47 0b 1e bd 62 b6 ec bb
       -0.023422228 -0.016781572 -0.038584974 -0.00722389
000010 e6 ee 38 3c f5 7c f2 3b c8 a0 b3 b9 9f 6f 82 bc
       0.011287427 0.00740015 -0.00034261332 -0.015922366
000020 2e 63 8c bc 76 f3 90 bc 70 e5 a0 bd
       -0.017137136 -0.017694216 -0.07856262

sequential/batch_normalization/FusedBatchNormV3 f4 [3]
000000 e3 ff 1c c0 ac ca b9 bf 9d 30 aa bf
       -2.453118 -1.4514976 -1.3296086

sequential/batch_normalization/FusedBatchNormV31 f4 [3]
000000 e2 8e 96 3c 64 79 9a 3c 60 4d b3 3c
       0.018378679 0.018856712 0.021887481

sequential/dense/MatMul f4 [128, 256]
000000 4d 89 8b bb db c2 f0 3d 9d 9d 03 be f0 11 a5 bd
       -0.004258311 0.11755916 -0.12853093 -0.08060062
000010 46 f2 ad 3d af 95 1b 3b 0c 76 03 3e 88 0a 95 bd
       0.084934756 0.0023740341 0.12838 -0.07277399
000020 8c 07 1d 3d aa 23 e0 bb 3c bf 43 bd 68 ff b1 bd
       0.038337275 -0.006840189 -0.047789797 -0.08691293
000030 03 21 ba bd ef 4c bf 3d 6b 9d d4 3d 51 8b f5 3d
       -0.09088328 0.09340846 0.103815876 0.11989463
000040 10 d8 bf bd 05 36 66 3d eb e9 6e bd bd 3c dd 3d
       -0.093673825 0.05620386 -0.05832855 0.108026005
000050 05 0c 00 3e 17 cb fd 3d 6c de b6 3d 1a bf 88 bd
       0.12504585 0.12392252 0.08929142 -0.06677075
000060 8c 1f d0 bd be f7 37 bc 94 03 ad 3b c9 15 f6 3d
       -0.10162267 -0.0112285 0.0052799676 0.12015874
000070 0e db d8 3d f9 a8 7c 3d 92 6e 1a 3e 16 c2 a8 bd
       0.10588656 0.061684582 0.15081242 -0.08240144
000080 3f 3e e3 bc 56 d0 99 3d b5 88 6e bc ef 7f 23 bd
       -0.027739642 0.0751044 -0.014558961 -0.03991693
000090 b1 b9 f0 3b 8f b0 77 bc ad c4 e9 3d c1 a1 2f bd
       0.007346355 -0.015117778 0.11414466 -0.04287887
0000a0 d7 7d ea bc 95 bc 95 bd 6b 67 2b 3d 45 f4 e9 3b
       -0.028624458 -0.0731136 0.041846674 0.007139715
0000b0 07 44 3b 3c eb cd 46 3d 09 fb 99 39 91 9b c8 3d
       0.011429793 0.048536222 0.0002936947 0.09795297
0000c0 ce 01 d2 bd 7f cf 00 bd 7d 4f 82 3d 11 8e 23 3d
       -0.102542505 -0.031447884 0.063628174 0.039930407
0000d0 64 2a 9c bd 45 99 8a bd 3b a9 02 bd 11 06 56 3d
       -0.07625273 -0.06767515 -0.031899672 0.05225188
0000e0 0b b2 7f bd a2 41 86 3d 10 a5 aa bd 7c 2b d6 bd
       -0.062425654 0.06555487 -0.083322644 -0.10457513
0000f0 bf b6 d0 bd 5f 83 d9 bc 62 ac af 3d c7 58 94 bd
       -0.10191106 -0.0265519 0.08577801 -0.072434954
000100 f1 df 92 3d 62 32 12 3d 22 e1 81 3d d4 79 06 3d
       0.0717162 0.03569258 0.06341769 0.032831028
000110 e4 b7 f3 3d 4d 65 ba bc 91 7c f6 bd 3c 96 9a bd
       0.11900309 -0.022753382 -0.12035478 -0.07548186
000120 49 83 e1 bd 3a d2 5a bc e3 35 af bd 72 d1 3f 3d
       -0.11011369 -0.013355786 -0.085552 0.046830602
000130 37 ae c5 bd ae 3d b7 3d a6 ce 01 3d 4b b2 c0 3b
       -0.096523695 0.08947311 0.031691216 0.005880629
000140 be 78 ce 3d 0d a1 d3 3d 2c 41 d4 3c 6d 54 ae 3d
       0.100816235 0.103334524 0.025909983 0.08512197
000150 2d de c5 bd 29 96 e4 bd 69 8d 7a bd d8 ff b3 3d
       -0.09661517 -0.11161453 -0.061170015 0.08789033
000160 63 e7 a7 bd 78 84 6e 3d 39 13 be bd ae 83 86 bd
       -0.081984304 0.0582318 -0.0928101 -0.06568085
000170 42 29 e7 ba 63 b4 c5 3d d9 c7 60 bd 8c d2 c0 bd
       -0.0017636197 0.09653547 -0.05487809 -0.09415159
000180 2d 6d b7 3d 11 b9 76 bd 20 7f 05 be f0 be d1 bd
       0.089563705 -0.060235087 -0.13036776 -0.102414966
000190 d2 70 a5 39 ce b6 47 bc 53 25 b9 bd 8c 43 bf bc
       0.0003155531 -0.01218958 -0.09040322 -0.023347639
0001a0 3c 13 90 3d 6d ec c4 3d eb bc 0b bb e1 a5 63 3c
       0.07034919 0.09615407 -0.002132232 0.013894529
0001b0 d6 f0 ab bd e5 3f c4 bc 9a 50 16 bd aa c3 e0 3d
       -0.08395545 -0.023956249 -0.03669796 0.1097482
0001c0 39 8e 4f bd df c4 09 bd 1f 57 1f 3d 3f f1 8a bd
       -0.050672743 -0.033635017 0.038901445 -0.06784295
0001d0 09 6c bd bd 73 18 d7 bd 54 40 89 bd 7b 1a 29 3d
       -0.09249122 -0.1050271 -0.06701723 0.04128502
0001e0 d3 1a b5 bc 74 50 a8 bd 46 66 be bd 89 87 0f be
       -0.022107517 -0.0821847 -0.09296851 -0.14016546
0001f0 08 aa 69 3b 45 cc 33 3d d4 01 63 3d 22 1a d4 bd
       0.0035654325 0.04389598 0.055421665 -0.10356547
000200 75 30 3a bd ac 08 06 bd 35 e9 c3 bd bb 22 a8 bd
       -0.04545637 -0.032723114 -0.09565965 -0.08209749
000210 c0 19 d8 3d e6 ab 9c bd 88 96 ba bd 94 a9 8a bd
       0.105517864 -0.076499745 -0.09110743 -0.06770626
000220 e8 e9 17 3c 7f 09 c0 bb 51 45 64 3c 84 92 b6 3c
       0.009272076 -0.005860507 0.013932542 0.022286661
000230 1c eb ba bd 6a 6a 09 bd e3 10 97 3d 2c 66 21 3c
       -0.09126875 -0.03354875 0.07376268 0.00985102
000240 e1 ec 51 3d fd 82 df bd 36 e5 0c 3e e3 9f c3 bd
       0.051251296 -0.10913656 0.13759312 -0.0955198
000250 cc 82 be 3b ed 99 7e 3d 35 2d d7 bd c2 be 59 3d
       0.005813932 0.062158514 -0.105066694 0.053160436
000260 db 32 c3 3d b3 81 a1 3d 87 51 ac bd 28 f6 3a 3d
       0.09531184 0.07886066 -0.084139876 0.04564491
000270 97 bc d8 3d 0c 2e 66 3d 66 9a 8e 3c 70 c8 d2 bc
       0.10582846 0.056196257 0.017407607 -0.025730342
000280 20 0a 12 be dd fa 06 3e d4 c9 dc 3d b5 c7 c9 bd
       -0.14261675 0.13181634 0.10780683 -0.09852544
000290 86 7a ac 3d ad 1e ba 3d 95 d7 01 3d cf d4 9d bd
       0.08421807 0.09087882 0.031699736 -0.07706606
0002a0 f6 0a fa 3d a8 bc 07 3d 6b 97 d4 3d 46 30 fd 3d
       0.12209122 0.0331389 0.10380443 0.12362723
0002b0 ef 78 ac 3a 4c 68 d6 b9 f6 12 05 3d fb 56 d8 3c
       0.00131586 -0.00040894968 0.032488786 0.026408663
0002c0 50 83 76 3d 41 37 b9 3d 5b 90 0c 3d b3 47 97 3d
       0.060183823 0.09043742 0.034317356 0.073867224
0002d0 6a 7c 68 3d a7 87 81 bc cd ee 79 bc 87 32 a7 bc
       0.056759275 -0.015811754 -0.015254688 -0.020409836
0002e0 9b cc fe bd 83 b9 a0 3c 9e 67 b0 3c cc f1 c8 3d
       -0.12441369 0.019619709 0.021533784 0.09811744
0002f0 80 a9 6c 3c 71 ce 95 bc a2 bb cd 3d 89 67 4d 3d
       0.014444709 -0.018286915 0.10045554 0.050147567
000300 9f 92 70 3c ec 0b 78 3d 1c ee ac bd 66 e9 6f 3d
       0.014683395 0.060558245 -0.08443853 0.058572195
000310 07 d7 19 3d 2e cb 50 bd 6a 77 f0 3d 6d db a4 bd
       0.03755858 -0.050975017 0.117415264 -0.08049665
000320 7c 10 ab 3b 1b 29 c3 bd c5 00 ec 3d ec 86 f3 3c
       0.005220471 -0.095293246 0.11523584 0.029727422
000330 39 52 9f bd dc 4f fa 3d ac 2d 8e 3d 8e 97 98 bc
       -0.077793546 0.12222263 0.06942305 -0.018626954
000340 f2 ee 1a bc 0f 81 4c 3d 82 cd 9f 3d c2 20 b5 3d
       -0.009456383 0.049927767 0.078028694 0.08844139
000350 fb 67 93 bd 74 b0 07 be 6f 95 61 3d 74 cc 83 3d
       -0.07197567 -0.13250905 0.05507415 0.06435481
000360 c1 91 cd bd e8 c7 f1 3b 8f d2 9e bd d8 3f 2c 3d
       -0.10037566 0.007378567 -0.077550046 0.042053074
000370 b9 65 3c 3d 46 9c ff bd 31 a6 04 be 65 1d fd bd
       0.045995448 -0.12480979 -0.12954022 -0.12359122
000380 1f a2 84 bd 91 03 2c bc c8 07 e9 bd 14 a6 9a 3d
       -0.06476235 -0.010498897 -0.11378437 0.07551208
000390 11 8d dd bd 48 33 af bd 77 77 a4 bd 4e 1e 01 be
       -0.10817922 -0.08554703 -0.080305986 -0.12609217
0003a0 80 5d 8c bd ae da 0c bd a8 e8 84 3d a6 25 3c bd
       -0.06853771 -0.034388237 0.06489688 -0.04593434
0003b0 f6 67 b7 bc 2a 48 ba bd 54 13 95 3b 45 50 10 bc
       -0.02238844 -0.090957955 0.004549423 -0.0088082
0003c0 28 d9 41 bd 6f 1f b7 bd d1 2e 83 bc 70 e2 df 3d
       -0.047326237 -0.08941542 -0.016013535 0.109318614
0003d0 09 0f cb bd 8f f3 e9 bd 14 62 06 be 2e 42 1a 3d
       -0.09914977 -0.11423408 -0.13123351 0.03766077
0003e0 b6 21 d4 3d 90 56 e6 bc 52 4c 1b 3d cf 55 b0 bc
       0.10357992 -0.028117448 0.03791458 -0.021525292
0003f0 73 92 15 bd a1 84 9f 3d ab 43 4e 3d 4f b2 a6 bc
       -0.036516618 0.07788969 0.050357502 -0.020348696

sequential/dense_1/MatMul f4 [11, 128]
000000 81 e1 5b be 05 9f a4 3d 6c 6a 32 3e 5a 73 f6 bd
       -0.21472742 0.08038143 0.17423409 -0.1203372
000010 99 e7 af 3d 26 03 c2 3d d4 b0 80 be 91 00 06 be
       0.085890956 0.09473257 -0.2513491 -0.13086154
000020 c4 3e f7 3c 96 5d e6 3d 49 cc 21 be 37 34 84 bd
       0.030181296 0.11248319 -0.15800585 -0.06455272
000030 cf d9 9d bc f6 11 18 bb d8 36 39 be f7 dd 37 3d
       -0.019268898 -0.0023204065 -0.18087327 0.044889417
000040 c8 63 32 3e 98 70 eb bd ed ed 8b be f1 46 96 3d
       0.17420876 -0.11496085 -0.2732996 0.0733775
000050 32 fd 26 3e 1c 96 0a 3e 6d 52 40 ba 85 92 09 3e
       0.16307524 0.13533825 -0.0007336501 0.13434799
000060 c8 b9 49 be 4e 58 3e bd df e7 3d be 22 1a fb bc
       -0.19699776 -0.046470933 -0.18545483 -0.03065211
000070 07 a5 1c be df ba 29 3e 08 21 63 bd 54 3a 0e be
       -0.15297328 0.16575192 -0.055451423 -0.13889438
000080 27 ee a0 bd 88 b8 1e 3e f9 27 aa 3d 41 70 59 be
       -0.07857924 0.1550008 0.083084054 -0.21234228
000090 06 0b ed 3d 88 71 15 be b5 44 89 3d 17 43 20 be
       0.11574368 -0.1459409 0.06702558 -0.15650593
0000a0 a4 d9 00 3e f5 6c 65 3d 5c 6c 1d be c0 34 0b bd
       0.12583023 0.056012113 -0.15373367 -0.033985853
0000b0 21 11 06 be 6f 7c 68 bc a2 9b 4d 3d d5 ca 2f be
       -0.13092472 -0.0141898235 0.05019725 -0.17167218
0000c0 89 f5 d6 3c bf 62 86 be dc e8 a8 3c 09 de 3c be
       0.026240127 -0.26247212 0.020618849 -0.18444075
0000d0 fa 95 5e be 68 36 73 be a7 e6 87 be fc bd ae 3a
       -0.21736899 -0.23751223 -0.2654316 0.0013331766
0000e0 e5 52 83 be 1a da 88 3c a4 5a 85 bd 5b 61 06 be
       -0.2564918 0.016705561 -0.06511429 -0.13123076
0000f0 1b c6 bb 3d 52 77 24 3e 60 f3 1d 3e 9d 6e 20 3e
       0.09168645 0.16061142 0.15424871 0.15667196
000100 e3 bc 5b be 02 b6 3a 3e 0c 51 c6 bc b7 41 b3 bc
       -0.21458773 0.18233493 -0.024208568 -0.021881921
000110 c8 a9 1d 3e c4 99 04 be c3 24 ad 3d b7 a0 1f bd
       0.15396798 -0.12949282 0.08454277 -0.03897163
000120 a2 38 26 be dd f0 df bc ed 2e aa 3d c8 4c 9c 3b
       -0.16232541 -0.027336532 0.08309732 0.004769895
000130 b4 10 59 bc 97 5c 4e be 25 2e cc bd 92 7a c8 ba
       -0.013248611 -0.20152508 -0.09969739 -0.0015295318
000140 ce ef 16 3e 1f 09 00 be c5 e7 e0 bd ed a4 52 be
       0.14739916 -0.1250348 -0.109817065 -0.20570727
000150 94 eb 75 3c 02 1a d4 bb b4 57 33 be 2b cf 0b 3e
       0.0150097795 -0.006472827 -0.17513925 0.13653247
000160 3b 91 4a 3e 41 41 46 be 9f ae d2 3c 84 0c 18 3e
       0.19781964 -0.1936083 0.025718031 0.14848524
000170 41 aa a5 bb 2a ec ab 3d 4b ff 08 3e 21 40 62 3e
       -0.0050556962 0.08394654 0.13378637 0.22094776
000180 1b 8c 04 be 0c f2 2e 3e f8 bf aa be e0 92 5d 3d
       -0.12944071 0.17084521 -0.33349586 0.05409515
000190 ad c7 aa 3c 66 71 83 3d e8 53 26 be 1a 0b b5 bd
       0.020847166 0.064181134 -0.16242945 -0.08840008
0001a0 bb 92 34 be d9 ff 45 bd 42 31 6b be bb ab 14 bd
       -0.17634098 -0.0483397 -0.22968009 -0.036296587
0001b0 49 fc af 3d 44 ba 86 3d 49 eb 21 3d 69 32 46 be
       0.085930414 0.06578496 0.039531026 -0.19355167
0001c0 3e d5 1f be 1a 90 f9 bd 70 22 1b 3e 96 33 a8 3d
       -0.15608689 -0.12185688 0.15149856 0.08212964
0001d0 d5 fb 42 be 2c eb 3d bc 83 f2 5a 3d 86 87 ae bd
       -0.19041379 -0.011591714 0.053453933 -0.08521943
0001e0 d2 75 4a bc 25 23 97 3d b0 f5 2e 3e ba ee ab be
       -0.012357192 0.0737975 0.1708591 -0.3358057
0001f0 4a 68 48 be 88 7e 10 3e 36 2a 27 be 58 ca 45 be
       -0.19571033 0.14110768 -0.16324696 -0.1931547
000200 56 9a 01 3e 0e d7 a7 bd db 9b 25 be 2f c3 4c 3d
       0.1265653 -0.08195315 -0.16172735 0.04999083
000210 62 44 c3 3c a2 20 d9 3d 73 7b 3c 3e f1 d2 37 be
       0.023836318 0.10601927 0.18406467 -0.17951562
000220 37 54 dc 3c 6f fe 88 3d bd 78 a9 3d 91 7a 81 be
       0.026895626 0.06689154 0.08274982 -0.25288823
000230 3b 53 8f be 49 ad 79 be 03 44 d9 bd 02 aa 81 3d
       -0.27993187 -0.2438251 -0.10608675 0.063312545
000240 c4 bd 8c 3d de d3 00 bd e7 a7 12 3e 31 a6 dc bd
       0.068721324 -0.031452052 0.14321862 -0.10773886
000250 29 29 39 3e 4d 19 a8 bd c6 b4 cf bc a4 01 d6 bc
       0.18082108 -0.08207951 -0.025354754 -0.02612383
000260 8a e9 df bd ef 28 5a be 91 87 4a 3e 32 3d b2 bd
       -0.10933216 -0.21304677 0.19778277 -0.08703078
000270 e5 d0 6f be 20 a3 38 bd fc 45 69 3d 7d 9a 44 be
       -0.2341953 -0.045077443 0.056951508 -0.19199558
000280 23 29 35 3d 0c 65 d1 bd 93 da 0c be bf c5 e7 bd
       0.044228684 -0.10224351 -0.13755254 -0.11317014
000290 d0 c5 02 bd 4f 02 99 3d e6 4f 18 3e 43 34 13 3e
       -0.03192693 0.074711435 0.14874229 0.14375405
0002a0 ec 88 8f bc 1d f7 d6 3c 2a 07 27 3e a1 e9 c0 3d
       -0.017521344 0.02624088 0.16311327 0.09419561
0002b0 ba 55 3e bd b9 02 cf 3c 3d 12 4a 3e 3e bc 43 3d
       -0.046468474 0.025269853 0.1973352 0.047786944
0002c0 d8 e8 de 3c 9c ff fd bb 29 a6 03 3e f7 58 a1 be
       0.027210638 -0.0077514183 0.12856354 -0.31513187
0002d0 2f d4 30 bd 3a 75 5f bd a5 32 dc 3d d3 05 8d bd
       -0.043171104 -0.054555155 0.10751847 -0.068858765
0002e0 b5 0b f0 bd 50 fb 9c bd e3 bd 91 bc 07 71 35 3d
       -0.11720983 -0.076651216 -0.01779074 0.044297244
0002f0 3f ec f4 bd d3 3b 02 3e 57 81 8f 3d f6 e9 62 be
       -0.11959123 0.12718134 0.070070915 -0.22159562
000300 9d 47 f0 bd c0 7a 3f be 33 b4 48 3e 52 82 1b 3e
       -0.11732409 -0.18699169 0.1959999 0.15186432
000310 e4 5b 36 be 90 5e 05 3e b3 a9 86 be 17 eb 86 3c
       -0.17808491 0.13024354 -0.26301345 0.016469521
000320 6d 89 06 be 4b 37 1b be 9d be d6 3c 48 6d 33 3c
       -0.13138361 -0.15157811 0.026213938 0.010951348
000330 69 be 16 be 81 a1 4e be 86 f0 96 bd 6f f4 19 be
       -0.14721073 -0.20178796 -0.07370095 -0.1503465
000340 74 ee cc 3d 61 da fc bd d8 73 20 bd 8e 9c bb 3d
       0.10006419 -0.1234634 -0.039172977 0.0916072
000350 54 99 fd bd af 76 44 be 2b e3 b6 3d ec 4c 08 bd
       -0.12382761 -0.19185899 0.089300476 -0.033276483
000360 ab c8 07 3e c1 37 03 be 1e 86 3f 3e 8a ca 5a 3e
       0.13260143 -0.12814237 0.18703505 0.21366325
000370 6f 04 6f bd 7b 9e 98 bd bf cb 33 3d c3 77 63 be
       -0.058353838 -0.07452103 0.04389548 -0.22213654
000380 8c 3c 40 be 23 c9 97 bd 88 f0 1d 3e 99 1f 1b 3e
       -0.18773097 -0.07411411 0.15423787 0.15148772
000390 a4 17 51 3e a8 24 6e 3c d0 ae e2 bd a3 a5 3f bd
       0.20419174 0.014535107 -0.11068499 -0.046788823
0003a0 c5 4b 63 3e 24 ea 38 bd 80 68 56 3d 1a a7 18 be
       0.22196873 -0.04514517 0.052345753 -0.14907494
0003b0 27 1e 93 bc 2b 8b 13 be 78 b7 d3 3d a1 1c 6b be
       -0.017958714 -0.14408557 0.10337728 -0.2296014
0003c0 19 a2 48 be a1 28 bd bd 8a 2d 0d be cd 1e 83 3c
       -0.19593085 -0.09236265 -0.13786903 0.016005898
0003d0 5a ac 40 be 1c 5b 9e 3d 07 ee 18 3e 03 21 e5 3d
       -0.18815747 0.077322215 0.1493455 0.11187937
0003e0 7e e2 b5 3d 36 86 b1 3d 65 5f 17 bd ff 57 15 be
       0.088810906 0.08668177 -0.03695621 -0.14584349
0003f0 a5 70 e6 bd ef 6b 6c be 55 e1 1b be 02 04 40 bb
       -0.11251954 -0.23088048 -0.15222676 -0.0029299264

sequential/conv2d/Conv2D f4 [32, 3, 3, 3]
000000 ba 73 bc 3d 70 7d 51 3d 6b fa aa bd 64 ee fe bb
       0.092017606 0.051145017 -0.08348545 -0.007779883
000010 32 81 93 3d 50 74 7e 3d 31 0a cd bd 97 36 a7 3c
       0.072023764 0.062122643 -0.100117095 0.020411773
000020 35 f0 bd 3d 45 fe d5 bd cb e9 d6 3d de 31 c2 3d
       0.092743315 -0.10448889 0.10493811 0.09482168
000030 66 3e 38 3d b7 43 b8 bc bf dc 0d 3e d9 cc 21 be
       0.044981383 -0.022493226 0.13853739 -0.158008
000040 16 6e 66 3c a1 51 bf bd 0b 37 a0 3d 76 ee 0f 3e
       0.0140643325 -0.09341741 0.078229986 0.1405581
000050 78 bf 02 3e 28 8f 09 be ca 6b 3f bd 0c b4 7e bd
       0.12768352 -0.13433516 -0.046733655 -0.062183425
000060 c9 0b ac bd d8 a2 22 bc ae 2d d2 bd 8e 7f 99 bd
       -0.08400685 -0.00992652 -0.10262619 -0.07495032
000070 8d 55 bf bd ed 42 b2 bd c5 9a 96 bd 33 dd 95 3d
       -0.093424894 -0.08704171 -0.07353739 0.07317581
000080 55 76 2a be 2c 56 a8 bd ca 16 b3 3a 1f b2 c2 bd
       -0.16646703 -0.08219561 0.0013663408 -0.0950663
000090 32 ea cd 3c 3e 28 65 3d 19 0c 14 be 3d 1a f7 3d
       0.025136087 0.05594658 -0.1445774 0.120655514
0000a0 ac ab d4 bc 60 bd 9d bd c8 59 28 be 51 69 7c bd
       -0.025960766 -0.07702136 -0.16440499 -0.061623875
0000b0 73 3f 07 bc 09 4b 82 bc 4a 8f 29 3d 99 1d a4 bd
       -0.008254874 -0.01590492 0.041396417 -0.08013458
0000c0 69 d6 c6 bc 39 78 74 3d ab ff 18 bd e7 0b 86 bd
       -0.02427216 0.059684966 -0.0373532 -0.06545239
0000d0 cc 98 18 bd ab fc 4d bd 83 88 48 bd b2 62 13 be
       -0.037255093 -0.05028979 -0.048958313 -0.14393118
0000e0 d4 5d c6 3c 86 02 d5 3d d1 49 bd bd 87 36 fe bd
       0.024214663 0.10400872 -0.09242595 -0.12412744
0000f0 83 b5 21 3e 24 fe 0c 3e 17 31 c4 3d db f2 35 3e
       0.15791897 0.13768822 0.09579676 0.17768423
000100 f5 21 2c bb ac a1 07 be 0c 6c aa 3b b1 c8 af 3d
       -0.0026265357 -0.13245267 0.0052008685 0.08583201
000110 3c 43 1b be 77 f0 e6 3d 10 52 ee bd c3 41 8c bc
       -0.15162367 0.11276334 -0.11636746 -0.017121201
000120 81 ad 70 bd fe 54 04 be 5c e4 40 3d 45 74 23 bc
       -0.058759216 -0.12923047 0.04709278 -0.009976451
000130 1d 51 bf bd 11 fe 19 be c4 e9 68 3d ee e7 53 3d
       -0.09341643 -0.15038325 0.05686356 0.051734857
000140 f5 f4 2c be 05 3b 9b bd 1d 96 ae bc 4d 09 bc bd
       -0.16890319 -0.075796165 -0.021311814 -0.091814615
000150 2d 90 42 3d 8b 6f 03 be 8e fd 63 bd b9 6a 09 be
       0.047500778 -0.12835519 -0.05566173 -0.13419618
000160 49 57 6d bd 22 e9 87 3d 24 2c 8d bd 54 82 91 3c
       -0.05794457 0.066362634 -0.06893185 0.01776234
000170 c2 d1 84 bc 5d 6d b1 bd f3 ac a2 bc 89 bc cd 3c
       -0.016213302 -0.086634375 -0.01985786 0.025114315
000180 f8 8c 96 3c a6 27 e5 bd 1d 68 e9 bd a3 93 53 bd
       0.018377766 -0.11189203 -0.11396811 -0.05165447
000190 4f e1 a2 3d d1 4d d1 3d 93 06 bc 3d ae da 9e bd
       0.079531305 0.102199204 0.091809414 -0.077565536
0001a0 97 ca 15 3e d0 94 30 bd a7 03 ed 3d 76 aa 0b be
       0.14628063 -0.04311067 0.11572962 -0.13639244
0001b0 31 46 bd bd 4e 40 a7 bd 4f 0c 59 3d 89 1f 31 be
       -0.092419036 -0.08166562 0.052990254 -0.17297186
0001c0 3f 60 d2 bd b7 98 c0 bc f1 b5 27 be 4b 05 5a be
       -0.10272264 -0.02351032 -0.16377999 -0.21291082
0001d0 c0 7e 80 bd 3d 00 f5 3d 37 46 0d 3b 3a 04 82 3d
       -0.06274176 0.11962936 0.0021556744 0.063484624
0001e0 36 22 52 bd 6b c0 81 3d 5c 2b fd bd 75 d2 85 3d
       -0.051302157 0.06335529 -0.12361786 0.06534282
0001f0 23 37 71 3d 9e a2 f5 bc 07 ab ad bc b0 ed 7f bd
       0.058890473 -0.029984768 -0.021199716 -0.062482536
000200 a3 73 ae 3d c5 68 af 3d 0a 1f b6 3d b8 2f 06 3e
       0.0851815 0.08564905 0.08892639 0.13104141
000210 21 f5 e5 3d f9 ee 0c 3e e8 46 fc 3d 95 c0 1b bd
       0.11228395 0.13763036 0.12318212 -0.038025457
000220 14 b4 2e bd 42 fe 17 3e 26 42 5e bd b3 ad 10 3d
       -0.042652205 0.14843085 -0.054262303 0.035321902
000230 6a fd b5 3d 64 7a b8 bd 44 a3 da 3d cc 9a 34 bd
       0.088862255 -0.09007719 0.10675672 -0.04409294
000240 b0 a7 b4 3d 8b 6e 8d 3d f2 64 bf 3c 6a 73 8d 3d
       0.08821046 0.0690585 0.023363564 0.06906779
000250 96 ce 12 3e c8 36 3d 3d f5 71 47 bd 46 fd 16 bc
       0.14336619 0.04619482 -0.048692662 -0.0092156585
000260 e6 45 67 bd 26 08 d4 3d c0 93 af bd 82 b4 b9 bc
       -0.056463145 0.10353117 -0.08573103 -0.02266908
000270 67 c1 5a bd eb 65 38 3c 01 38 70 bd 38 60 10 bd
       -0.0534071 0.011254768 -0.05864716 -0.03524801
000280 a1 82 b9 bd c6 49 8c bd 6a 18 1e bd 34 eb 70 3d
       -0.090581186 -0.06850009 -0.0385975 0.058818057
000290 c5 5e 69 3c 70 a2 b2 3d 89 18 f2 bd f7 60 d0 bb
       0.014243786 0.08722389 -0.11821086 -0.0063592154
0002a0 b6 4a cd 3d 53 ea ba bd f7 0c de bd d1 9c 69 3d
       0.100240156 -0.09126725 -0.108423166 0.057034317
0002b0 f1 22 f0 3d 23 80 99 bd 67 a8 85 bd 64 5f 01 3d
       0.117254145 -0.07495143 -0.06526261 0.031585112
0002c0 52 07 17 be e9 ea f1 3d c3 c7 b9 3c 7d 8e f2 3d
       -0.14748886 0.11812384 0.022678262 0.11843584
0002d0 64 b8 1e 3d 84 1a 9c bd bf e3 ce bd 50 d5 4c bd
       0.038750067 -0.07622245 -0.10102033 -0.05000812
0002e0 20 6e b7 3d 12 4a ba bd 95 f7 20 3e bd b4 cb bd
       0.089565516 -0.09096159 0.15719445 -0.099465825
0002f0 16 d5 fa 3d ec 44 16 bd 4b b6 d5 bd 67 1b bc bd
       0.12247674 -0.036686823 -0.1043516 -0.09184914
000300 99 f0 07 3e c9 a0 bf 3d 0f 45 90 bd f3 0a b8 3d
       0.13275374 0.09356839 -0.07044422 0.089864634
000310 21 a0 08 3d 9a 89 ee 3d b5 0b 02 be 50 80 37 3d
       0.033355836 0.11647339 -0.12699778 0.044800103
000320 56 ce 82 3d 43 10 bc 3d 15 34 c6 bc 48 b2 0b be
       0.06387012 0.09182789 -0.024194757 -0.13642228
000330 e1 0b fe 3d 69 95 1a bd 78 6e 37 bd be af 02 bd
       0.124046095 -0.037740145 -0.044783086 -0.031905882
000340 83 df ae bd c2 2f 56 3a a1 ae c1 bd 39 82 b3 bd
       -0.08538725 0.00081705686 -0.09457136 -0.087650724
000350 7e 2b b3 bd a8 cc d9 bd 12 ba 82 3d 37 e4 95 3d
       -0.0874853 -0.10634738 0.06383146 0.07318919
000360 4b 3f c6 bd a1 fb 10 3e 33 b9 0c 3d c2 cb f8 3d
       -0.09680041 0.14158489 0.034356307 0.12148239
000370 e2 83 55 3d ad f0 f9 3d 67 ab 29 be 36 48 1b be
       0.052127726 0.122041084 -0.16569291 -0.15164265
000380 89 64 4c 3d ff 81 4d 3d 43 d6 40 3e ee 4b 17 3d
       0.049900565 0.050172802 0.18831734 0.036937647
000390 16 9d 48 bc a0 35 f3 bb dc 6a c6 3d 13 a7 c1 bd
       -0.012244483 -0.007422164 0.096883506 -0.09455695
0003a0 c1 ba f2 bd aa 1d 18 be a1 b4 98 bd 17 68 95 bc
       -0.11852027 -0.14855066 -0.07456327 -0.01823811
0003b0 aa b1 ea 3c 9a 98 a1 bd 01 22 ec 3d 9c de 5a 3e
       0.02864917 -0.078904346 0.11529923 0.21373981
0003c0 d9 bb 84 bc 23 2c b0 bd ac 74 eb bb 1e 3d b9 bd
       -0.016202854 -0.086021684 -0.007185539 -0.0904486
0003d0 4b 0f 88 bd 7e 52 46 3d 08 b9 1d bd 97 b2 87 bd
       -0.06643542 0.048418514 -0.038506538 -0.0662586
0003e0 5c 7d 08 be 2a 69 ed 3d 55 2a 1f 3e 4d 55 25 bd
       -0.13329071 0.11592324 0.15543492 -0.040364552
0003f0 cf ed 63 bd f9 5c ec 3c 00 ec d1 3d a1 48 fc bc
       -0.055646714 0.028852927 0.102500916 -0.03079635

sequential/conv2d_1/Conv2D f4 [32, 3, 3, 32]
000000 d6 85 93 3c fb fb 28 bd 3c 7d e7 3d 51 38 e0 bb
       0.018008154 -0.041255932 0.113031834 -0.006842651
000010 d3 53 f0 bd 56 d1 e2 bc c6 29 8d bd 05 06 a7 3d
       -0.11734738 -0.02768771 -0.06892733 0.08155445
000020 82 ee d1 bd d9 40 4c bd f5 a1 d0 3d 45 d5 f9 bc
       -0.1025057 -0.04986653 0.10187141 -0.030497203
000030 3a 5d fc bd a4 46 ec 3c cb 77 55 3d 68 69 3e bb
       -0.12322469 0.028842278 0.052116197 -0.0029054526
000040 49 12 b9 3d 2e 34 92 bd f6 2d 86 bb c4 e6 a5 bd
       0.09036691 -0.07138859 -0.0040948344 -0.08100656
000050 2a 85 9c 3d 8b 89 1b 3d 94 d0 fb 3d 9a e3 49 3d
       0.076425865 0.037972968 0.122956425 0.049289323
000060 df d3 1e 3c 42 71 97 bd 96 97 00 be 00 cf 6b bd
       0.009694069 -0.07394649 -0.12557825 -0.057570457
000070 e7 f6 09 3c b1 10 f7 3c 4b 10 8e 3d d6 18 eb 3b
       0.0084206825 0.030159326 0.069367014 0.0071745915
000080 c4 28 30 3d 68 62 20 3c aa f7 2a bb e5 f4 9e 3d
       0.043007627 0.009789087 -0.002608756 0.07761554
000090 e2 b8 ff 3b 56 ad 3c bd 33 01 c1 bd 04 bb d1 bc
       0.007804022 -0.046063744 -0.09424057 -0.025601871
0000a0 6b d3 1f bb 4f 63 ff bc 69 34 a2 3d d8 8b d2 3d
       -0.002438749 -0.031175284 0.07920153 0.10280579
0000b0 bc 52 f5 bc 84 ac 5d bb 85 c0 6d bd 38 dd 72 3c
       -0.029946677 -0.003382475 -0.05804493 0.0148232505
0000c0 1c 98 93 3d ad 9c 9f bd 59 e2 ce bc 79 85 9b bc
       0.07206747 -0.077935554 -0.025254415 -0.018984543
0000d0 61 4e 91 bd d0 d5 87 3d c9 e6 49 bc 63 13 f2 3c
       -0.07095028 0.066325784 -0.01232309 0.02955026
0000e0 d9 f1 db 3d 3f d1 10 bd 43 c9 38 3d 48 d3 0a 3d
       0.10739488 -0.035355803 0.045113813 0.0338929
0000f0 14 d7 21 3c ab cf a3 bd 99 3c 41 3d e5 de 89 3c
       0.009877939 -0.07998594 0.04717693 0.016829917
000100 06 8e 8f 3c 6a 3c e8 3c 3a d2 98 bd 08 54 b3 3d
       0.017523777 0.02834912 -0.074619725 0.08756262
000110 75 9b a3 bd ff a9 82 3c b0 88 90 bd af 3e e0 bd
       -0.079886355 0.015950201 -0.07057321 -0.10949456
000120 62 ba 8d bd 3d 4d dd 3d 17 b6 c2 3c d6 c1 9f 3d
       -0.06920315 0.10805748 0.023768468 0.07800643
000130 c8 b9 fb bc aa e7 9b 3d bd e5 03 bd 75 98 86 bd
       -0.030728236 0.07612546 -0.032201517 -0.065720476
000140 8e 1a 2c 3b 7d 6f 82 3d d5 c0 96 bd 76 4f 3b 3d
       0.0026260945 0.06368921 -0.073609985 0.045730077
000150 a1 d6 c5 3d 64 13 6a 3d f1 e0 20 3d 8d 3a b8 bd
       0.09660078 0.0571474 0.03927702 -0.08995543
000160 4d dd 03 3e 3c ac 31 bd 2d 0c 9d 3d fc 56 79 bc
       0.12877388 -0.043377146 0.07668338 -0.015218493
000170 3e 30 bb bb 86 8d f3 bd c7 1b 98 3d c5 6d 61 3d
       -0.005712538 -0.11892228 0.07427173 0.055036325
000180 e7 53 e6 bd 20 6f 73 3c 6e 41 07 3e 74 bd 5f bd
       -0.11246472 0.014858037 0.13208553 -0.054624036
000190 95 0f 42 3d 84 26 60 3c 3d cf f4 3c a3 94 ac 3d
       0.04737814 0.013681058 0.029883975 0.08426788
0001a0 f9 5f 0d be 93 53 bf bb 35 62 97 bd c3 e6 a4 bd
       -0.13806142 -0.0058388202 -0.073917784 -0.08051827
0001b0 16 7b 48 bd 45 45 a8 bd 8e cb 8a 3c 29 69 1b 3d
       -0.04894551 -0.08216337 0.016942766 0.037942085
0001c0 3e 38 02 3a 87 c3 64 3d 41 34 80 bd 36 a1 b2 bd
       0.0004967487 0.055850532 -0.06259967 -0.08722155
0001d0 72 72 b4 bd 0a 3a da bd 00 af cf 3d 8c 0a a7 bd
       -0.08810891 -0.10655601 0.101408005 -0.081563085
0001e0 67 c3 ac 3d 25 d9 d4 bd b9 fe 04 bd c7 70 2d bd
       0.084357075 -0.103929795 -0.032469485 -0.04234388
0001f0 93 1e c7 bb 92 dc 26 bd 22 c5 7a 3d df ab 95 3d
       -0.006076643 -0.040737696 0.061223157 0.073081724
000200 c3 9f cf 3a ad 47 51 bd fc 91 14 3b 21 3b d7 bd
       0.0015840459 -0.051093746 0.0022670021 -0.10509325
000210 1f 6c ce bd ad de de 3d 19 22 ad bd 83 04 80 bd
       -0.10079216 0.10882316 -0.08453769 -0.062508605
000220 d9 c4 b9 bd 5d ed 66 bb b1 21 b7 3d cd 42 c8 3d
       -0.09070749 -0.0035236694 0.08941973 0.09778366
000230 fe 32 48 bd 6c 88 86 3d e2 04 a1 3b 8b 0d 6c bd
       -0.048876755 0.06568989 0.004913912 -0.057630103
000240 e6 90 23 bb e4 ff 1e bd cc b7 ea 3d 28 b6 ad 3d
       -0.0024958192 -0.038818255 0.11460838 0.08482009
000250 85 6b 9a 3c da 92 2f 3d 7a 0d 09 bd 20 59 1b 3d
       0.018850097 0.042864658 -0.033460118 0.037926793
000260 12 99 7a 3c a5 fa aa 3d c5 5c a4 bd 33 de 11 bc
       0.015295284 0.08348588 -0.08025507 -0.008903074
000270 e6 3b c8 bc 8d 67 cd 3c b8 85 62 bc 3e 25 81 3c
       -0.024442624 0.02507379 -0.013825826 0.015764829
000280 36 43 62 3d f5 44 64 3c 37 3f 98 3d 24 3d 69 3d
       0.05523988 0.013932456 0.07433932 0.056943074
000290 94 0c 56 bd 76 c5 00 bd d7 3e b1 bd b1 37 6d bb
       -0.05225809 -0.031438313 -0.08654564 -0.0036196525
0002a0 6f 8d 39 3d 94 6a da 3c 3f 6d 01 bd 1d 35 8e bd
       0.045300897 0.026662149 -0.031598326 -0.06943724
0002b0 bd 58 de 3d 57 bf 30 3d f9 59 02 bd d9 75 c7 bd
       0.10856769 0.043151226 -0.031824086 -0.097392745
0002c0 15 64 a6 bc 08 18 f0 bd 72 b2 aa bc a0 1c ba bc
       -0.020311395 -0.117233336 -0.020837042 -0.022718728
0002d0 11 2d 48 bc 37 b3 92 3d 11 81 e9 3d 23 cb ab bd
       -0.012217776 0.07163089 0.114015706 -0.08388355
0002e0 f7 ab bd bb 1c 0b 97 bd 09 b8 8a 3d 41 84 e1 3c
       -0.005788322 -0.07375166 0.06773383 0.027528884
0002f0 69 dc 07 3d 17 3e 23 be b8 8f a4 bd 45 fd a7 3d
       0.033169184 -0.15941654 -0.08035225 0.08202604
000300 30 9a 61 3c 46 77 a6 bc e5 9b d3 3d f7 0e 06 3d
       0.013769671 -0.020320546 0.10332469 0.032729115
000310 cf 4c 94 3d 01 a6 b0 3b d5 e2 83 3d d7 a5 10 3c
       0.072412126 0.005390883 0.06439749 0.008828602
000320 b7 dc f2 3c 27 d0 f5 bd 10 15 dc bd 34 c0 58 3d
       0.02964626 -0.120025925 -0.10746205 0.052917674
000330 f2 bf 41 bd e8 68 f2 3b 1d ba ba 3d f0 f3 6e bd
       -0.047302194 0.0073977597 0.091175295 -0.058338106
000340 86 90 fc bd bd be bd 3d 69 6f 9d 3d 60 2f 5a bd
       -0.12332253 0.09264896 0.076872654 -0.053267837
000350 ae 03 d5 3c e7 e5 64 3d d0 a2 95 bc b5 ca d3 bd
       0.026002731 0.055883314 -0.018266112 -0.10341398
000360 19 e8 2e 3d 87 68 80 3d 4d e4 82 bd 3a 56 86 3d
       0.042701814 0.06269937 -0.06391201 0.06559415
000370 c9 96 f9 3d 20 29 b6 3d e9 2b 87 bd 4e 7e 9f 3d
       0.12186963 0.08894563 -0.06600172 0.077877626
000380 3a 64 64 bd 39 fc 4d bc b8 c4 fe 3c 9f 76 a7 bd
       -0.055759646 -0.012572342 0.031099662 -0.08176922
000390 ad a6 48 3d a8 50 63 3d 8b 5b 45 bd a0 41 0d 3d
       0.04898708 0.05549684 -0.048183005 0.034486413
0003a0 64 e7 5b 3d 2d 14 9c 3b 95 b6 c6 bd c5 10 06 bc
       0.05368747 0.0047631473 -0.097027935 -0.008182709
0003b0 cc b5 60 3c d5 52 84 bd 80 d1 12 3c c2 25 27 3a
       0.013715219 -0.064611115 0.0089610815 0.0006376171
0003c0 42 af 96 bd 9a ef a2 bd 34 80 a1 3d e1 75 ec 3b
       -0.073576465 -0.079558566 0.07885781 0.0072162007
0003d0 41 53 2b 3d 3f 72 ee bd 85 38 22 bd eb a9 c8 3d
       0.041827444 -0.116428845 -0.039604682 0.09798034
0003e0 ee a0 83 3d d1 47 90 3d 8c cf e0 bc a7 e3 06 bd
       0.06427179 0.07044948 -0.027442716 -0.03293195
0003f0 9a 20 b9 ba 01 7b 24 bd aa 16 9f bd 3d 6d 70 3c
       -0.0014124096 -0.04015637 -0.07767995 0.014674482

sequential/conv2d_2/Conv2D f4 [32, 3, 3, 32]
000000 c4 ca c0 bd 11 68 07 be 95 e0 9b bd 44 ab 49 bd
       -0.094136745 -0.13223292 -0.07611195 -0.049235597
000010 89 e7 f1 bc 28 f2 86 3d 39 b0 51 bd 63 d6 83 3d
       -0.02952935 0.065891564 -0.05119345 0.064373754
000020 ce 81 d2 bd 39 29 ab bc b4 14 7f bd 1d 2b 4e bd
       -0.102786645 -0.02089368 -0.062275603 -0.050334085
000030 0a 39 9b bd 5c 7b ac 3d 49 f7 6e 3d cf ca 56 3d
       -0.07579239 0.084219664 0.0583413 0.052439507
000040 48 83 17 be cb d6 46 bd ec e1 9e bd 9a df b0 3d
       -0.14796174 -0.048544686 -0.07757935 0.086363986
000050 44 a9 38 3d 66 3c b5 bc 65 02 f5 bc 47 80 37 3d
       0.0450833 -0.022123527 -0.029908368 0.04480007
000060 ce 1a 3d 3d 4a 9b 89 bc a9 dd 4a 3c 0d 51 67 3d
       0.04616814 -0.01679768 0.012381949 0.05647378
000070 c2 cd 11 bc cc f9 db 3d aa 30 cc 3d df f4 24 3c
       -0.008899154 0.10741004 0.099702194 0.010068147
000080 40 1e cd bb 3f 2f a7 bb 9a 6f 92 3d cc 3d 00 be
       -0.0062597096 -0.0051020677 0.071501926 -0.12523574
000090 79 73 1f be 5b 66 0b bd 0b 2d 6d bc b0 94 a5 3c
       -0.15571393 -0.03403316 -0.014476071 0.020212501
0000a0 af a6 96 bc be 9a d9 bd 1f f5 15 3e 0c 1a a0 bd
       -0.018390028 -0.10625218 0.14644288 -0.07817468
0000b0 df 91 1a 3e 4c 2a e7 bc 22 ec b5 bc 6e 17 bf bd
       0.15094708 -0.02821841 -0.022207323 -0.09330641
0000c0 dc ae 7b bd dd bc a2 bc fc 97 e5 bd 65 15 d7 3c
       -0.061446056 -0.019865448 -0.11210629 0.026255319
0000d0 34 f8 02 bd f0 d0 a6 3c eb af cc bd ff b7 c8 bd
       -0.031974986 0.020363301 -0.09994491 -0.098007195
0000e0 3e e9 04 be 3f 16 83 3c ec 04 1c be bf 6e d9 3c
       -0.129796 0.016001819 -0.15236253 0.026542066
0000f0 e6 db c5 bd 7b b4 f4 3d 0d 6a de bc 61 40 8c bd
       -0.09661083 0.119484864 -0.027150178 -0.06848217
000100 3f 6d b2 bd a2 03 51 3e 5b 3b 82 3d 6d 8f 6e bc
       -0.08712243 0.20411542 0.063589774 -0.014560563
000110 a3 fe db bd 2c 6c 3f 3d f6 03 11 bc f7 18 1a 3d
       -0.107419275 0.04673402 -0.008851042 0.037621465
000120 26 fc c0 bc 07 da b3 bb 8f fb 69 bd ca 7f 81 bd
       -0.023557734 -0.0054886374 -0.05712467 -0.06323202
000130 69 08 12 bd da 4a 82 3d b4 37 0e be eb 8c af 3d
       -0.03565255 0.06361933 -0.13888437 0.085718
000140 29 fa 0c 3d 62 56 dd 3d a6 7d a8 bd 9c 96 21 3d
       0.03441826 0.10807492 -0.082270905 0.039450273
000150 89 26 a1 bd 31 72 de bd da 8a 53 bd 46 5c 5c 3b
       -0.07868678 -0.10861624 -0.05164609 0.0033624335
000160 88 ee 5c be 5d 9e ef bd 63 20 2b 3e 36 a5 bd 3c
       -0.21575367 -0.11700127 0.16711573 0.023150068
000170 1f 02 b2 bd 0e 48 7c 3d 75 b7 0e be 75 14 71 3e
       -0.08691811 0.061592154 -0.13937171 0.2354296
000180 e8 b4 94 3d ea bf 0c 3c dd fb 8e 3c e1 a9 9f bd
       0.07261068 0.008590678 0.017454082 -0.07796074
000190 ce 42 8c bd 85 07 dd bc fa cb 50 bd 37 cb 0f 3d
       -0.068486795 -0.026981125 -0.050975777 0.03510591
0001a0 21 df d6 bd 6c e6 d4 3d 2e 43 67 bb 89 ac 5c bd
       -0.10491777 0.10395512 -0.0035287845 -0.05387548
0001b0 8c fb bd bc e1 73 05 3d b0 de af bd cc 75 26 3d
       -0.023191236 0.032581214 -0.08587396 0.040639684
0001c0 71 2a 21 bc 8a 4d c2 3d 04 8c 51 3d 38 fc 50 bd
       -0.009836779 0.09487446 0.05115892 -0.051021785
0001d0 28 a6 94 bc 8a 86 96 3d eb ae ae 3c 18 ce ec bc
       -0.018145636 0.0734988 0.021323642 -0.028906867
0001e0 90 5a 1a bc a7 6a 4a 3b 0a 6a 8d 3c 63 87 48 bd
       -0.009421006 0.0030886324 0.017262477 -0.04895724
0001f0 29 07 8b 3d 0b f5 c4 bd f0 b9 bc bd 46 c4 dd 3b
       0.06788475 -0.09617051 -0.09215152 0.0067677824
000200 c7 75 8a 3d 1a 76 4f bd 10 37 8d bd db 8c bb bc
       0.067607455 -0.05064974 -0.06895268 -0.022894314
000210 67 f4 a3 bc c4 87 58 bd ad 5c 3c 3c a4 6c 19 3d
       -0.020014001 -0.05286385 0.011496705 0.037457123
000220 bf 35 10 3c 7f 57 56 bd 77 d9 22 3d 46 0f 22 be
       0.008801877 -0.052329537 0.039758172 -0.15826139
000230 2a 22 5c bd 98 ca ae 3b 06 e4 0a bd 2f f7 40 bd
       -0.05374352 0.0053342097 -0.033908866 -0.047110733
000240 7d bc 00 3e 60 31 4a be b4 7b 18 bd 21 e8 80 3e
       0.12571903 -0.19745398 -0.037227347 0.251771
000250 a5 ec 84 3d e8 78 ae bc 4e 04 ae bd bb bc c1 bd
       0.06490449 -0.021297887 -0.08496915 -0.094598256
000260 8c 83 8a ba 94 c1 aa bd c8 19 2a bd 71 81 92 bc
       -0.0010567768 -0.08337703 -0.041528493 -0.017883988
000270 29 2b eb bc 07 ef c4 bd 54 ab ae bd 22 6c 0b be
       -0.028707104 -0.09615903 -0.08528772 -0.13615468
000280 c2 2b 19 3d 80 fa 6b bd e2 47 86 bd 40 98 48 3e
       0.037395246 -0.057611942 -0.06556679 0.19589329
000290 98 e9 8d bb 4b a7 cb bd 65 9b 0a 3e 45 04 f7 3d
       -0.004330825 -0.09944018 0.13535841 0.12061361
0002a0 b0 50 b0 3c ce 4d 81 3d 46 ed 04 be f9 b6 63 3d
       0.02152285 0.06313668 -0.12981138 0.05559442
0002b0 6b c0 57 3e cd 6f bf bd fc d1 21 be 0c 87 68 3d
       0.21069495 -0.09347496 -0.15802759 0.056769416
0002c0 3d 9b cf 3d ab 7b c3 bc 7d b9 00 3d 13 ff a5 bc
       0.10137031 -0.02386268 0.031426895 -0.02026323
0002d0 2a 41 a3 3d 42 d0 ba bc f1 e8 d9 bd 61 d6 e6 bd
       0.079714134 -0.022804383 -0.10640133 -0.11271358
0002e0 17 33 d0 3d 1c b0 f5 3c da a9 1c 3c fe 0d 38 3d
       0.101659946 0.029991202 0.00956198 0.04493522
0002f0 62 b9 01 be 81 15 85 3c 04 76 49 3d e3 f4 cd 3d
       -0.12668374 0.016245605 0.049184814 0.10056474
000300 99 2a 5b 3d 20 6b e2 3d ec 1e ee 3c 6f c0 9e bd
       0.05350742 0.11055589 0.02906748 -0.077515475
000310 f6 57 e3 bc 3d e5 ea bc 40 d2 91 bd b9 a9 2d 3d
       -0.027751904 -0.028673762 -0.0712018 0.04239819
000320 d5 97 8d bd 13 f9 79 bd 39 36 59 3d f2 5a 2c 3c
       -0.06913725 -0.06102855 0.053030226 0.01051973
000330 6f 29 4f bc c9 56 33 3d 05 31 b5 3c b4 20 59 bc
       -0.012644156 0.043783937 0.0221181 -0.013252426
000340 b9 c4 83 3c 5e fa 90 3d 3d 2e 99 bd 49 24 e6 bd
       0.016085016 0.07079004 -0.074795224 -0.112373896
000350 17 2b 91 bd 62 bf a0 bd af 52 bc 3b b8 4b b5 bd
       -0.07088297 -0.078490034 0.0057471613 -0.08852333
000360 db 85 98 bc 6b ff d0 bd b4 94 8e 3c 51 b5 fa 3b
       -0.018618515 -0.10204967 0.017404892 0.007651009
000370 be 7f e8 bb fb 92 ea bc 2b e7 99 bd e2 56 21 bd
       -0.007095306 -0.028634539 -0.07514795 -0.0393895
000380 5f ab 91 bb e9 bb f9 3c e8 2d e6 bd 27 73 9c bb
       -0.004445478 0.03048511 -0.11239225 -0.0047744694
000390 9e 03 28 3c 35 6a 80 3d e0 96 10 bd db ee 77 bd
       0.010254769 0.062702574 -0.035300136 -0.060530525
0003a0 e7 aa 90 bd 54 e9 25 ba 77 c6 00 3e 87 53 31 3d
       -0.07063847 -0.0006329019 0.12575708 0.04329255
0003b0 6c 0f 90 bc fa 2e 74 3d 7e 38 c9 bc e5 8e 60 3d
       -0.017585479 0.059615113 -0.02456307 0.054823775
0003c0 43 18 ae bd 0d b8 f4 bb d8 3f a9 bd 6b b5 72 3c
       -0.08500721 -0.0074682296 -0.0826413 0.014813761
0003d0 bd de 24 3e f2 56 ae bd ec dd f6 bc a9 69 eb bd
       0.16100593 -0.08512677 -0.030135117 -0.114947625
0003e0 b4 eb 8a bd 4e 45 9c bc f0 5d 8f bd 7e 0d 1c 3b
       -0.06783238 -0.019076016 -0.07000339 0.0023811753
0003f0 31 af b4 3d e6 76 a8 bd b1 45 24 3d ba 62 10 be
       0.088224776 -0.08225803 0.040105525 -0.14100161

sequential/conv2d_1/BiasAdd;sequential/conv2d_2/Conv2D;sequential/conv2d_1/Conv2D;sequential/conv2d_1/BiasAdd/ReadVariableOp/resource f4 [32]
000000 c4 fa ad bb 73 8b 77 bc 1f 65 e0 3c 18 38 74 bc
       -0.0053094346 -0.015108931 0.027391968 -0.014905952
000010 1b 9f a3 bc 93 a6 dc bc 84 90 30 bd 43 69 93 bc
       -0.019973328 -0.026934898 -0.04310657 -0.017994529
000020 ad a8 49 3b a6 00 f5 bc 5a ea fb 3b f4 15 8e bc
       0.0030770705 -0.029907536 0.007687849 -0.017344452
000030 94 0b c2 bc 59 f2 b3 bc 6c 11 4e 3c 34 b8 a2 bc
       -0.023687162 -0.021966146 0.012577396 -0.019863226
000040 a8 7e ae 3a 47 07 03 bd e6 63 a6 3b 07 21 8f 3b
       0.0013312893 -0.031989362 0.005077827 0.004367951
000050 44 49 ac bc fc b2 25 bc 12 e4 fc 3c 9c bd d1 3b
       -0.02103103 -0.010113474 0.030870471 0.006400777
000060 e8 a2 7b b8 a0 63 c5 ba ab 47 bd bc 49 4c 48 3c
       -5.999478e-05 -0.0015059598 -0.023105463 0.012225219
000070 58 48 7c bb d2 d1 31 bc a2 bc 17 3c f8 87 ab bc
       -0.0038495269 -0.010853248 0.009261282 -0.020938858

sequential/conv2d_2/BiasAdd;sequential/conv2d_2/Conv2D;sequential/conv2d_2/BiasAdd/ReadVariableOp/resource f4 [32]
000000 f3 d1 e8 bc 28 60 ce bc 7b 76 52 bd c0 7d 94 bc
       -0.028420424 -0.025192335 -0.051382523 -0.018126369
000010 0a e4 9f bc 0b 6a 0d bd bd e9 ef bc ce a8 1a bd
       -0.019517917 -0.03452496 -0.02928626 -0.03775864
000020 71 37 67 bd 80 a3 11 bd 17 e5 23 bd 3d 27 43 bc
       -0.056449357 -0.035556316 -0.0400134 -0.011911211
000030 34 da 55 bd 7f fb 5f bc 98 59 e5 bb 98 ec f6 bc
       -0.052210048 -0.013670801 -0.006999206 -0.030142114
000040 59 24 25 bd 7d 2e 9d bc bb dc 4f bc bb f3 01 bd
       -0.040317867 -0.019187206 -0.012686904 -0.03172658
000050 4e f8 eb bc af 7a 33 bd 05 e0 01 bd 82 6f c3 bc
       -0.028804924 -0.043818172 -0.031707782 -0.023856882
000060 5c 3b cf ba 57 4d 84 bc f3 65 19 3b 04 a9 22 bd
       -0.0015810537 -0.01615016 0.0023406714 -0.039711967
000070 46 38 ca bc 69 d0 2a bd 24 8c 9a bc 59 53 06 bc
       -0.024685036 -0.04170266 -0.018865652 -0.008198583
