dig_bk_v2.tflite (tflite, 356604 bytes, 12 tensors)

sequential/conv2d/BiasAdd/ReadVariableOp/resource f4 [32]
0.0045346473 0.028906364 -0.05827729 -0.011667605 -0.0075918334 -0.029041521 -0.050569493 -0.043565497
0.070305325 0.029996121 -0.10031923 -0.045664303 -0.041651715 -0.0068481667 0.0058839684 -0.07927327
0.01862341 -0.009622154 -0.04085419 -0.07122246 0.018406233 -0.045236222 0.003757612 -0.054584134
-0.020816876 0.052442044 -0.035042122 -0.052129608 -0.051105656 -0.051789623 -0.10123343 -0.048276052
00000000: 6197 943b 0acd ec3c 2bb4 6ebd 7b29 3fbc
00000010: eac4 f8bb 7ce8 edbc f521 4fbd bc71 32bd
00000020: 3dfc 8f3d 6dba f53c 2b74 cdbd 7e0a 3bbd
00000030: fd9a 2abd 9666 e0bb 4ece c03b 065a a2bd
00000040: 1f90 983c 3da6 1dbc b956 27bd 15dd 91bd
00000050: abc8 963c 9e49 39bd 4542 763b 9d93 5fbd
00000060: 2788 aabc 78cd 563d 5488 0fbd db85 55bd
00000070: 2a54 51bd 5b21 54bd 7953 cfbd 1cbd 45bd

sequential/dense/BiasAdd/ReadVariableOp/resource f4 [256]
-0.033964183 0.01985974 -0.02368823 0.021095818 -0.0052006976 -0.0026640159 -0.00089702406 -0.019167148
0.005566699 -0.0039465185 0.031061877 0.006301208 -0.059680916 0.03184346 0.024918703 -0.040506378
-0.032223396 0.0028677254 -0.0061904495 0.012131733 -0.021840848 0.013043212 -0.0046629715 -0.026761312
0.008985094 -0.024774069 -0.036750324 0.02612009 -0.033249605 -0.024489826 -0.026953487 -0.0061964896
0.03713373 0.047905553 0.0061575873 -0.044884104 -0.041282024 -0.044124246 -0.0014650652 0.021455068
-0.07610625 0.018496847 -0.018320728 -0.0053624283 -0.006507059 -0.010939161 0.04649353 -0.0044791065
-0.019540064 -0.028197823 -0.030688608 -0.051029883 -0.029380562 -0.028819958 -0.041918624 -0.04748105
0.022199398 -0.011735082 0.0129221575 0.003858732 0.0068176608 0.0020067068 -0.0035484093 -0.0190805
-0.014168145 0.0594 -0.025366321 -0.045956135 0.0076186503 -0.0072725466 -0.036373254 0.008915672
0.0113498885 0.034092512 -0.007866277 0.005683427 -0.032692906 0.0043213796 -0.016775806 0.011579032
-0.0067248745 0.0084259445 -0.018078629 -0.009609593 -0.018495958 -0.0044148434 -0.014213958 -0.026698811
0.017237706 -0.02471427 -0.01940639 -0.038081232 0.0018393657 -0.014518816 -0.011167812 0.022835094
0.003337036 -0.028453983 -0.010039072 -0.011013062 -0.015506466 -0.008222247 -0.02483063 -0.021400452
-0.00617183 -0.0063151247 0.0059166523 0.022709882 -0.015885593 0.042986322 -0.010107237 -0.012555212
-0.032392636 -0.009328531 -0.0315551 -0.026291115 0.026494687 -0.017924622 0.05674341 0.03406137
-0.03918662 0.015753131 -0.009184709 -0.017274475 -0.021680586 -0.015529784 0.0034789806 -0.006711167
-0.008508371 -0.026783453 -0.019263513 -0.048762985 -0.0049665067 -0.00081245776 0.015398865 0.010951266
-0.0005134723 0.0019346686 0.00784198 0.0049745333 -0.017040122 -0.03660849 0.015325831 -0.06406413
-0.08306807 -0.010813682 -0.021320168 0.045898933 -0.020060796 0.0037691812 0.00339586 0.03662371
-0.012298876 0.014169211 -0.0075110486 -0.032191876 -0.013108089 0.017171483 -0.015675679 -0.0148757035
0.019462362 0.0079050185 0.033371825 -0.019004893 0.0044351765 0.005842533 0.011266179 -0.034609355
-0.04607252 -0.040355876 -0.04860656 -0.017846111 -0.036567874 -0.0016561797 0.029357871 -0.00901105
-0.00738148 -0.032461155 -0.011347118 -0.06261943 -0.058079965 -0.035383675 -0.029108927 -0.024886621
-0.030551845 -0.009426672 -0.039504845 -0.016834699 -0.031712636 -0.0072642546 -0.039849848 -0.008894832
-0.02950407 0.0034591607 -0.009973708 -0.0150174685 -0.029461935 -0.0071418895 0.03323582 -0.00068140135
-0.02437653 -0.02991182 -0.020443691 0.0058851177 0.031721964 -0.007228209 -0.022775456 -0.000847448
0.010986432 0.05517081 -0.0035872206 -0.052372795 0.08258694 0.00418074 0.03855648 -0.0022924978
-0.041434452 -0.025806742 -0.038357776 0.0022328729 -0.032078367 0.0014395495 0.0047902763 0.01443559
-0.03631196 -0.018187227 -0.004211981 -0.023163676 0.048645236 0.02268747 -0.024185589 -0.0098405
-0.019190716 -0.026420148 -0.025633724 -0.016773853 -0.0057944637 0.049122144 -0.008469552 -0.037124436
-0.024439724 0.02435643 -0.032610897 -0.016280623 0.0045338958 -0.034234833 0.050842956 -0.03572318
0.0301312 0.04211676 -0.0038903686 -0.01729634 -0.03071678 0.039177682 -0.014614034 0.0011011509
00000000: 071e 0bbd e5b0 a23c d20d c2bc 23d1 ac3c
00000010: 9d6a aabb c596 2ebb 4426 6bba 6c04 9dbc
00000020: db68 b63b cc51 81bb 7a75 fe3c 5d7a ce3b
00000030: fa73 74bd 4a6e 023d 4f22 cc3c 04ea 25bd
00000040: aefc 03bd 73f0 3b3b 41d9 cabb 2dc4 463c
00000050: 94eb b2bc 32b3 553c d7cb 98bb 8a3a dbbc
00000060: 3736 133c fdf2 cabc 8287 16bd cdf9 d53c
00000070: bd30 08bd e39e c8bc 8fcd dcbc ec0b cbbb
00000080: 8a19 183d 9d38 443d 96c5 c93b 65d8 37bd
00000090: 5717 29bd a0bb 34bd 6e07 c0ba 8ac2 af3c
000000a0: 98dd 9bbd b386 973c 5a15 96bc 4fb7 afbb
000000b0: 2b39 d5bb 2b3a 33bc 0070 3e3d 78c5 92bb
000000c0: 7c12 a0bc 1fff e6bc ad66 fbbc b604 51bd
000000d0: 81af f0bc d517 ecbc ddb2 2bbd 7d7b 42bd
000000e0: 83db b53c 8044 40bc 75b7 533c c8e2 7c3b
000000f0: af66 df3b f482 033b 6e8c 68bb b54e 9cbc
00000100: 8221 68bc 6a4d 733d 08cd cfbc 803c 3cbd
00000110: dfa5 f93b 8b4e eebb 1ffc 14bd 0a13 123c
00000120: e2f4 393c 97a4 0b3d 8fe1 00bc 0b3c ba3b
00000130: ffe8 05bd 5c9a 8d3b 6a6d 89bc fbb5 3d3c
00000140: 565c dcbb f90c 0a3c a219 94bc 8e71 1dbc
00000150: d684 97bc 64aa 90bb a9e1 68bc 77b7 dabc
00000160: 1736 8d3c 9575 cabc 26fa 9ebc 11fb 1bbd
00000170: df16 f13a 54e0 6dbc 33f9 36bc aa10 bb3c
00000180: 2cb2 5a3b 5418 e9bc eb7a 24bc 2170 34bc
00000190: d50e 7ebc 9ab6 06bc 9b69 cbbc 0050 afbc
000001a0: 103d cabb 1bef cebb 7ae0 c13b 130a ba3c
000001b0: 8122 82bc 6d12 303d d398 25bc 60b4 4dbc
000001c0: 24ae 04bd b2d6 18bc ec3f 01bd 7760 d7bc
000001d0: 630b d93c a8d6 92bc c76b 683d ef83 0b3d
000001e0: 2682 20bd b60c 813c 767b 16bc 3383 8dbc
000001f0: 7c9b b1bc a370 7ebc 9cff 633b 59e9 dbbb
00000200: b266 0bbc f968 dbbc 84ce 9dbc b2bb 47bd
00000210: 14be a2bb 1efb 54ba 854b 7c3c f06c 333c
00000220: 8b9a 06ba b594 fd3a a67b 003c 6901 a33b
00000230: ba97 8bbc c9f2 15bd 3219 7b3c 0e34 83bd
00000240: 981f aabd df2b 31bc a2a7 aebc 8500 3c3d
00000250: 8a56 a4bc 5e04 773b 148d 5e3b be02 163d
00000260: 3a81 49bc fa25 683c 3e1f f6bb a1db 03bd
00000270: 4fc3 56bc 36ab 8c3c 486a 80bc 39b9 73bc
00000280: 886f 9f3c 0d84 013c e5b0 083d 26b0 9bbc
00000290: f554 913b b872 bf3b c895 383c 8ac2 0dbd
000002a0: 8ab6 3cbd 344c 25bd ac17 47bd 0232 92bc
000002b0: 32c8 15bd 2b14 d9ba eb7f f03c 15a3 13bc
000002c0: 58e0 f1bb fdf5 04bd 43e9 39bc 9e3e 80bd
000002d0: 42e5 6dbd 79ee 10bd d875 eebc 07df cbbc
000002e0: dd47 fabc 5472 1abc d5cf 21bd ece8 89bc
000002f0: 1ce5 01bd fc08 eebb 9839 23bd a1bb 11bc
00000300: 85b2 f1bc 16b3 623b c368 23bc d40b 76bc
00000310: 285a f1bc 8306 eabb 4822 083d 12a0 32ba
00000320: 4ab1 c7bc a209 f5bc 8779 a7bc f2d7 c03b
00000330: e4ee 013d 9dda ecbb 9893 babc 4627 5eba
00000340: 7000 343c cafa 613d 9317 6bbb db84 56bd
00000350: 5723 a93d 97fe 883b 66ed 1d3d bb3d 16bb
00000360: 2cb7 29bd a968 d3bc 0b1d 1dbd 6455 123b
00000370: 9b64 03bd 44af bc3a c0f7 9c3b 4183 6c3c
00000380: dabb 14bd 61fd 94bc a804 8abb c0c1 bdbc
00000390: 3a40 473d 13db b93c db20 c6bc 0c3a 21bc
000003a0: d935 9dbc 116f d8bc d1fd d1bc 5269 89bc
000003b0: 7cdf bdbb 4d34 493d e0c3 0abc cb0f 18bd
000003c0: d135 c8bc 2387 c73c 0193 05bd f15e 85bc
000003d0: 1391 943b d339 0cbd b440 503d 7852 12bd
000003e0: b5d5 f63c a082 2c3d 8ef5 7ebb 0eb1 8dbc
000003f0: c2a1 fbbc c778 203d b46f 6fbc 7e54 903a

sequential/dense_1/BiasAdd/ReadVariableOp/resource f4 [11]
-0.06661238 -0.034600746 -0.03778956 -0.0649312 -0.0068732295 -0.044344757 -0.057482168 -0.0018157321
-0.0059066536 0.02268154 -0.107611015
00000000: 126c 88bd 83b9 0dbd 3ac9 1abd a6fa 84bd
00000010: d438 e1bb d9a2 35bd 6c72 6bbd dcfd edba
00000020: 9a8c c1bb a3ce b93c 2a63 dcbd

sequential/batch_normalization/FusedBatchNormV3 f4 [3]
-2.1347804 -1.3991525 -1.2604896
00000000: 3ea0 08c0 6e17 b3bf b957 a1bf

sequential/batch_normalization/FusedBatchNormV31 f4 [3]
0.016816745 0.018167155 0.02061529
00000000: 45c3 893c 49d3 943c 66e1 a83c

sequential/dense/MatMul f4 [256, 256]
-0.073676474 0.12098932 -0.11212148 -0.041247774 -0.05420786 0.07762613 -0.04150836 0.05580439
0.09180898 0.09584307 -0.05054449 0.036195505 -0.0055159447 0.045351833 0.02655368 -0.075105764
0.045090556 0.026811644 0.053032547 0.12828456 0.04367586 0.103608206 -0.05508879 -0.06538355
0.09509891 -0.05179904 -0.0713051 -0.08347079 -0.05027892 -0.08558287 0.09487288 -0.047365505
-0.026970703 0.04471124 0.041080575 -0.09518906 -0.008757227 0.039767083 -0.024183707 0.025069421
-0.061188333 0.023131138 0.11601984 -0.114365846 -0.013574298 -0.06831757 0.03620754 -0.111057796
-0.07298649 -0.15100409 0.05367552 -0.020869378 0.04623431 -0.040729184 -0.10944502 0.057171304
-0.05299693 -0.06647722 -0.05104682 -0.1123809 0.0029089048 -0.08361321 -0.097314455 -0.091716856
-0.14905949 -0.0539961 0.005939658 -0.016287459 0.012469809 -0.10500473 -0.041134715 -0.05854994
-0.13463335 0.011945784 0.033974137 0.11829793 -0.0032551063 0.058819223 0.015569637 0.020767089
-0.08997896 0.05628192 0.17029753 -0.015360114 -0.07765171 -0.078185216 0.049301714 -0.022062458
-0.10532697 -0.039647393 -0.064572625 0.19207188 -0.12830889 -0.022881709 0.06084163 0.05604924
0.009614387 0.07747596 0.045162987 -0.05182366 0.010165913 -0.087919824 -0.11012353 0.0503206
-0.12721993 -0.11595578 -0.06339092 -0.020551885 -0.08281487 -0.05342768 0.05270421 -0.120711535
-0.017713562 -0.1776469 0.042215124 -0.07139906 -0.049247067 -0.068019345 0.018577756 0.03945636
0.04288194 -0.0051638694 0.017404625 0.021162832 -0.09339129 0.06453803 -0.10606013 -0.043422174
-0.011200402 -0.013863393 -0.010921783 0.15279646 -0.06822816 -0.03883457 0.036781274 -0.050652083
0.014936026 -0.09931812 0.013475787 -0.044610117 -0.0062134895 -0.053966876 -0.053857855 0.08180798
0.021941734 -0.049832772 0.112352006 -0.0062503717 0.06917587 0.046184964 0.09205643 0.029434897
0.022133164 -0.07768367 0.10398942 0.06144028 -0.054248106 -0.103469774 -0.0060449685 0.11000517
0.07504245 -0.02727861 0.0013859444 -0.09035376 0.011330324 -0.027734146 0.038456254 -0.0030586119
0.11381021 0.008402305 -0.03559411 -0.051547166 -0.084305614 0.09356338 -0.022616437 0.11101913
-0.01020973 -0.07433227 -0.00538182 0.023822302 -0.09480435 0.07650601 -0.06672919 0.035661962
0.011801877 -0.022943545 0.12816767 0.09532139 -0.06762419 -0.012158267 -0.026293006 0.13526183
0.03942513 0.0154112885 0.08943858 -0.11097364 -0.07530969 0.027770657 -0.030669698 -0.026323065
-0.068162516 -0.008795684 -0.0875559 -0.02014898 0.01443402 -0.077207275 -0.12852341 -0.022131363
0.06191782 -0.048667207 -0.015475733 0.024565868 -0.10961259 0.101597294 0.06759008 0.03285587
0.017991645 0.13994901 0.02753781 0.08107586 -0.0033275024 -0.06989931 -0.04701903 0.036596105
-0.0699345 -0.02047036 0.011634954 -0.10638468 -0.060052488 0.109940425 -0.06664975 -0.06659451
-0.06570672 0.093747646 0.07074111 0.11426678 -0.15556003 -0.083922945 -0.13344511 -0.008868611
-0.074596226 0.034337603 -0.09560166 -0.04114871 0.010523726 0.036828782 0.019992562 0.017591637
-0.035259683 -0.037505317 -0.073390104 -0.08643339 0.01421366 0.03336991 0.025041057 -0.101817735
00000000: b1e3 96bd 40c9 f73d f29f e5bd 6df3 28bd
00000010: 1009 5ebd 73fa 9e3d ac04 2abd 2593 643d
00000020: 5906 bc3d 5f49 c43d bd07 4fbd bd41 143d
00000030: 19bf b4bb d8c2 393d 1a87 d93c 0dd1 99bd
00000040: e0b0 383d 18a4 db3c a838 593d 075d 033e
00000050: 75e5 323d 8a30 d43d c8a4 61bd d0e7 85bd
00000060: 38c3 c23d 3b2b 54bd 6908 92bd bcf2 aabd
00000070: 45f1 4dbd 1246 afbd b64c c23d 5502 42bd
00000080: aaf1 dcbc 2223 373d 1b44 283d 7bf2 c2bd
00000090: 797a 0fbc cfe2 223d e91c c6bc 635e cd3c
000000a0: 9ea0 7abd 837d bd3c cf9b ed3d a438 eabd
000000b0: bb66 5ebc 15ea 8bbd 5c4e 143d 4572 e3bd
000000c0: f179 95bd d1a0 1abe ddda 5b3d 42f6 aabc
000000d0: 3060 3d3d a5d3 26bd b624 e0bd 752c 6a3d
000000e0: 4f13 59bd 3525 88bd 7816 51bd f527 e6bd
000000f0: 53a3 3e3b 673d abbd cd4c c7bd 0cd6 bbbd
00000100: 0da3 18be 042b 5dbd 76a1 c23b 476d 85bc
00000110: 2b4e 4c3c b80c d7bd e07c 28bd 10d2 6fbd
00000120: 53dd 09be 40b8 433c 7728 0b3d 2f46 f23d
00000130: 9f53 55bb 6dec 703d ca17 7f3c be1f aa3c
00000140: e446 b8bd df87 663d 7a62 2e3e fda8 7bbc
00000150: dc07 9fbd 921f a0bd 98f0 493d 54bc b4bc
00000160: abb5 d7bd 4e65 22bd a73e 84bd 7eae 443e
00000170: 6863 03be 6c72 bbbc 1335 793d e393 653d
00000180: a985 1d3c b7ab 9e3d d3fc 383d 0c45 54bd
00000190: ee8e 263c 4f0f b4bd 7288 e1bd f91c 4e3d
000001a0: f145 02be 397a edbd 19d3 81bd 6d5c a8bc
000001b0: d89a a9bd fcd6 5abd 5fe0 573d 9c37 f7bd
000001c0: 081c 91bc 12e9 35be c4e9 2c3d ac39 92bd
000001d0: 4bb7 49bd ba4d 8bbd 6130 983c fe9c 213d
000001e0: f9a4 2f3d ad35 a9bb 2594 8e3c ad5d ad3c
000001f0: ef43 bfbd 842c 843d 0e36 d9bd 73db 31bd
00000200: e481 37bc 4923 63bc 47f1 32bc ad76 1c3e
00000210: 35bb 8bbd 0011 1fbd f6a7 163d 8f78 4fbd
00000220: 3cb6 743c 4c67 cbbd 8cc9 5c3c 19b9 36bd
00000230: 879a cbbb 5f0c 5dbd 0e9a 5cbd f18a a73d
00000240: 27bf b33c 731d 4cbd cf18 e63d ebcf ccbb
00000250: 14ac 8d3d 722c 3d3d 1588 bc3d 7421 f13c
00000260: 9c50 b53c 9e18 9fbd 68f8 d43d cea8 7b3d
00000270: 4333 5ebd f6e7 d3bd df14 c6bb 644a e13d
00000280: dbaf 993d 6477 dfbc 94a8 b53a 640b b9bd
00000290: d3a2 393c b832 e3bc 4e84 1d3d fe72 48bb
000002a0: 5415 e93d d2a9 093c 21cb 11bd 1f23 53bd
000002b0: 6ca8 acbd 289e bf3d 1b46 b9bc ff5d e33d
000002c0: b646 27bc 843b 98bd fa59 b0bb fd26 c33c
000002d0: c828 c2bd 2faf 9c3d 50a9 88bd 4712 123d
000002e0: a95c 413c 1af4 bbbc 633e 033e dc37 c33d
000002f0: 8d7e 8abd 7833 47bc 6e64 d7bc 1482 0a3e
00000300: 3f7c 213d a17f 7c3c 932b b73d 2646 e3bd
00000310: f73b 9abd 4a7f e33c 053f fbbc 78a3 d7bc
00000320: ca98 8bbd c61b 10bc 8250 b3bd 790f a5bc
00000330: ab7c 6c3c d91e 9ebd a49b 03be d54c b5bc
00000340: 8a9d 7d3d 4457 47bd ee8d 7dbc 5c3e c93c
00000350: 917c e0bd 3e12 d03d ab6c 8a3d e093 063d
00000360: 3763 933c cb4e 0f3e f996 e13c 1a0b a63d
00000370: 3a12 5abb 5f27 8fbd 0797 40bd cce5 153d
00000380: d239 8fbd 75b1 a7bc 89a0 3e3c 36e0 d9bd
00000390: 99f9 75bd 7228 e13d aa7f 88bd b462 88bd
000003a0: 3f91 86bd c4fe bf3d b7e0 903d b404 ea3d
000003b0: 214b 1fbe cbdf abbd d6a5 08be a74d 11bc
000003c0: e8c5 98bd 96a5 0c3d ceca c3bd 8d8b 28bd
000003d0: b56b 2c3c c7d9 163d 71c7 a33c 561c 903c
000003e0: 756c 10bd 2d9f 19bd 8d4d 96bd fd03 b1bd
000003f0: 69e0 683c e3ae 083d e722 cd3c d185 d0bd

sequential/dense_1/MatMul f4 [11, 256]
-0.1348917 -0.13637789 -0.22436966 0.10609475 -0.039805576 0.08803506 -0.26308864 -0.21029836
0.020731462 0.013616857 -0.104101606 -0.1414308 -0.11047635 -0.07523021 -0.05563584 0.0019239275
-0.082796134 0.07220484 -0.14758709 -0.15856874 0.08231736 -0.102027364 0.064859614 -0.15477839
0.06624008 0.130605 0.04180661 0.05189019 -0.07191842 0.044312757 0.083747946 -0.22196278
-0.04455497 -0.1376482 0.102500334 0.052171748 -0.07039972 0.12581556 -0.072961494 0.017106684
0.12145352 -0.2106977 0.023537528 -0.17730026 -0.1812199 -0.26327512 0.003013411 -0.0147088915
0.034600146 -0.17606306 -0.18878551 -0.05292326 -0.04142561 0.03896239 0.13358873 -0.1812418
-0.049060322 -0.02591867 -0.21761948 0.014574745 -0.21778579 -0.22995241 -0.088926785 -0.06794478
-0.08389726 0.027958028 -0.16855451 0.024693528 -0.06325274 -0.09550526 0.04939497 0.04687652
-0.17487627 -0.02800732 -0.08153267 -0.089713156 -0.039569903 -0.16054878 -0.12766655 0.07020292
-0.19766566 0.061771724 0.08948766 -0.038659725 0.09402823 -0.016959617 -0.11987881 -0.28293586
-0.18309985 0.011375335 0.04933318 -0.24686776 -0.06844535 -0.018796066 -0.20532836 0.005929879
-0.10188615 -0.17833315 0.036600087 -0.0819327 0.1429777 -0.251966 0.0055291117 -0.17194362
0.06647329 0.13930367 -0.1251197 -0.08851596 -0.08247717 -0.042814307 -0.10887051 -0.025013164
-0.17628771 -0.048829533 0.0750485 -0.095977336 0.047804803 -0.1431592 0.111573994 -0.08932884
0.07426106 0.023516098 -0.22539416 0.0414502 0.07335069 -0.23828855 0.017005723 -0.22950171
-0.12304198 -0.1580954 -0.07639735 -0.056129117 0.025173457 0.087840654 -0.023888612 0.14166583
-0.2314402 0.08969311 0.05812777 -0.10800165 -0.108520806 -0.15131955 0.035429675 -0.034635514
-0.05435252 -0.103379525 -0.158961 -0.23117846 0.101085275 -0.14807497 -0.293509 0.12794785
0.021639267 -0.07811361 0.003411399 -0.08304399 -0.0643021 -0.1291656 0.0798069 -0.08214019
0.031687718 -0.15155967 -0.16875459 -0.14557716 -0.06911793 -0.11428346 0.06018818 -0.18038104
0.09953081 -0.046825543 -0.06606035 -0.21244565 0.028594967 0.09815841 -0.16535178 -0.03749291
-0.2008837 0.008819172 -0.1701113 0.008734511 0.04599245 0.060395077 0.049968556 0.052796308
-0.16599773 -0.072316475 -0.21198602 -0.06453667 -0.08006896 -0.11485746 -0.14643082 -0.11752178
-0.14190638 -0.040595572 0.121257484 0.15580474 -0.118919805 -0.017865272 -0.07828755 -0.1764341
0.1505002 -0.16748655 -0.2613779 0.04931414 -0.165474 0.011304545 0.10505794 -0.18186654
0.015148234 -0.11970447 0.031956077 0.005035911 -0.16802515 0.07222385 -0.14465535 -0.061276354
0.049959373 -0.20270938 -0.0982568 -0.14730075 0.028302005 0.07429237 -0.073943004 -0.16635141
-0.10047562 -0.11590341 -0.0684317 -0.13724719 -0.010944635 -0.13971429 -0.1346259 0.12661953
-0.028460108 0.01683085 -0.0858527 -0.031235326 -0.03269101 -0.04406538 -0.17129217 0.012491396
-0.17313172 0.061398923 0.06412162 0.05857694 -0.03603276 -0.0009707875 -0.15925512 0.055583518
0.05225981 -0.18213312 -0.01711778 0.043691747 -0.1171343 -0.16680504 -0.010501081 0.11845233
00000000: 0d21 0abe a5a6 0bbe 29c1 65be 3448 d93d
00000010: 2c0b 23bd ba4b b43d 8eb3 86be 7458 57be
00000020: 07d5 a93c 3d19 5f3c 3933 d5bd 3cd3 10be
00000030: 6d41 e2bd 4c12 9abd 68e2 63bd 4b2c fc3a
00000040: 0591 a9bd 22e0 933d 1221 17be d85f 22be
00000050: 0196 a83d b9f3 d0bd 1ed5 843d 3a7e 1ebe
00000060: e1a8 873d 51bd 053e 683d 2b3d cf8a 543d
00000070: f749 93bd 4b81 353d 0b84 ab3d 364a 63be
00000080: 467f 36bd a6f3 0cbe b2eb d13d 0bb2 553d
00000090: ba2d 90bd cbd5 003e d66c 95bd 5123 8c3c
000000a0: a0bc f83d 23c1 57be c6d1 c03c 338e 35be
000000b0: b691 39be ffcb 86be a67c 453b 90fd 70bc
000000c0: e2b8 0d3d e049 34be fd50 41be 0fc6 58bd
000000d0: e7ad 29bd 0797 1f3d 7ccb 083e 7397 39be
000000e0: 7af3 48bd 6453 d4bc a4d7 5ebe e9ca 6e3c
000000f0: 3d03 5fbe a578 6bbe 3f1f b6bd a226 8bbd
00000100: 54d2 abbd 3c08 e53c 8e99 2cbe 154a ca3c
00000110: a78a 81bd 4398 c3bd 6152 4a3d 9801 403d
00000120: c412 33be 9b6f e5bc 9afa a6bd 88bb b7bd
00000130: 0d14 22bd e666 24be 05bb 02be 8cc6 8f3d
00000140: de68 4abe 5904 7d3d 4e45 b73d a959 1ebd
00000150: df91 c03d e5ee 8abc 0683 f5bd f8dc 90be
00000160: 877e 3bbe 9d5f 3a3c 9711 4a3d e7ca 7cbe
00000170: 132d 8cbd 35fa 99bc 9941 52be 6e4f c23b
00000180: b0a9 d0bd f79c 36be f9e9 153d 55cc a7bd
00000190: bf68 123e b001 81be 8d2d b53b fd11 30be
000001a0: 2623 883d 9fa5 0e3e 611f 00be db47 b5bd
000001b0: cae9 a8bd 0e5e 2fbd 80f7 debd 68e8 ccbc
000001c0: c484 34be 7a01 48bd 07b3 993d c48f c4bd
000001d0: f8ce 433d 5398 12be e880 e43d 0af2 b6bd
000001e0: 2f16 983d d5a4 c03c bacd 66be afc7 293d
000001f0: e338 963d ea01 74be 964f 8b3c 7f02 6bbe
00000200: 6ffd fbbd c3e3 21be 3776 9cbd a5e7 65bd
00000210: 9138 ce3c cde5 b33d 0db2 c3bc d910 113e
00000220: a9fe 6cbe 05b1 b73d 6217 6e3d f82f ddbd
00000230: 2840 debd 83f3 1abe b51e 113d f8dd 0dbd
00000240: bfa0 5ebd a5b8 d3bd acc6 22be 0cba 6cbe
00000250: cc05 cf3d f7a0 17be d046 96be c304 033e
00000260: d544 b13c 07fa 9fbd c791 5f3b f812 aabd
00000270: d2b0 83bd fd43 04be cd71 a33d 1e39 a8bd
00000280: fbca 013d 7532 1bbe 01ce 2cbe 2e12 15be
00000290: b48d 8dbd 720d eabd e287 763d cfb5 38be
000002a0: cfd6 cb3d 24cc 3fbd a64a 87bd 5a8b 59be
000002b0: fe3f ea3c 4707 c93d fa51 29be 2a92 19bd
000002c0: 75b4 4dbe 4a7e 103c a831 2ebe 321b 0f3c
000002d0: 9462 3c3d d460 773d d4ab 4c3d f140 583d
000002e0: 4ffb 29be a91a 94bd dd12 59be cd2b 84bd
000002f0: 32fb a3bd 633a ebbd f6f1 15be 42af f0bd
00000300: e84f 11be 8b47 26bd d855 f83d 478b 1f3e
00000310: 3a8c f3bd 315a 92bc 3955 a0bd 24ab 34be
00000320: b91c 1a3e 9881 2bbe 53d3 85be a0fd 493d
00000330: 0472 29be b336 393c 9e28 d73d 393b 3abe
00000340: 4c30 783c 9e27 f5bd 60e4 023d 4904 a53b
00000350: c90e 2cbe 19ea 933d 8820 14be eafc 7abd
00000360: 33a2 4c3d 0c93 4fbe dc3a c9bd 02d6 16be
00000370: 9bd9 e73c 9926 983d 6e6f 97bd 0658 2abe
00000380: 29c6 cdbd c45e edbd eb25 8cbd 878a 0cbe
00000390: 2051 33bc 4311 0fbe 5fdb 09be 8da8 013e
000003a0: 2c25 e9bc dae0 893c 8ad3 afbd 3ae1 ffbc
000003b0: 02e7 05bd e67d 34bd 3767 2fbe b6a8 4c3c
000003c0: 7149 31be 707d 7b3d 3252 833d 60ee 6f3d
000003d0: 1697 13bd 727c 7eba c613 23be 8bab 633d
000003e0: 620e 563d 1b81 3abe 963a 8cbc 1ef6 323d
000003f0: 1ce4 efbd f1ce 2abe ba0c 2cbc 2397 f23d

sequential/conv2d/Conv2D f4 [32, 3, 3, 3]
0.0154949995 -0.025480881 0.09551017 0.036599435 -0.1426247 0.09737985 -0.08668731 -0.015482142
-0.14643489 -0.070944846 -0.14322917 0.093257 0.060568985 -0.09720192 -0.08134146 -0.044787906
-0.0018171079 0.049566887 0.06654189 -0.11525627 0.028722998 0.09813355 -0.025498565 -0.023795532
0.11221446 0.12094941 0.06553742 -0.03608571 -0.045490667 -0.1075145 0.07926959 -0.07533381
-0.1828493 -0.057285137 -0.0005274617 -0.059181906 0.0975163 0.1206713 -0.062539846 -0.09690848
0.017535646 -0.13994011 -0.051751774 0.050204307 -0.16550168 0.01437572 0.10261711 0.10374725
0.16737148 0.16311935 -0.14772105 0.038000617 -0.046286445 -0.12635581 -0.1249848 -0.02969902
-0.02126599 0.013686483 0.05402434 -0.035190072 0.047437698 -0.12120543 0.05110098 -0.17677613
-0.08435498 -0.11023798 -0.13542345 -0.055646107 -0.11072871 0.062262412 0.124472156 -0.03786183
0.116571106 -0.0057983613 0.13701367 0.16549794 0.17468484 0.07379613 0.044360217 -0.065325275
0.16191818 -0.05887772 0.09445523 0.040941015 -0.10406507 0.04280163 -0.09375977 0.026447136
-0.019158421 -0.16539623 -0.10574225 0.11999165 0.13409927 -0.16764352 -0.014590468 -0.0061294255
0.010146468 0.09984242 0.055136196 -0.07359731 0.17119342 0.07563811 -0.0576428 -0.055979654
0.1199259 -0.16736028 -0.13308322 0.05577159 -0.1398465 0.09467654 -0.12000312 -0.00029310267
0.098455094 -0.15897706 -0.07521403 -0.15373509 -0.20355742 -0.05391556 0.13320819 0.15026791
-0.0098084835 -0.06329907 0.021377556 -0.06682817 -0.10184299 0.095180936 -0.07990371 0.14936802
0.03212189 -0.059366588 0.17545989 0.11989882 -0.03749952 0.1296202 0.19192407 0.0070419693
-0.017258199 -0.081574745 0.033760615 0.10378661 -0.014516974 0.053201884 0.14721397 0.13493456
-0.17003606 -0.03868664 -0.07553535 0.09645475 0.05477966 -0.070615426 -0.046645943 0.18859649
-0.06771472 -0.021816222 -0.1632456 -0.08002976 0.035379924 0.07928998 -0.19278245 -0.0072307712
0.14712195 0.0046006166 -0.05805639 0.11402142 -0.054199807 0.044534214 -0.06701383 -0.05688243
0.12998994 0.110361226 -0.08886606 -0.051291592 -0.05026309 0.06166613 0.013059818 0.052930336
-0.07159413 -0.0421351 -0.0387905 -0.13061342 -0.09507683 -0.12356283 -0.14321378 -0.09709725
0.1509638 -0.010598526 0.1413389 0.012016529 0.15773086 -0.0768598 -0.12179249 -0.052967776
0.039441198 -0.012357234 0.034220733 -0.16091378 -0.009999097 -0.06824944 -0.17587873 -0.081464574
-0.007477934 -0.07616334 0.06847024 -0.16669068 -0.13334996 -0.13163953 -0.057935447 -0.17505027
-0.102468155 0.1005929 0.09145739 0.028983483 0.12866087 0.011952032 0.096115574 0.07502357
0.08917062 -0.035179596 0.04842655 -0.10720233 0.1909674 0.038613223 0.00031054876 -0.00091599737
0.06943967 -0.02233194 -0.07248798 -0.050989766 -0.08172335 0.013005869 -0.009888129 -0.003038086
0.14235152 0.08049007 -0.07423145 -0.10676596 -0.16320199 -0.03305717 0.106536314 0.014492833
-0.0071550356 0.16606583 0.1754442 0.049833592 -0.040446643 -0.24102633 0.103274636 -0.07946498
0.028042069 -0.087721206 -0.17079413 0.051931344 0.006799883 -0.10503089 -0.11751634 0.16140871
00000000: bdde 7d3c 48bd d0bc d69a c33d 4ae9 153d
00000010: 360c 12be 166f c73d 1e89 b1bd cfa8 7dbc
00000020: 07f3 15be 884b 91bd abaa 12be 87fd be3d
00000030: 2f17 783d cd11 c7bd 5a96 a6bd 8673 37bd
00000040: 062c eeba a606 4b3d 1d47 883d 7b0b ecbd
00000050: 7e4c eb3c 3efa c83d 5ee2 d0bc d9ee c2bc
00000060: b2d0 e53d 53b4 f73d 7c38 863d 9cce 13bd
00000070: 6c54 3abd 9030 dcbd 1858 a23d 9d48 9abd
00000080: d93c 3bbe d2a3 6abd 5b45 0aba ba68 72bd
00000090: a0b6 c73d 8422 f73d e414 80bd f477 c6bd
000000a0: eaa6 8f3c 764c 0fbe abf9 53bd 08a3 4d3d
000000b0: 4679 29be 2488 6b3c eb28 d23d 7079 d43d
000000c0: 6e63 2b3e c208 273e 3044 17be 89a6 1b3d
000000d0: db96 3dbd 6b63 01be 08f8 ffbd 5c4b f3bc
000000e0: 0336 aebc 453d 603c a048 5d3d 7723 10bd
000000f0: 084e 423d 8d3a f8bd 434f 513d cd04 35be
00000100: 4ec2 acbd 73c4 e1bd 72ac 0abe 2ced 63bd
00000110: bcc5 e2bd df06 7f3d 42eb fe3d 0215 1bbd
00000120: d5bc ee3d 2e00 bebb 504d 0c3e 4b78 293e
00000130: 95e0 323e 6d22 973d 0fb3 353d 42c9 85bd
00000140: e1cd 253e c429 71bd be71 c13d c4b1 273d
00000150: 1120 d5bd c350 2f3d 1f05 c0bd aaa7 d83c
00000160: 1ff2 9cbc a15d 29be 658f d8bd 2fbe f53d
00000170: 5251 093e beaa 2bbe dc0c 6fbc 59d9 c8bb
00000180: 5f3d 263c 2f7a cc3d 7ed6 613d 30ba 96bd
00000190: 544d 2f3e 27e8 9a3d db1a 6cbd ec4a 65bd
000001a0: b69b f53d 7e60 2bbe f846 08be c070 643d
000001b0: ec33 0fbe c6e5 c13d 32c4 f5bd 93ab 99b9
000001c0: d3a2 c93d e2ca 22be d009 9abd bb6c 1dbe
000001d0: 5b71 50be 90d6 5cbd ba67 083e d5df 193e
000001e0: c3b3 20bc f1a2 81bd fc1f af3c 35dd 88bd
000001f0: 0f93 d0bd 39ee c23d 8ea4 a3bd eef3 183e
00000200: 3e92 033d 612a 73bd c2ab 333e 838d f53d
00000210: 1999 19bd 28bb 043e be87 443e 52c0 e63b
00000220: 1161 8dbc a910 a7bd 9248 0a3d 138e d43d
00000230: 9ad8 6dbc 38ea 593d 42bf 163e 492c 0a3e
00000240: ef1d 2ebe e275 1ebd 47b2 9abd 118a c53d
00000250: a360 603d d29e 90bd d10f 3fbd 701f 413e
00000260: 04ae 8abd efb7 b2bc db29 27be a5e6 a3bd
00000270: 8aea 103d c962 a23d c368 45be 1bf0 ecbb
00000280: 23a7 163e c5c0 963b 8acc 6dbd 1084 e93d
00000290: 9e00 5ebd 8269 363d 8c3e 89bd 8dfd 68bd
000002a0: 151c 053e 1105 e23d 69ff b5bd 2217 52bd
000002b0: abe0 4dbd a095 7c3d d9f8 553c 7bcd 583d
000002c0: f19f 92bd db95 2cbd cae2 1ebd 86bf 05be
000002d0: a4b7 c2bd 820e fdbd a2a6 12be ecda c6bd
000002e0: 4196 1a3e 71a5 2dbc 25bb 103e fae0 443c
000002f0: 3384 213e ac68 9dbd 576e f9bd bdf4 58bd
00000300: 188d 213d ff75 4abc 0a2b 0c3d 95c6 24be
00000310: 41d3 23bc 5dc6 8bbd 8e19 34be e6d6 a6bd
00000320: 7509 f5bb 86fb 9bbd 203a 8c3d f6b0 2abe
00000330: e48c 08be 83cc 06be b84d 6dbd 6140 33be
00000340: d3da d1bd a603 ce3d 034e bb3d c56e ed3c
00000350: adbf 033e 75d2 433c 3ed8 c43d f5a5 993d
00000360: 169f b63d 7b18 10bd eb5a 463d e58c dbbd
00000370: f58c 433e e628 1e3d 26d1 a239 8b1f 70ba
00000380: 6336 8e3d 79f1 b6bc 9474 94bd a5da 50bd
00000390: 925e a7bd 9216 553c d201 22bc a01a 47bb
000003a0: 99c4 113e fad7 a43d a906 98bd 1da8 dabd
000003b0: 6c1e 27be f566 07bd b62f da3d 5973 6d3c
000003c0: ca74 eabb 290d 2a3e a5a7 333e 4f1e 4c3d
000003d0: 61ab 25bd 9bcf 76be a781 d33d 89be a2bd
000003e0: 7bb8 e53c 2da7 b3bd a8e4 2ebe f6b5 543d
000003f0: 8ed1 de3b 6f1a d7bd 68ac f0bd 5348 253e

sequential/conv2d_1/Conv2D f4 [32, 3, 3, 32]
-0.07811109 -0.1534846 0.010556394 -0.016806938 -0.0066236584 0.03528493 -0.079504766 0.032146085
0.031939 0.010934182 0.0078654 0.14154167 0.10592362 -0.00597485 0.038388696 -0.008270228
-0.027810398 -0.041206945 0.09994102 -0.10979458 -0.076080635 0.049805313 -0.08407281 0.02349388
-0.0050798203 -0.022411931 -0.13635178 -0.032151364 -0.05757401 -0.010234516 -0.033631153 0.017468957
0.059440326 0.0016640703 -0.099401094 0.109307684 0.11701233 -0.027122285 0.021573843 0.05343382
0.11727728 -0.017444352 -0.07647172 -0.073321566 0.01983936 -0.024730345 -0.11768215 -0.031879198
0.13209328 0.16148856 -0.0029075488 -0.03902476 -0.12329419 -0.01459064 0.042909082 -0.11366158
0.007744843 -0.11353076 -0.042843148 0.12394463 0.048387147 0.04208216 0.004815692 0.016107708
-0.014590436 0.062282033 -0.030830307 0.10027093 0.053759463 -0.14480542 -0.14482063 -0.13064091
-0.030469159 -0.04972937 -0.013685137 0.05267966 0.1416637 -0.05242577 0.028399339 -0.04098144
-0.035345674 0.09943143 0.16252163 0.044819158 -0.08521304 -0.086215675 0.017447604 -0.09722408
0.03182559 -0.025399188 -0.06741361 0.047974877 -0.028433863 0.06473041 0.14816576 0.05723966
0.076209806 0.05081136 -0.14416583 -0.00022587435 -0.111113146 -0.01820484 -0.089933254 -0.12036238
0.073298275 -0.046923947 -0.09805286 0.05115565 -0.08000987 -0.10378625 0.043985683 0.08135622
-0.09766595 -0.05289025 0.055052668 0.031783435 0.04034378 0.088461265 -0.14894159 -0.024376804
0.017927486 -0.025272485 -0.098445594 -0.12841915 -0.09100894 -0.110042356 -0.15311317 -0.09891339
-0.04772485 -0.16993485 -0.06787887 0.047055267 -0.07004063 -0.004731903 0.020819956 -0.13398682
0.12427217 -0.07514248 0.04187791 -0.05169334 0.034484524 0.10435242 -0.109096184 0.005947561
0.017575657 0.007559727 0.027628979 -0.042223375 0.04285251 0.09281436 -0.028711623 0.052264567
0.1153444 0.008475158 -0.10779909 0.033041555 0.06128473 -0.0032910863 0.012643351 -0.0017708761
0.13097213 -0.06556205 -0.118381284 0.114666685 0.07393103 0.053061586 -0.04035979 -0.17242475
0.12267952 0.0021104978 0.04556134 -0.011447107 -0.004857722 0.0386423 -0.01940595 -0.15646684
0.07864189 0.104281075 0.12278998 0.05796663 -0.09450265 0.058643166 0.03519482 -0.08917855
0.091371864 -0.043299798 -0.23629968 0.04878086 -0.025282288 0.05710949 -0.0006253364 -0.041727107
-0.03370132 -0.06912382 0.0076498548 -0.04971766 0.08252132 -0.15839198 0.04567592 -0.043707088
-0.039086774 0.048014022 -0.13213192 0.054384146 0.01748335 -0.04397427 0.015758893 -0.056469366
-0.07039376 -0.076918215 0.12203661 -0.037421945 0.026714938 -0.070654646 -0.10969028 -0.09869275
0.037453376 0.08567258 -0.11723562 -0.14996068 -0.13210545 0.079063356 -0.11183688 0.048623137
0.040511277 -0.1268573 0.107185505 -0.08952224 0.026710529 -0.031822227 0.00089034776 -0.07318087
0.044757914 -0.07661047 -0.023980869 -0.045658372 0.048907965 0.06772246 -0.09344651 0.022324536
0.09381119 -0.111211985 0.04183452 0.04170138 0.045659497 0.08359963 -0.007231188 -0.036980595
0.08550833 -0.09036308 -0.100306086 0.0048583173 0.059570868 0.013529322 -0.09270565 -0.027848238
00000000: b5f8 9fbd 112b 1dbe baf4 2c3c b4ae 89bc
00000010: 460b d9bb ee86 103d 65d3 a2bd 9dab 033d
00000020: 78d2 023d 4925 333c e1dd 003c 4df0 103e
00000030: 7cee d83d adc8 c3bb 773d 1d3d da7f 07bc
00000040: a2d2 e3bc 9dc8 28bd e1ad cc3d fbdb e0bd
00000050: 2ad0 9bbd a800 4c3d 5e2e acbd 3d76 c03c
00000060: 9f74 a6bb 3a99 b7bc cd9f 0bbe 26b1 03bd
00000070: bad2 6bbd acae 27bc d2c0 09bd 0f1b 8f3c
00000080: b377 733d ef1c da3a cd92 cbbd b5dc df3d
00000090: 29a4 ef3d 8e2f debc a1bb b03c 6cdd 5a3d
000000a0: 122f f03d 75e7 8ebc 359d 9cbd 9e29 96bd
000000b0: 2786 a23c 4b97 cabc 5703 f1bd c393 02bd
000000c0: 7643 073e 425d 253e 938c 3ebb 6dd8 1fbd
000000d0: aa81 fcbd 940d 6fbc 6fc1 2f3d 67c7 e8bd
000000e0: 74c8 fd3b d182 e8bd 4c7c 2fbd afd6 fd3d
000000f0: 9a31 463d 585e 2c3d f4cc 9d3b 50f4 833c
00000100: b90c 6fbc 721b 7f3d d78f fcbc d85a cd3d
00000110: e232 5c3d df47 14be dc4b 14be bbc6 05be
00000120: 759a f9bc 06b1 4bbd a037 60bc a1c6 573d
00000130: 4a10 113e 67bc 56bd bba5 e83c 28dc 27bd
00000140: a0c6 10bd b5a2 cb3d 126c 263e 4b94 373d
00000150: 2d84 aebd d891 b0bd 47ee 8e3c 6b1d c7bd
00000160: 8d5b 023d f511 d0bc 2610 8abd 4e81 443d
00000170: 22ee e8bc 6191 843d c4b8 173e 2274 6a3d
00000180: e313 9c3d 931f 503d 35a0 13be afd8 6cb9
00000190: 4a8f e3bd 5122 95bc ed2e b8bd 8d80 f6bd
000001a0: 681d 963d 5333 40bd f0cf c8bd 9688 513d
000001b0: 37dc a3bd e38d d4bd 552a 343d 179e a63d
000001c0: 1605 c8bd 72a3 58bd e87e 613d 592f 023d
000001d0: 853f 253d 2e2b b53d 2584 18be ddb1 c7bc
000001e0: aadc 923c 3e08 cfbc d89d c9bd 4f80 03be
000001f0: e562 babd e35d e1bd b3c9 1cbe 1a93 cabd
00000200: 227b 43bd 6703 2ebe 1404 8bbd 06bd 403d
00000210: 7671 8fbd 140e 9bbb 9d8e aa3c d733 09be
00000220: 6882 fe3d 4de4 99bd 2c88 2b3d 65bc 53bd
00000230: a53f 0d3d b9b6 d53d d26d dfbd c2e3 c23b
00000240: d3fa 8f3c 96b7 f73b 2b56 e23c 6bf2 2cbd
00000250: 1d86 2f3d 7515 be3d a334 ebbc 5f13 563d
00000260: af39 ec3d 64db 0a3c c5c5 dcbd 9556 073d
00000270: b205 7b3d 44af 57bb 0f26 4f3c be1c e8ba
00000280: 8f1d 063e 6545 86bd e371 f2bd 5ed6 ea3d
00000290: 2769 973d 1b57 593d 4f50 25bd 1d90 30be
000002a0: 663f fb3d 4750 0a3b 879e 3a3d a68c 3bbc
000002b0: 872d 9fbb 6347 1e3d 3af9 9ebc d838 20be
000002c0: 000f a13d 5191 d53d 5079 fb3d 6b6e 6d3d
000002d0: 9b8a c1bd d133 703d 7228 103d 3ea3 b6bd
000002e0: 2c21 bb3d 215b 31bd 8bf8 71be 70ce 473d
000002f0: cd1c cfbc a4eb 693d 9eed 23ba 0bea 2abd
00000300: 650a 0abd ca90 8dbd a2ab fa3b bfa4 4bbd
00000310: f000 a93d 8231 22be ac16 3b3d 3406 33bd
00000320: 7419 20bd 5aaa 443d 974d 07be e9c1 5e3d
00000330: 3e39 8f3c 5d1e 34bd cb18 813c 6c4c 67bd
00000340: 9b2a 90bd 4c87 9dbd 55ee f93d c147 19bd
00000350: 49d9 da3c 62b3 90bd 4ca5 e0bd 6d1f cabd
00000360: b668 193d 1b75 af3d 3b19 f0bd 4b8f 19be
00000370: a746 07be f8eb a13d bc0a e5bd 0e29 473d
00000380: 27ef 253d e1e6 01be 1384 db3d 7057 b7bd
00000390: 0ad0 da3c 0658 02bd 3a66 693a dadf 95bd
000003a0: 1354 373d f3e5 9cbd 8773 c4bc 4604 3bbd
000003b0: b853 483d 13b2 8a3d e260 bfbd f2e1 b63c
000003c0: 1520 c03d 1cc3 e3bd ac5a 2b3d 11cf 2a3d
000003d0: 7405 3b3d 4836 ab3d 9af3 ecbb f778 17bd
000003e0: fe1e af3d 4710 b9bd 476d cdbd 8532 9f3b
000003f0: 9500 743d 17aa 5d3c 76dc bdbd fd21 e4bc

sequential/conv2d_2/Conv2D f4 [32, 3, 3, 32]
-0.14514293 0.10594263 -0.008892861 -0.014982414 0.03563792 0.0766401 0.020460924 0.067246206
0.03331302 0.11705341 -0.10391027 0.0020512957 -0.034169428 0.051566802 -0.039739374 0.019097652
-0.020277282 0.09708071 -0.028643113 -0.039692633 0.09154756 -0.003600861 0.053098485 0.02813869
0.10591253 -0.05157 0.021836378 0.10224507 -0.11431362 -0.054172367 -0.020170039 -0.058863994
-0.06442338 0.071218416 0.09363088 0.017794209 0.009160479 -0.050069083 0.08522985 0.16599001
0.09067387 0.030177753 -0.07477905 -0.09216205 -0.05502607 -0.12859054 -0.10374752 0.0784718
-0.07367785 0.015678946 -0.06071422 -0.035873037 0.036476485 -0.07431745 -0.09621687 -0.16718861
0.11346984 0.058387883 -0.0032933552 -0.051952794 0.08829637 0.07570318 -0.010232822 0.09439391
0.08965724 -0.015241161 -0.09450714 0.04490576 0.093508296 0.10023162 -0.049621314 -0.010761036
0.0064647035 0.03904434 -0.0060750837 -0.020279568 0.14408413 0.006522356 0.03207553 -0.007858147
0.12688673 -0.042888124 -0.017928502 -0.0484704 0.07969249 0.104529634 0.02716636 0.021495422
0.14811033 -0.035234615 0.10352574 0.020265905 -0.025957303 -0.02913022 0.17185628 -0.02044761
0.001411374 -0.014330045 -0.007974985 0.0010707133 0.10211106 0.12097842 0.015188271 0.05133887
0.0017014957 -0.053579316 -0.057365965 -0.08478912 -0.030630568 -0.08448726 0.13697714 -0.049296148
0.06895742 -0.013917122 -0.07842728 -0.017191624 0.04910262 -0.032506075 0.056260735 -0.060045697
0.053375673 -0.10349298 -0.1264863 -0.10776552 0.053771485 0.1008377 -0.07926537 0.037604183
0.0121345185 0.13936552 0.055698045 0.0807133 -0.028397301 -0.025862651 0.08366684 -0.042485844
-0.14979498 -0.028529696 0.018495182 -0.0621627 -0.0011955273 0.0255833 0.040987417 0.06781882
-0.16616073 0.0525567 0.10597704 -0.1538814 0.011301536 0.0673126 0.017200548 -0.11244125
0.10355673 0.07343384 -0.010400066 0.07252351 -0.010369178 0.027967274 -0.07324513 0.0161104
0.18457356 -0.035307452 -0.08033801 -0.067073435 -0.09785648 -0.019600548 -0.03628948 0.107489906
0.037246227 -0.10443342 0.055826314 -0.01901103 0.038120795 0.05234985 0.01527955 0.010974357
0.04911253 0.0002257565 -0.043519743 -0.08241965 0.059548423 0.022799484 -0.047150627 0.1167225
0.21328047 0.00356788 0.096683934 -0.01922493 0.06814229 -0.072916225 0.07218112 0.013791233
0.007355125 0.0065434906 -0.025541998 -0.02407163 -0.014195589 -0.04055934 -0.12021538 0.05791676
-0.005147002 -0.061905704 0.012012068 -0.04763435 -0.09713129 -0.03215775 0.014769734 0.04152678
0.13984786 -0.14399481 -0.11710521 0.04282611 -0.027000504 -0.019048233 -0.11474427 0.08269546
0.08626227 0.049002804 0.12503132 -0.026453089 -0.014208004 0.060773518 0.1686163 -0.08981147
0.053812116 0.055423092 -0.026597006 0.112578556 0.055125076 0.12737596 0.06244933 0.09542398
-0.014759996 -0.004716383 0.04019797 -0.104335025 0.024147071 -0.10337649 -0.0156037565 0.06913536
-0.07712744 0.024796205 0.07920634 0.009490915 -0.0035050495 0.00078107364 0.15376896 -0.013700731
0.03494019 -0.093118615 -0.09623259 0.038997434 -0.087209016 0.14714228 0.13104317 -0.010280389
00000000: 59a0 14be 73f8 d83d 5db3 11bc cd78 75bc
00000010: 11f9 113d 7cf5 9c3d ab9d a73c 61b8 893d
00000020: 3c73 083d b3b9 ef3d e8ce d4bd 086f 063b
00000030: 3ef5 0bbd b637 533d c1c5 22bd ae72 9c3c
00000040: 8b1c a6bc 40d2 c63d f6a4 eabc be94 22bd
00000050: 4a7d bb3d 6cfc 6bbb cc7d 593d 1c83 e63c
00000060: abe8 d83d 103b 53bd 34e2 b23c dd65 d13d
00000070: 421d eabd d8e3 5dbd a33b a5bc 5f1b 71bd
00000080: 68f0 83bd f6da 913d 8cc1 bf3d 29c5 913c
00000090: d515 163c 3d15 4dbd fd8c ae3d 49f9 293e
000000a0: 39b3 b93d 5637 f73c c225 99bd 75bf bcbd
000000b0: 0463 61bd 3dad 03be 9479 d4bd d3b5 a03d
000000c0: 6ae4 96bd 2271 803c 79af 78bd 9bef 12bd
000000d0: 5e68 153d bf33 98bd 5a0d c5bd 7e33 2bbe
000000e0: e062 e83d 2228 6f3d 55d5 57bb 74cc 54bd
000000f0: bad4 b43d 450a 9b3d 91a7 27bc 9851 c13d
00000100: 379e b73d 10b6 79bc f68c c1bd 1aef 373d
00000110: 4781 bf3d 3c46 cd3d b83f 4bbd 0e4f 30bc
00000120: ddd5 d33b f5ec 1f3d 7f11 c7bb 5621 a6bc
00000130: ca8a 133e 7db9 d53b a261 033d 75bf 00bc
00000140: 98ee 013e 75ab 2fbd cbde 92bc e688 46bd
00000150: d135 a33d a213 d63d fc8b de3c 2b17 b03c
00000160: 3caa 173e 2c52 10bd 4e05 d43d af04 a63c
00000170: 69a4 d4bc 80a2 eebc 18fb 2f3e bf81 a7bc
00000180: dafd b83a 91c8 6abc 83a9 02bc 2d57 8c3a
00000190: 9a1f d13d 89c3 f73d 3ad8 783c b548 523d
000001a0: b904 df3a fc75 5bbd 93f8 6abd eba5 adbd
000001b0: f5ec fabc a807 adbd bc43 0c3e c2ea 49bd
000001c0: 8c39 8d3d a404 64bc 7b9e a0bd 73d5 8cbc
000001d0: d41f 493d 1725 05bd a871 663d 7af2 75bd
000001e0: 73a0 5a3d 21f4 d3bd a085 01be 2bb4 dcbd
000001f0: 7d3f 5c3d ff83 ce3d e255 a2bd d806 1a3d
00000200: dccf 463c d6b5 0e3e a223 643d 044d a53d
00000210: 75a1 e8bc e9dd d3bc 8559 ab3d a305 2ebd
00000220: db63 19be 1cb7 e9bc 3583 973c 519e 7ebd
00000230: 3db3 9cba 1294 d13c 6ce2 273d 98e4 8a3d
00000240: 0a26 2abe b245 573d 7e0a d93d 1693 1dbe
00000250: 142a 393c 30db 893d 2ae8 8c3c 9947 e6bd
00000260: 8d15 d43d 7b64 963d 0a65 2abc 3587 943d
00000270: 7ce3 29bc a01b e53c 8b01 96bd f5f9 833c
00000280: da00 3d3e 8c9e 10bd 4188 a4bd cc5d 89bd
00000290: fa68 c8bd 5491 a0bc 47a4 14bd ab23 dc3d
000002a0: 808f 183d 30e1 d5bd 22aa 643d 05bd 9bbc
000002b0: 8d24 1c3d cc6c 563d 1457 7a3c cacd 333c
000002c0: 382a 493d 0db9 6c39 c241 32bd a2cb a8bd
000002d0: 0ce9 733d fcc5 ba3c 0421 41bd 350c ef3d
000002e0: 3266 5a3e 18d3 693b 3a02 c63d 9a7d 9dbc
000002f0: 2f8e 8b3d 1a55 95bd b2d3 933d a0f4 613c
00000300: 4303 f13b c76a d63b 743d d1bc de31 c5bc
00000310: 9e94 68bc 8d21 26bd 7b33 f6bd 203a 6d3d
00000320: 2fa8 a8bb d690 7dbd 44ce 443c 3c1c 43bd
00000330: c5ec c6bd d8b7 03bd c1fc 713c fc17 2a3d
00000340: 4734 0f3e 6073 13be dbd4 efbd 6e6a 2f3d
00000350: 2930 ddbc 0a0b 9cbc 0bff eabd 3d5c a93d
00000360: 46aa b03d 2ab7 483d 3608 003e 26b4 d8bc
00000370: b0c8 68bc a7ed 783d c0a9 2c3e 13ef b7bd
00000380: 186a 5c3d 5303 633d f7e1 d9bc 968f e63d
00000390: d5ca 613d d86e 023e deca 7f3d a66d c33d
000003a0: e9d3 71bc e38b 9abb a0a6 243d 9aad d5bd
000003b0: 14d0 c53c 0eb7 d3bd e6a6 7fbc d796 8d3d
000003c0: fef4 9dbd 6921 cb3c ef36 a23d c87f 1b3c
000003d0: f9b4 65bb f7c0 4c3a 9c75 1d3e 0879 60bc
000003e0: 721d 0f3d f9b4 bebd 9815 c5bd c6bb 1f3d
000003f0: a49a b2bd 77ac 163e 2e30 063e 146f 28bc

sequential/conv2d_1/BiasAdd;sequential/conv2d_2/Conv2D;sequential/conv2d_1/Conv2D;sequential/conv2d_1/BiasAdd/ReadVariableOp/resource f4 [32]
-0.014708174 -0.014484182 -0.0043546967 -0.03240305 -0.04679068 -0.0023191115 0.004185946 -0.004058934
-0.017163418 -0.0031140742 0.08470523 0.0138567975 -0.016329119 -0.005102802 -0.08952711 0.014162691
0.035515957 0.009986005 -0.004640419 -0.002103326 0.0441861 -0.027026819 -0.029966153 -0.015534793
0.02828517 -0.02264814 0.036428854 0.019399079 0.0062206886 0.015757337 -0.02165156 -0.037644703
00000000: 8efa 70bc 104f 6dbc d8b1 8ebb 10b9 04bd
00000010: 96a7 3fbd 3cfc 17bb 432a 893b ce00 85bb
00000020: 4c9a 8cbc 7f15 4cbb f079 ad3d 9f07 633c
00000030: a5c4 85bc 6835 a7bb fd59 b7bd a20a 683c
00000040: 2e79 113d 579c 233c a80e 98bb f4d7 09bb
00000050: 7cfc 343d 5967 ddbc 947b f5bc a585 7ebc
00000060: 4db6 e73c 9888 b9bc 6c36 153d d1ea 9e3c
00000070: ebd6 cb3b 8815 813c 9d5e b1bc 5531 1abd

sequential/conv2d_2/BiasAdd;sequential/conv2d_2/Conv2D;sequential/conv2d_2/BiasAdd/ReadVariableOp/resource f4 [32]
-0.06537359 -0.036337253 -0.057915434 -0.019228157 -0.04459669 -0.03497763 -0.035664454 -0.077986754
-0.014213657 -0.041966815 -0.061093558 -0.026078725 -0.049254067 -0.037785936 -0.053939227 -0.041925956
-0.039071202 -0.05871325 -0.056941736 -0.059088286 -0.080000676 -0.027224096 -0.07095099 -0.08476878
-0.08907262 -0.04604809 -0.067484 -0.026696952 -0.0040567745 -0.038826965 -0.04278919 -0.10518091
00000000: 97e2 85bd 5fd6 14bd bc38 6dbd 5e84 9dbc
00000010: 05ab 36bd b444 0fbd e414 12bd 85b7 9fbd
00000020: 66e0 68bc 65e5 2bbd 3d3d 7abd 0da3 d5bc
00000030: a2be 49bd 6dc5 1abd 61ef 5cbd 8dba 2bbd
00000040: 2009 20bd 4e7d 70bd bd3b 69bd 8f06 72bd
00000050: 65d7 a3bd 1105 dfbc c14e 91bd 419b adbd
00000060: b56b b6bd ec9c 3cbd 0d35 8abd 91b3 dabc
00000070: b1ee 84bb 0609 1fbd b843 2fbd 1769 d7bd
