dig_bk_v3.tflite (tflite, 219388 bytes, 12 tensors)

sequential/conv2d/BiasAdd/ReadVariableOp/resource f4 [32]
0	0xbc09dce4	-0.008414481
1	0xbcaf69fd	-0.021412844
2	0xbcf57867	-0.029964639
3	0x3d387be3	0.045040023
4	0xbd125a0e	-0.035730414
5	0x3d2c612d	0.04208486
6	0xbc7ee375	-0.01555716
7	0xbd39ff2a	-0.04540936
8	0x3d2002db	0.039065223
9	0x3d7f4bec	0.062328264
10	0xbb9d30d6	-0.0047970815
11	0xbceee263	-0.029160684
12	0xbccc1919	-0.024914311
13	0x3bcec2b1	0.00630983
14	0x3dba498e	0.09096061
15	0x3b8b2a8d	0.004247016
16	0x3cb05c3e	0.02152836
17	0xbc983d5c	-0.018583946
18	0x3cc2dd07	0.023787035
19	0xbcd288e7	-0.025700046
20	0xbcc8aa17	-0.024495168
21	0xbd8c1009	-0.06838996
22	0x3c03ee90	0.008052483
23	0xbcabe0e2	-0.020981256
24	0xbca4a35b	-0.020097425
25	0xbbdf1fc0	-0.006809205
26	0xbd31ec31	-0.04343814
27	0x3b352336	0.0027639396
28	0x39f5b841	0.0004686732
29	0x3c826219	0.015915917
30	0x3bd78be2	0.0065779546
31	0x3b820488	0.0039678253

sequential/dense/BiasAdd/ReadVariableOp/resource f4 [128]
0	0x3d22b8d8	0.039727062
1	0xbc55657e	-0.013024686
2	0xb9917f37	-0.00027751338
3	0x3c7d9300	0.015476942
4	0x3bd71956	0.0065642996
5	0xbb055bc1	-0.002034888
6	0x3bae193c	0.0053130668
7	0x3cf0af5b	0.029380491
8	0xbbf9849c	-0.007614685
9	0xbc149dc3	-0.009070816
10	0x3c230954	0.0099509545
11	0x3ccb552f	0.024820892
12	0x3d097778	0.0335612
13	0x3c01020c	0.007874023
14	0x3c31acb0	0.010844395
15	0x3c696690	0.014245644
16	0xbcbe759a	-0.023249436
17	0xbcb4064f	-0.021975664
18	0x3c0f66fa	0.008752579
19	0xbc5d985d	-0.013525096
20	0xbc5ec255	-0.013596137
21	0x3c71f035	0.0147667425
22	0xbbdf335e	-0.0068115434
23	0x3c830e93	0.01599816
24	0xbbab3dc0	-0.005225867
25	0x3ca0839c	0.019594006
26	0xbb43dfa1	-0.0029887932
27	0x3c498565	0.01229987
28	0x3c5c5be4	0.013449643
29	0x3d13e4e0	0.036106944
30	0x3c101257	0.008793435
31	0xba91f7e5	-0.00111365
32	0x3c6ff193	0.014644998
33	0x3d067afb	0.032832127
34	0xbcb71196	-0.022347253
35	0x3d04fa0b	0.032465022
36	0xbc8b66dd	-0.017016822
37	0x3bf2fa83	0.007415117
38	0x3b7bc48e	0.0038416716
39	0xbcf71b7b	-0.03016447
40	0x3c025778	0.0079554245
41	0x3ce64313	0.028108155
42	0x3a295776	0.0006459871
43	0x3cc33c0d	0.023832345
44	0x3c8e237b	0.017350903
45	0xbc6d3253	-0.01447733
46	0x3a51a0c4	0.0007996673
47	0xbc60eede	-0.013728825
48	0x3b2fb157	0.0026808584
49	0xbac44f99	-0.0014977335
50	0x3c3e67f8	0.011621468
51	0xbc80cbbb	-0.015722146
52	0xba019d25	-0.0004944376
53	0xbcdca485	-0.026933918
54	0xbc9a318d	-0.018822456
55	0x3ce634c6	0.028101336
56	0xbc846e6d	-0.016165936
57	0xbc62afb5	-0.013835837
58	0x3b98ce86	0.0046632914
59	0xba9bbae5	-0.001188126
60	0x3cd9f5e9	0.026606517
61	0xbbdce364	-0.0067409743
62	0x3cc52e73	0.02407
63	0xbc5f1e04	-0.013617996
64	0xbcc001a5	-0.023438284
65	0x3c47b146	0.012188261
66	0xbcb2f985	-0.021847496
67	0xbc114e82	-0.008868815
68	0x3baf45ac	0.0053488817
69	0x3d5688ea	0.052376665
70	0x3d183090	0.037155688
71	0xbbb8718d	-0.0056287707
72	0xbceac19f	-0.028656779
73	0x3a31f5c4	0.0006788636
74	0xbc67781d	-0.014127758
75	0x3cca835c	0.02472084
76	0xbc956a01	-0.018239023
77	0xbce85b17	-0.028363748
78	0xbd26161b	-0.040548425
79	0xbb1140ca	-0.0022163861
80	0x3cc37c7e	0.023863073
81	0x3a2dde45	0.0006632547
82	0xbc9d335f	-0.019189535
83	0x3c89fb23	0.016843384
84	0x3ba0e477	0.0049100476
85	0xbcab7cb1	-0.020933481
86	0x3d1bd8d8	0.038048595
87	0x3ba86021	0.0051384126
88	0x3ce2700f	0.027641324
89	0xbcbdf064	-0.023185916
90	0xbba4ac60	-0.0050254315
91	0x3b8389bd	0.0040142224
92	0x3b72f7ea	0.0037074038
93	0x3cd32871	0.02577612
94	0x3c1c3510	0.009534135
95	0xbc84e735	-0.01622353
96	0xbc7fd32f	-0.015614315
97	0x3b059b79	0.0020386858
98	0xbcf30698	-0.02966623
99	0x3c0a5773	0.008443701
100	0x3c780c43	0.015139642
101	0x39a22447	0.00030926077
102	0x3c09c4dd	0.008408752
103	0xbcb317eb	-0.02186199
104	0xbd14c625	-0.036321778
105	0xbd76a3c6	-0.06021478
106	0x3ae809f0	0.0017703157
107	0xbc4a71bd	-0.012356219
108	0xbcbd5f4b	-0.023116728
109	0x3b20c6ee	0.0024532634
110	0x3cfe9d90	0.031080991
111	0xbc762f87	-0.01502598
112	0x3cc6de32	0.024275873
113	0xbbbe58e4	-0.0058089364
114	0x3c75a965	0.014994
115	0xbc47ddb7	-0.012198857
116	0xbcc4cf19	-0.024024533
117	0x3c4abcc6	0.012374109
118	0xbc93ad05	-0.018026838
119	0xbbb30b3d	-0.005463986
120	0x3a97551b	0.0011545749
121	0x3d1bd1ed	0.038041998
122	0xbbad4fb1	-0.005289041
123	0xbc90137c	-0.017587416
124	0x3c0a7768	0.00845132
125	0x3cc28a8b	0.023747703
126	0x3c2357c6	0.009969657
127	0xbc8d4547	-0.017244948

sequential/dense_1/BiasAdd/ReadVariableOp/resource f4 [11]
0	0xbd1e16a9	-0.03859583
1	0xbd1bffe0	-0.03808582
2	0xbcb9841d	-0.022646004
3	0xbc82e2ac	-0.015977226
4	0xbcb506a9	-0.022097902
5	0x3b285e32	0.002569091
6	0xbd315331	-0.043292228
7	0x3c4c61c8	0.012474485
8	0xbce881d0	-0.028382212
9	0x3c81ecc3	0.015859967
10	0xbd9e3aae	-0.07726036

sequential/batch_normalization/FusedBatchNormV3 f4 [3]
0	0xc019e286	-2.404451
1	0xbfbc4b03	-1.4710392
2	0xbfa5a19c	-1.2939944

sequential/batch_normalization/FusedBatchNormV31 f4 [3]
0	0x3c916a8a	0.017750997
1	0x3c99316c	0.018700324
2	0x3ca98d27	0.02069719

sequential/dense/MatMul f4 [128, 256]
0	0x3dc756eb	0.09733375
1	0x3da65f22	0.08123614
2	0x3b58bfce	0.003307331
3	0x3deed53b	0.11661764
4	0x3d833a8f	0.064076535
5	0x3d95e71a	0.0731947
6	0xbcbed72a	-0.023295958
7	0x3da53882	0.08067419
8	0x3d06fc18	0.03295526
9	0x3e00b54d	0.12569161
10	0x3c1778cc	0.009245109
11	0x3d6bf1d4	0.057603672
12	0x3be74b69	0.00705855
13	0xbdeac4b7	-0.11463302
14	0x3c66b146	0.014080351
15	0x3e0ca5fd	0.13735195
16	0xbcd0a93e	-0.025471326
17	0x3ccded12	0.025137458
18	0x3d9ee172	0.07757844
19	0x3e00792f	0.12546228
20	0x3cee1a92	0.029065404
21	0xbcb34009	-0.02188112
22	0x3dd68bce	0.104758844
23	0xbd8ad483	-0.06778815
24	0xbcfc6811	-0.030811341
25	0xbdc228e4	-0.094804555
26	0x3d88d9ad	0.06682143
27	0xbd376184	-0.044770733
28	0xbe02c6d1	-0.12771155
29	0x3dc6b52e	0.09702526
30	0xbd50e9cf	-0.051004227
31	0x3d8c857d	0.06861398
32	0xbb5c54ee	-0.0033619958
33	0x3dce2366	0.100653455
34	0x3ddf99a1	0.10917974
35	0x3de010ee	0.10940729
36	0xbcee16a7	-0.029063536
37	0xbccb863c	-0.024844281
38	0xbd8d5370	-0.0690068
39	0x3c8a12a7	0.016854597
40	0x3d118fb9	0.035537455
41	0xbde30dd5	-0.110866226
42	0x3c4fe78e	0.012689484
43	0xbddd57e0	-0.108077765
44	0xbd9735af	-0.07383286
45	0x3d71667f	0.05893564
46	0xbce3f35b	-0.027826002
47	0x3c6f65ea	0.014611701
48	0xbdda31e3	-0.106540464
49	0x3d34fe73	0.044187974
50	0x3dad7db5	0.08471242
51	0xbd6c4f83	-0.057693016
52	0xbe106136	-0.14099583
53	0x3d198428	0.03747955
54	0xbdc5773b	-0.09641882
55	0xbc6d9da2	-0.014502915
56	0xbd645306	-0.05574324
57	0x3bd390ee	0.006456486
58	0xbd3f7d98	-0.046750635
59	0xbddf7d5b	-0.109125815
60	0xbd86f315	-0.06589333
61	0xbd63305b	-0.055466037
62	0x3d4caace	0.04996758
63	0x3d91b720	0.071150064
64	0x3b885715	0.0041607716
65	0x3dfb8355	0.12280909
66	0x3d121bdc	0.0356711
67	0xbca05cad	-0.019575441
68	0x3d641980	0.05568838
69	0x3df64a2d	0.12025867
70	0xbd842e3d	-0.06454132
71	0x3bd5772a	0.0065144496
72	0xbc6e97cf	-0.014562561
73	0x3d91b863	0.07115247
74	0x3df9fe39	0.12206692
75	0xbd4ff542	-0.050771005
76	0x3ce59ecf	0.028029827
77	0xbdfeafa9	-0.12435848
78	0x3b9236aa	0.004462083
79	0x3dd3c810	0.10340893
80	0xbd5d77bd	-0.05406927
81	0x3dc3efb3	0.095672034
82	0x3bc7b1c7	0.0060941908
83	0x3dc9cdac	0.09853682
84	0x3db99b38	0.09062809
85	0x3d5f503d	0.05451988
86	0x3d85a966	0.06526451
87	0x3da43f21	0.080198534
88	0x3e0c7f07	0.13720332
89	0x3e003dd0	0.1252358
90	0x3d750183	0.059815895
91	0xbba992e4	-0.0051749814
92	0xbd71ec2f	-0.059063133
93	0x3d7b8f35	0.06141587
94	0x3d53979f	0.05165827
95	0x3ca58042	0.02020276
96	0xbdd93886	-0.10606484
97	0x3d10a62e	0.03531473
98	0xbd3ee62b	-0.046606224
99	0x3d4994d0	0.049214184
100	0x3d1bc7f1	0.038032476
101	0xbdbe15c2	-0.09281494
102	0xbcceb1bd	-0.025231237
103	0xbd9c6a5f	-0.07637476
104	0x3d0ec7bb	0.034858447
105	0xbdb1ef36	-0.08688204
106	0xbe2c9664	-0.16854244
107	0xbe0d56b3	-0.13802604
108	0xbd30d2a5	-0.043169636
109	0x3d91a549	0.07111604
110	0xbdae3f26	-0.08508138
111	0x3e0b7880	0.13620186
112	0xbe1a10b5	-0.15045436
113	0x3d3a4956	0.045480095
114	0x3e215b23	0.15757422
115	0x3e0bc6a8	0.1365
116	0x3da104a9	0.07862217
117	0xbd82b612	-0.063823834
118	0xbd44e299	-0.048067663
119	0xbd04c5a7	-0.03241506
120	0x3d3db4b2	0.046314903
121	0x3d833a88	0.06407648
122	0x3d90db0d	0.070730306
123	0xbd8133a9	-0.063086815
124	0x3c7602d7	0.0150153255
125	0xbdcd6669	-0.10029299
126	0xbd8da23a	-0.06915708
127	0xba819fc8	-0.0009889537
128	0xbc08aca4	-0.008341942
129	0xbc894838	-0.01675807
130	0xbd1ad5f5	-0.0378017
131	0x3d025489	0.0318189
132	0xbdb76aa8	-0.0895589
133	0xbcad0ad2	-0.021123324
134	0xbdd281f9	-0.102786966
135	0x3d18ded3	0.037321877
136	0x3d25dee5	0.040495772
137	0x3d7c27bb	0.061561327
138	0xbd44d039	-0.04805014
139	0x3e0e8293	0.13916998
140	0xbdcfba41	-0.10142947
141	0xbdd89235	-0.10574762
142	0x3e1fd7e1	0.15609695
143	0xbce59231	-0.028023811
144	0xbb758b10	-0.003746692
145	0x3dcb7789	0.09934909
146	0x3dd09e57	0.10186451
147	0xbde9aa78	-0.114094675
148	0xbd9c4927	-0.0763114
149	0x3d01dcb7	0.03170463
150	0x3e17d660	0.14827871
151	0xbd6e709d	-0.058212865
152	0xbe00aa16	-0.12564883
153	0xbd82c210	-0.06384671
154	0x3dc37fc6	0.09545855
155	0xbe04215c	-0.1290335
156	0xbe0ee0cb	-0.13952939
157	0xbd2f3939	-0.04277918
158	0x3de3c56d	0.1112164
159	0xbd0155ba	-0.031575896
160	0xbc9b27f7	-0.018939955
161	0xbe01cd9f	-0.12676094
162	0x3e47d05a	0.19513074
163	0xbdea4d97	-0.1144058
164	0x3deb9fe9	0.1150511
165	0x3d18637b	0.037204247
166	0xbe14f3c0	-0.14546108
167	0x3c4ef9d5	0.012632807
168	0x3d97af46	0.07406478
169	0xbccdc64a	-0.025118966
170	0x3e022bfd	0.12712093
171	0xbbc05547	-0.005869541
172	0xbe224be5	-0.15849264
173	0x3dd3ddf5	0.10345069
174	0x3dcc2247	0.099674754
175	0xbdd52036	-0.104065344
176	0xbd6ae2f2	-0.05734534
177	0xbd22ce24	-0.039747372
178	0x3ab04742	0.0013448971
179	0xbd73f43c	-0.059559092
180	0x3dbbe93e	0.09175347
181	0xbd51dec5	-0.05123784
182	0x3d91dcf0	0.071222186
183	0xbe523e4f	-0.20531581
184	0x3d38907c	0.045059666
185	0xbd7f0bb0	-0.062267005
186	0xbd4b50dc	-0.04963766
187	0x3d259450	0.040424645
188	0xbcf41686	-0.029795896
189	0x3ce460d2	0.027878199
190	0x3d452fdd	0.04814135
191	0x3daf6cff	0.08565711
192	0xbd584353	-0.05279858
193	0x3d283014	0.041061476
194	0xbe07f6ec	-0.13277787
195	0xbc2889c3	-0.010286751
196	0xbcb27372	-0.021783564
197	0xbcb9186f	-0.022594659
198	0xbd82186b	-0.063523136
199	0x3e056e36	0.13030323
200	0x3b0230be	0.0019865478
201	0x3d2bba83	0.04192592
202	0xbd589d14	-0.052884176
203	0xbb6ddf2a	-0.0036296346
204	0x3c4fc70e	0.012681736
205	0xbd85a05c	-0.06524727
206	0x3db57bbd	0.08861492
207	0x3db0884e	0.08619748
208	0x3e3d44ea	0.1848332
209	0x3e0c66c4	0.13711077
210	0xbda2add8	-0.07943314
211	0x3dbc9348	0.09207779
212	0xbc849b00	-0.016187191
213	0x3d35f7d4	0.0444258
214	0x3dfb3c96	0.12267415
215	0x3d8661fa	0.06561656
216	0x3dfd2c46	0.1236196
217	0x3da5daee	0.08098398
218	0xbd5d2c5f	-0.053997394
219	0xbe07ef51	-0.13274886
220	0xbddf66c4	-0.10908273
221	0xbda4187c	-0.080124825
222	0xbc8d6d40	-0.017264009
223	0xbbc02c24	-0.005864637
224	0xbe07fa5f	-0.13279103
225	0xbd92081f	-0.07130455
226	0x3c99cddd	0.018774921
227	0xbd7c2b68	-0.061564833
228	0x3e72c683	0.23708539
229	0x3d3c2bbf	0.045940157
230	0xbd29edbf	-0.041486498
231	0xbe3462d4	-0.17615825
232	0x3dbe583a	0.09294172
233	0xbdcf8566	-0.101328656
234	0x3cd47b8d	0.02593782
235	0xbda87467	-0.08225327
236	0xbd6431db	-0.05571161
237	0x3cc8bbbd	0.024503583
238	0x3cadd864	0.021221347
239	0x3e05cde4	0.13066822
240	0x3dbe3dfa	0.09289165
241	0x3d43c0ac	0.047791168
242	0x3d2a8afe	0.04163646
243	0x3e3356a2	0.17513517
244	0xbbc64cff	-0.006051659
245	0xbcdda1ae	-0.027054634
246	0xbde8123a	-0.113316014
247	0x3e2b54f2	0.16731623
248	0x3a01bb7c	0.0004948897
249	0x3da18f09	0.0788861
250	0xbdb6734f	-0.08908712
251	0xbda912e9	-0.0825556
252	0xbb29f0e9	-0.0025930947
253	0x3dd20699	0.10255165
254	0xbe1522a2	-0.14563993
255	0x3e22e753	0.15908556

sequential/dense_1/MatMul f4 [11, 128]
0	0x3d7e95d1	0.062154595
1	0x38a4b928	7.8546174e-05
2	0xbdca802a	-0.098877266
3	0xbd9f120f	-0.07767116
4	0xbe8f97c3	-0.28045473
5	0xbe18d053	-0.1492322
6	0xbd29b4bf	-0.04143214
7	0xbe513aeb	-0.20432632
8	0xbd88c9be	-0.06679104
9	0x3e1e6ff0	0.15472388
10	0xbe051d77	-0.12999521
11	0xbdd82f71	-0.10555924
12	0xbea81129	-0.32825592
13	0x3e28019b	0.16406862
14	0xbe2f1ea5	-0.17101534
15	0xbd8631be	-0.06552456
16	0xbc9581a7	-0.0182503
17	0x3dd03163	0.1016567
18	0xbb709178	-0.00367078
19	0xbd16e117	-0.036835756
20	0xbddbfdf4	-0.10741797
21	0x3cf0fe35	0.02941809
22	0x3dc37e0d	0.09545527
23	0x3dc601df	0.09668326
24	0xbd4e60f7	-0.05038544
25	0xbdc85259	-0.097813316
26	0xbd74e85a	-0.0597919
27	0xbe3fe758	-0.18740594
28	0xbe7bd1d3	-0.2459176
29	0x3c5c85d7	0.013459644
30	0xbdad43d9	-0.084602065
31	0x3d6aab0d	0.057292033
32	0xbda0d8d1	-0.078538544
33	0xbe7d933d	-0.24763198
34	0x3bfe8328	0.0077671
35	0xbc846738	-0.0161625
36	0xbe56defc	-0.209835
37	0x3e22d5c6	0.1590186
38	0xbde85afe	-0.113454804
39	0xbcfc322d	-0.030785644
40	0x3dde5a23	0.10857036
41	0xbe5f8a4e	-0.21830103
42	0x3e4a0352	0.19727829
43	0xbda264cd	-0.079293825
44	0x3c630002	0.013854982
45	0x3e5705e4	0.20998341
46	0x3e23f275	0.16010459
47	0x3dabd840	0.08390856
48	0x3d8a7c56	0.067619964
49	0xbde25f0f	-0.11053287
50	0xbd9cbc90	-0.07653153
51	0xbdeda0c9	-0.11602933
52	0xbe873f5c	-0.26415527
53	0x3b950825	0.00454809
54	0x3d93c1e0	0.07214713
55	0xbba4267f	-0.005009472
56	0xbd63af9a	-0.05558739
57	0x3d65d7d4	0.056114033
58	0x3dcefa37	0.101063184
59	0x3e4f08ad	0.20218153
60	0xbdf5e4fe	-0.120065674
61	0x3dcc0332	0.09961547
62	0x3d305dc1	0.04305816
63	0x3d0b59cc	0.034021184
64	0xbe3f11e8	-0.18659174
65	0x3dac2cbe	0.084069714
66	0x3dedf2b9	0.11618561
67	0xbda09103	-0.07840159
68	0xbe5ce12b	-0.2157027
69	0xbded8e57	-0.11599415
70	0xbe43d17d	-0.19122882
71	0xbe4000af	-0.18750261
72	0xbe5d0ef9	-0.21587743
73	0xbe4f89a8	-0.20267355
74	0xbe208077	-0.15674005
75	0x3ca8e9fa	0.020619381
76	0xbe0e17b4	-0.1387623
77	0x3d3a0ac8	0.045420438
78	0xbdea93eb	-0.11453994
79	0xbc1ab0c0	-0.009441555
80	0x3d6ee032	0.058319278
81	0xbdfa2db3	-0.12215748
82	0xbd535d5b	-0.051602703
83	0x3e3201b8	0.17383468
84	0xbe1086dc	-0.14113945
85	0x3e3e2b18	0.18571126
86	0xbd938b24	-0.07204273
87	0xbdff6884	-0.12471107
88	0xbdc00456	-0.09375827
89	0xbe10de6f	-0.14147352
90	0x3d3f0541	0.04663587
91	0x3d281deb	0.041044157
92	0x3dd15782	0.10221769
93	0xbe8357dd	-0.25652972
94	0x3dc4db87	0.09612184
95	0xbe28f9de	-0.16501567
96	0xbbc3e402	-0.0059781084
97	0x3e2348c7	0.15945731
98	0x3d8bd42c	0.06827578
99	0xbe5167f6	-0.20449814
100	0xbe697465	-0.22798307
101	0xbe59c6e2	-0.21267274
102	0xbe0ab49c	-0.1354546
103	0xbd485f77	-0.048919167
104	0xbdf171f5	-0.11789314
105	0x3e387b8d	0.18015881
106	0xbdedf070	-0.116181254
107	0x3e61d394	0.22053367
108	0x3e0414eb	0.12898605
109	0xbe377c01	-0.17918397
110	0xbe599a63	-0.212503
111	0xbe2b2eda	-0.16717091
112	0xbd3d58d3	-0.046227288
113	0x3d445b48	0.047938615
114	0xbe23535b	-0.15949766
115	0xbe092f4d	-0.1339695
116	0xbd27199c	-0.040795907
117	0xbe261f26	-0.1622282
118	0xbda91db4	-0.082576185
119	0x3dd85278	0.10562605
120	0x3ccb4c20	0.024816573
121	0x3b7d9ef8	0.003869949
122	0x3da42f43	0.08016827
123	0x3db38540	0.0876565
124	0x3e23d84c	0.1600048
125	0x3dac2ea5	0.08407334
126	0xbe7211a6	-0.23639545
127	0x3df5fb80	0.120108604
128	0xbe6a88c7	-0.22903739
129	0xbe6f44f7	-0.23366152
130	0x3cdeba30	0.02718839
131	0x3b662946	0.0035119816
132	0xbe4ba3b9	-0.19886674
133	0xbe566f8c	-0.2094099
134	0x3e4bbed2	0.19897011
135	0xbe1ab991	-0.1510985
136	0xbd92b7ab	-0.07163938
137	0xbd630b9f	-0.055431005
138	0xbcce9a97	-0.025220199
139	0x3d8cf2d6	0.06882255
140	0x3d18964f	0.03725272
141	0x3c4acf1e	0.012378482
142	0x3e345c59	0.17613353
143	0xbd433962	-0.047662146
144	0x3e16db52	0.14732102
145	0xbdf74fd0	-0.1207577
146	0xbe0baecb	-0.13640897
147	0xbd27478b	-0.040839713
148	0xbe8c0ec3	-0.27355012
149	0xbd4b05aa	-0.04956595
150	0xbe4901e0	-0.19629622
151	0xbda40956	-0.08009593
152	0xbe69b81f	-0.22824143
153	0x3e5625f0	0.2091291
154	0x3df974ec	0.12180504
155	0xbd2b6b11	-0.041850153
156	0xbdd96778	-0.10615438
157	0xbe77ac6b	-0.24186866
158	0x3dd18373	0.1023015
159	0xbe5e14ad	-0.21687575
160	0xbe30a128	-0.17248976
161	0xbdd030e9	-0.10165579
162	0xbe6fbced	-0.23411913
163	0x3d12c522	0.03583253
164	0xbe7e9a2f	-0.24863504
165	0xbe9faf89	-0.3118861
166	0xbdf156d8	-0.11784142
167	0xbe64b1a5	-0.22333391
168	0xbe757d2e	-0.23973534
169	0xbe8dfe55	-0.27733102
170	0x3e559fdd	0.20861764
171	0x3dacd613	0.08439269
172	0x3db679e9	0.08909971
173	0x3e0940b3	0.13403587
174	0x3e2419c1	0.1602545
175	0x3e221a58	0.15830362
176	0xbe232d08	-0.15935147
177	0xbe74ea39	-0.23917474
178	0xbe16d550	-0.1472981
179	0x3e0cbf39	0.1374482
180	0xbe1dcbb1	-0.15409733
181	0x3daad363	0.083411
182	0x3cfe0ce4	0.031012006
183	0xbe4bfe91	-0.19921328
184	0xbd5518e0	-0.052025676
185	0x3d99b3aa	0.07504971
186	0x3ddc597a	0.10759254
187	0x3abe2c50	0.0014509056
188	0xbc579300	-0.013157606
189	0x3e2138bb	0.15744297
190	0xbea4bc93	-0.3217512
191	0x3e119af8	0.14219272
192	0xbccc1d7d	-0.024916405
193	0xbc5c8858	-0.013460241
194	0x3e0c49d6	0.13700041
195	0x3db73277	0.08945172
196	0x3d4f20bc	0.050568327
197	0xbc62e49b	-0.013848449
198	0x3ceb4505	0.028719435
199	0x3cc01faa	0.023452599
200	0x3e26283b	0.16226284
201	0xbe1c5d6b	-0.15270011
202	0x3e12fe96	0.1435493
203	0xbc0d6432	-0.008629845
204	0x3e2eb915	0.1706279
205	0x3cc6dab7	0.024274213
206	0xbda81a38	-0.08208126
207	0x3dbae955	0.09126536
208	0xbd40924a	-0.047014512
209	0x3c650fdc	0.013980832
210	0x3dc7f37d	0.097632386
211	0xbe401d10	-0.18761086
212	0xbe542a13	-0.20719175
213	0x3d119ec4	0.0355518
214	0x3d7528b8	0.059853286
215	0x3d2771a7	0.04087987
216	0xbddd5f9b	-0.10809251
217	0x3e14adc1	0.14519407
218	0xbe64610f	-0.2230265
219	0x3c8a8379	0.016908394
220	0xbde58f12	-0.11208929
221	0xbe67b70b	-0.22628419
222	0x3c6c5646	0.014424866
223	0xbe72be9f	-0.23705529
224	0xbe63f884	-0.2226277
225	0xbe60bd15	-0.21947129
226	0x3e476603	0.19472508
227	0xbe7ae86c	-0.24502724
228	0xbe8c0d50	-0.27353907
229	0xbe037e60	-0.12841177
230	0xbd840e76	-0.06448071
231	0xbd895196	-0.067050144
232	0xbe48b12c	-0.19598836
233	0x3dc41ff3	0.09576406
234	0xbe7d7136	-0.24750218
235	0xbcd37b7a	-0.025815714
236	0x3df5220e	0.11969386
237	0xbe4f3569	-0.20235218
238	0xbe585c28	-0.21128905
239	0x3ce2f44b	0.027704379
240	0xbe6614bd	-0.22468849
241	0x3d5964fb	0.053074818
242	0xbe836c0d	-0.25668374
243	0xbe5b547b	-0.21418945
244	0x3e081255	0.13288243
245	0x3d99d0e4	0.07510546
246	0xbc0b5808	-0.008504875
247	0xbe67d5fd	-0.22640224
248	0x3cfdd109	0.030983465
249	0x3d1bbb23	0.038020264
250	0xbdedd44c	-0.11612758
251	0xbe3d7984	-0.18503386
252	0x3e188884	0.14895827
253	0x3e63ee4b	0.2225887
254	0x3e5afdb2	0.2138584
255	0x3e1f318a	0.15546241

sequential/conv2d/Conv2D f4 [32, 3, 3, 3]
0	0x3c9a3366	0.018823337
1	0xbdb1cc73	-0.08681574
2	0xbd9f005a	-0.07763739
3	0x3e40a188	0.1881162
4	0xbe32820f	-0.17432426
5	0x3ca223cc	0.01979246
6	0x3d262fc5	0.0405729
7	0xbe1c2e0e	-0.15251943
8	0xbe56381c	-0.20919842
9	0x3d0663e2	0.0328101
10	0xbd8e175a	-0.06938048
11	0xbe1732b4	-0.14765435
12	0xbd00af62	-0.031417258
13	0x3d07b2cf	0.03312951
14	0x3cb6a67c	0.022296183
15	0x3dadab9a	0.08479996
16	0xbd8ef5da	-0.06980486
17	0x3d25c9d1	0.04047567
18	0xbdc4d475	-0.096108355
19	0xbe0cdaab	-0.1375529
20	0x3cb2ed03	0.021841532
21	0x3d1cacbc	0.03825067
22	0x3c473dc8	0.012160726
23	0xbe4feeb1	-0.20305897
24	0xbda7d161	-0.08194233
25	0xbe4fbdeb	-0.20287292
26	0xbd1f4a83	-0.03888942
27	0x3de35215	0.1109964
28	0x3df7da17	0.12102144
29	0x3de81574	0.11332217
30	0x3df7b6ce	0.12095414
31	0x3d6d017e	0.05786275
32	0x3d77d149	0.060502324
33	0xbda1f906	-0.079088256
34	0xbdfea41a	-0.12433644
35	0xbdf68be2	-0.12038399
36	0xbca20c6b	-0.019781312
37	0xbd85652d	-0.065134384
38	0xbcd5183e	-0.026012536
39	0xbdbd4064	-0.09240797
40	0x3d68fd67	0.05688229
41	0x3d9c8b5a	0.07643767
42	0xbcc3ab6a	-0.023885448
43	0xbd5adfd9	-0.053436134
44	0xbd1566f3	-0.036475133
45	0x3d2389ce	0.039926343
46	0xbddb2472	-0.10700311
47	0xbd9e9fd1	-0.07745326
48	0xbdbe5d73	-0.09295168
49	0x3ce65da2	0.02812082
50	0xbe1dc297	-0.15406261
51	0xbe016167	-0.12634812
52	0x3d59fd04	0.05321981
53	0xbe2c7c82	-0.16844371
54	0x3d8c1083	0.06839087
55	0xbe1acab1	-0.15116383
56	0xbe1f7aed	-0.15574236
57	0xbcc0678a	-0.023486871
58	0x3dde4665	0.108532704
59	0x3e07b743	0.13253503
60	0x3db525a9	0.08845074
61	0x3da0c567	0.078501515
62	0x3d2080d3	0.039185356
63	0x3d80ca15	0.06288544
64	0x3c526d2e	0.012843413
65	0xbe0b4531	-0.13600613
66	0xbd2b0485	-0.041752357
67	0x3db4f1bb	0.08835169
68	0xbbe57e55	-0.0070035853
69	0xbd09d386	-0.03364899
70	0x3d8da78d	0.069167234
71	0xbcff1af2	-0.031140778
72	0xbde2c319	-0.11072368
73	0x3d67b738	0.056571215
74	0xbe43cb96	-0.1912063
75	0x3d4eecac	0.050518677
76	0x3a095c5a	0.0005239897
77	0xbdc5a0c7	-0.096498065
78	0x3d946c85	0.07247261
79	0x3cfa883b	0.030582538
80	0xbb8df977	-0.004332717
81	0x3d59f1e4	0.0532092
82	0xbe14e85e	-0.14541766
83	0xbd934867	-0.07191544
84	0xbcd337fa	-0.025783528
85	0xbcfbe655	-0.03074948
86	0x3cfbba7f	0.030728577
87	0x3e131783	0.14364438
88	0x3cfafc7b	0.03063797
89	0xbce23aba	-0.027615894
90	0x3d015ceb	0.031582754
91	0xbe05f666	-0.13082275
92	0xbd85e75f	-0.06538271
93	0xbe23d565	-0.15999372
94	0x3cdc81bc	0.02691733
95	0xbdf4933b	-0.119421445
96	0x3d3123d5	0.043247063
97	0xbdfcb8f1	-0.12339962
98	0xbddc7c37	-0.107658796
99	0xba59d8b4	-0.00083101843
100	0x3d847f52	0.06469597
101	0x3e43329e	0.19062278
102	0x3df0de1a	0.117611125
103	0x3db0b743	0.086287044
104	0x3d2ee26d	0.042696405
105	0x3c04e642	0.008111538
106	0xbd854030	-0.065063834
107	0xbd75a667	-0.059973147
108	0x3b4af442	0.0030968343
109	0x3c511829	0.012762108
110	0xbe15f6ce	-0.1464493
111	0xba56f4dd	-0.00081999396
112	0xbd69a577	-0.057042565
113	0xbe140a75	-0.14457114
114	0x3d91736e	0.071020946
115	0x3d0a9d2e	0.033841304
116	0x3d956f54	0.07296625
117	0xbe1a1f12	-0.15050915
118	0xbd53f005	-0.051742572
119	0xbcf9284f	-0.030414728
120	0xbdb1958e	-0.086711034
121	0xbd7b9de9	-0.06142989
122	0x3e331c81	0.17491342
123	0x3d886b47	0.066610865
124	0x3d4789e2	0.04871548
125	0xbbf4f725	-0.007475751
126	0x3da9fd97	0.083003215
127	0x3e21a464	0.15785366
128	0xbda5f4a8	-0.08103305
129	0x3d20263f	0.039098974
130	0xbc912700	-0.017718792
131	0x3e30ea02	0.17276767
132	0xbd9a51b4	-0.07535115
133	0x3db57418	0.08860034
134	0xbdc49c78	-0.096001565
135	0xbde91a93	-0.11382022
136	0x3c16c3db	0.009201969
137	0x3d845b32	0.064627066
138	0xbe0681b5	-0.13135417
139	0x3df44507	0.119272284
140	0x3dc278d3	0.09495702
141	0xbe3cc20d	-0.184334
142	0xbd86a463	-0.06574323
143	0xbc29e9eb	-0.010370712
144	0x3d637744	0.055533662
145	0x3cb43113	0.021996057
146	0x3e279c42	0.16368201
147	0xbdf45e07	-0.11931997
148	0x3e0760d7	0.13220535
149	0xbdc38b1d	-0.09548018
150	0x3c24ad06	0.010051018
151	0x3e1b6cac	0.15178174
152	0x3dcad3a8	0.099036515
153	0xbd608d70	-0.054822385
154	0x3e2afe4a	0.16698566
155	0x3de84183	0.1134062
156	0xbd8f440d	-0.069954015
157	0x3d1b38db	0.03789602
158	0xbd242689	-0.040075812
159	0xbd4e1c69	-0.050320063
160	0xbe04aa73	-0.12955646
161	0x3d80f4c6	0.06296687
162	0xbdaaaa0d	-0.08333216
163	0xbda8cb15	-0.0824186
164	0xbe1e6409	-0.15467848
165	0xbdb35475	-0.08756343
166	0xbc91b5c5	-0.01778687
167	0xbd6dd57f	-0.058064934
168	0x3d526e95	0.05137499
169	0x3c79fb26	0.015257632
170	0x3d0e66a9	0.034765873
171	0x3df08a74	0.11745158
172	0x3d48fa11	0.049066607
173	0xbe0f3a22	-0.1398702
174	0x3d291e66	0.041288756
175	0xbd7a0522	-0.06104005
176	0x3d97920a	0.074009016
177	0xbd49ff5f	-0.049315806
178	0xbe007a40	-0.12546635
179	0xbd7d8891	-0.061897818
180	0x3dd6f93d	0.10496757
181	0x3d3e875f	0.04651582
182	0xbce9f1cf	-0.028557686
183	0x3db4ef45	0.088346995
184	0xbda9ae7d	-0.08285234
185	0xbe259c0c	-0.16172808
186	0x3e10ca14	0.14139587
187	0xbd7cd15a	-0.06172309
188	0xbe22afa8	-0.1588732
189	0x3db8c3a9	0.09021694
190	0xbd139a41	-0.03603578
191	0x3d820d2b	0.06350168
192	0x3c493ef3	0.012283075
193	0x3e422bd5	0.18962033
194	0xbaed53ea	-0.0018106673
195	0xbc38ee53	-0.01128729
196	0xbe17920f	-0.1480181
197	0xbd088404	-0.033329025
198	0x3de173ea	0.11008437
199	0xbd33511d	-0.043778528
200	0x3e401635	0.18758471
201	0xbd2dfaeb	-0.042475622
202	0x3dcc67c4	0.09980729
203	0x3e0eb839	0.13937463
204	0xbdbc7fcc	-0.09204063
205	0xbe0a85ef	-0.13527654
206	0xbe2431fe	-0.16034696
207	0x3dd60dd0	0.10451853
208	0xbbdf89d8	-0.006821852
209	0x3dfadb48	0.12248856
210	0x3cb76885	0.022388706
211	0xbccbd32a	-0.024880964
212	0xbd4622e5	-0.04837312
213	0xbe084531	-0.13307644
214	0xbdd3c7f0	-0.103408694
215	0xbdbebab3	-0.09312954
216	0x3e33c0f8	0.1755408
217	0x3dd3ac35	0.1033558
218	0x3e5329f9	0.2062148
219	0x3dcadd68	0.09905511
220	0x3dff6bac	0.12471709
221	0xbcb7e817	-0.022449536
222	0x3e051135	0.12994845
223	0xbe175bf5	-0.14781173
224	0x3ce0e27d	0.027451748
225	0xbe017d4b	-0.12645452
226	0xbd89f234	-0.0673565
227	0x3d696ab0	0.05698651
228	0x3c4030b7	0.0117303645
229	0xbdfba1f3	-0.12286749
230	0xbe2a2364	-0.16615063
231	0x3e217dba	0.15770617
232	0xbe5d8f1f	-0.21636628
233	0xbe2a717f	-0.16644858
234	0xbde51d0e	-0.11187182
235	0x3d8bf8fb	0.06834599
236	0xbe373eb4	-0.17895013
237	0x3de5749b	0.11203881
238	0xbe310062	-0.17285302
239	0x3d2f0c13	0.042736124
240	0x3d95d345	0.07315687
241	0xbd76f775	-0.060294587
242	0xbe01e6e7	-0.12685739
243	0x3d8f5804	0.069992095
244	0xbc9860e2	-0.018600885
245	0xbe2a770c	-0.16646975
246	0x3e15672d	0.1459014
247	0x3cd0ac4a	0.025472779
248	0xbe17ade4	-0.14812428
249	0x3dbc0dec	0.09182343
250	0xbd7108db	-0.058846336
251	0xbe0a0ba4	-0.13481003
252	0x3e0bf59b	0.1366791
253	0x3d37be66	0.044859312
254	0x3d891804	0.06694034
255	0x3e332577	0.1749476

sequential/conv2d_1/Conv2D f4 [32, 3, 3, 32]
0	0xbcdb5897	-0.026775641
1	0x3c62e781	0.01384914
2	0x3deb2b1c	0.11482832
3	0xbc006855	-0.007837375
4	0x3d863d5e	0.065546736
5	0xbd0ec4a9	-0.03485552
6	0x3dc60b38	0.096701086
7	0xbdeebc5c	-0.116570204
8	0x3ce855ba	0.02836119
9	0xbc76b8a9	-0.015058675
10	0x3dbbebfc	0.0917587
11	0x3df61225	0.120151795
12	0xbd6f33cd	-0.05839901
13	0xbe07d315	-0.13264115
14	0x3e100a2f	0.14066385
15	0xbdce3a4c	-0.10069713
16	0xbdbf86af	-0.09351861
17	0x3d73887a	0.059456326
18	0xbdbf941f	-0.09354424
19	0x3b940d6b	0.004518201
20	0xbe0a42d4	-0.13502055
21	0x3d121132	0.03566093
22	0x3d798605	0.060918827
23	0x3d76ef6f	0.060286935
24	0xbdc312ad	-0.095250465
25	0x3d0e4197	0.03473052
26	0xbdd1e5d5	-0.10248915
27	0x3d716836	0.058937274
28	0x3dbf29e0	0.09334159
29	0xbce4abd0	-0.027913958
30	0xbdd4bdea	-0.10387786
31	0xbd99a8dd	-0.07502911
32	0xbd7edb38	-0.062220782
33	0xbd33d9af	-0.04390877
34	0xbd88d4d1	-0.066812165
35	0xbc246b5a	-0.01003536
36	0xbd034959	-0.03205237
37	0xbdeabce1	-0.11461807
38	0x3d38129e	0.04493963
39	0xbcee63c0	-0.029100299
40	0xbd1c802f	-0.038208183
41	0x3db92bc0	0.09041548
42	0xbd0a8a56	-0.033823334
43	0x3da8a7de	0.08235143
44	0x3da2705d	0.07931588
45	0xbe0ac546	-0.13551816
46	0xbd8f7c78	-0.070061624
47	0xbd3d1536	-0.046162806
48	0xbde8372c	-0.11338648
49	0x398d4d09	0.0002695101
50	0xbc06f72b	-0.00823764
51	0xbd280a1d	-0.04102527
52	0xbcc12093	-0.023575103
53	0xba757cb4	-0.00093645905
54	0xbc36c2bf	-0.0111548295
55	0x3c857c33	0.016294574
56	0xbe0a1ce6	-0.13487586
57	0x3d8d05fb	0.06885906
58	0xbda7f02b	-0.08200105
59	0x3dc324fa	0.09528537
60	0xbd8b335f	-0.06796908
61	0xbc6bc37f	-0.014389872
62	0xbcd879ad	-0.026425207
63	0xbd22c3a4	-0.03973736
64	0xbca37dea	-0.019957501
65	0xbdb05223	-0.08609416
66	0x3cd6a5ec	0.026202165
67	0x3cd71970	0.026257247
68	0xbdb250c8	-0.08706814
69	0xbbae5fd4	-0.005321482
70	0x3d99856c	0.07496151
71	0xbddbc871	-0.107315905
72	0xbc85da01	-0.016339304
73	0xbc5339b1	-0.012892173
74	0xbcd4ec1a	-0.025991488
75	0x3d3c146e	0.04591792
76	0x3d3dd807	0.046348598
77	0x3d85dbb0	0.06536043
78	0x3d02605c	0.031830177
79	0x3d001b6f	0.031276163
80	0xbb132d78	-0.0022457521
81	0xbca50c74	-0.02014754
82	0x3d768e79	0.060194466
83	0x3d048b8f	0.032359656
84	0x3dac55d1	0.08414806
85	0x3d8e6726	0.06953268
86	0xbd8b31dc	-0.06796619
87	0x3d7903ec	0.060794756
88	0xbde4a841	-0.111649044
89	0x3cb99710	0.02265504
90	0x3ccdebdf	0.025136886
91	0xbb25617c	-0.0025235107
92	0x3da73114	0.08163658
93	0x3dbf600f	0.093444936
94	0xbcdc882a	-0.026920397
95	0xbde1d703	-0.11027338
96	0xbdf8f53c	-0.1215615
97	0x3c0b5b5c	0.0085056685
98	0xbce501f2	-0.02795503
99	0xbd1fcedb	-0.039015632
100	0xbb90902f	-0.0044117193
101	0xbbe4b913	-0.0069800704
102	0xbcf635af	-0.030054895
103	0xbe0c7336	-0.13715824
104	0xbd197078	-0.037460774
105	0x3cd65dbd	0.026167745
106	0x3d9f67d6	0.07783477
107	0x3d81feda	0.06347437
108	0xbd5b828b	-0.053591292
109	0xbd582a80	-0.052774906
110	0xbc302bd8	-0.010752641
111	0xbdbd1b5c	-0.09233734
112	0x3b1be536	0.0023787743
113	0xbc79cbba	-0.015246326
114	0xbdeef8ef	-0.11668574
115	0xbd224617	-0.039617624
116	0x3d27cc65	0.04096641
117	0x3de8c959	0.11366529
118	0x3c54a1ca	0.012978027
119	0xbdbeb841	-0.093124874
120	0xbd8edc80	-0.06975651
121	0x3ce7319e	0.028221902
122	0xbe0f3fec	-0.13989228
123	0xbcc3cd6f	-0.02390167
124	0xbda6fae5	-0.08153323
125	0xbdedf48e	-0.11618911
126	0x3d99b29d	0.07504771
127	0xbb9f5ac4	-0.004863115
128	0xbdc97122	-0.098360315
129	0x3c1b9a1c	0.009497192
130	0xbdafa68b	-0.085766874
131	0x3e0b70cd	0.13617249
132	0x3d49b706	0.04924681
133	0x3d1cfa1b	0.038324457
134	0x3d8a5d90	0.06756127
135	0xbcca52e2	-0.024697725
136	0xbd9df8b9	-0.07713456
137	0xbaaf98d0	-0.0013396982
138	0xbd3c8ea1	-0.04603446
139	0xbd45bfc6	-0.048278593
140	0x3cf66653	0.030078089
141	0xbd60a343	-0.0548432
142	0xbc17ed3f	-0.0092728725
143	0xbdcbc8d6	-0.09950416
144	0xbcbe64e1	-0.023241462
145	0x3de7fc98	0.11327475
146	0x3ac33a08	0.0014894614
147	0x3dd1f0da	0.10251017
148	0x3d643c3e	0.055721514
149	0xbd609fdc	-0.054839954
150	0xbde97045	-0.11398367
151	0x3da9f8bb	0.08299395
152	0x3d8450a3	0.06460693
153	0x3dae2913	0.08503928
154	0xbdee91ac	-0.116488785
155	0x3dd2dc5c	0.102959365
156	0xbc61e77d	-0.013788101
157	0xbdd8f8f0	-0.10594356
158	0xbd6385ad	-0.055547405
159	0xbdd4350b	-0.1036168
160	0x3d9858f1	0.07438839
161	0xbdbe3f66	-0.09289436
162	0x3dda14da	0.10648508
163	0x3dabae2b	0.08382829
164	0x3af57cd4	0.0018729218
165	0x3ca65fab	0.02030929
166	0x38cebfcd	9.858571e-05
167	0xbc1832bd	-0.009289441
168	0x3e00d63c	0.12581724
169	0x3ba788da	0.0051127495
170	0xbc0dccdf	-0.008654802
171	0x3d1576cb	0.036490243
172	0x3d6c26ab	0.057654064
173	0xbdeca057	-0.1155402
174	0x3e43f62c	0.19136876
175	0xbdaf5b32	-0.08562316
176	0xbd2b2fbe	-0.041793577
177	0xbd2f0170	-0.04272598
178	0xbdaa8e31	-0.08327902
179	0xbd0594db	-0.032612663
180	0xbcefedcc	-0.029288195
181	0xbd9bc908	-0.07606703
182	0x3dd8fa38	0.105946004
183	0x3de9da48	0.11418587
184	0x3b29e9e3	0.002592676
185	0x3d1ca852	0.03824646
186	0x3dabacc7	0.08382564
187	0x3dcd1ace	0.10014878
188	0x3c70cf1e	0.014697818
189	0xbdf940fa	-0.121705964
190	0x3cba0c95	0.022711078
191	0xbd7e8720	-0.062140584
192	0xbdd0503f	-0.10171556
193	0x3d0df582	0.034657963
194	0xbdc5eaf1	-0.09663952
195	0xbcfbba80	-0.030728579
196	0xbd8d6639	-0.06904263
197	0x3c838457	0.016054315
198	0x3acb09bf	0.0015490575
199	0xbabad841	-0.0014255123
200	0xbc34edd0	-0.011043027
201	0x3cd3bfab	0.02584823
202	0xbe1f1b04	-0.1553765
203	0xbd04d8ac	-0.032433197
204	0xbde08fae	-0.10964905
205	0x3bea3ef0	0.007148616
206	0xbd8381c3	-0.064212345
207	0x3d110157	0.03540167
208	0xbc84e7e9	-0.016223865
209	0x3dd7a441	0.10529376
210	0x3cf02190	0.029312879
211	0x3db027c4	0.08601335
212	0x3c81111c	0.015755229
213	0x3d620fbe	0.055190794
214	0xbdadda18	-0.08488864
215	0x3cc865f5	0.02446268
216	0x3cb0e80f	0.02159503
217	0x3d916090	0.07098496
218	0x3c06bff6	0.008224478
219	0xbd5f6d8e	-0.05454784
220	0x3d1c4327	0.03814998
221	0xbda5ae83	-0.08089926
222	0x3dc779c7	0.09740024
223	0xbbd5f46d	-0.006529382
224	0x3c2ed221	0.010670216
225	0xbc39771c	-0.011319902
226	0x3b23f21c	0.0025016135
227	0x3db6c57b	0.08924385
228	0xbc79132f	-0.015202328
229	0x398d91de	0.00027002295
230	0x3a93ce38	0.0011276668
231	0xbd900462	-0.07032086
232	0x3df0869f	0.11744427
233	0xbc7ad8ff	-0.015310525
234	0xbe2990c8	-0.16559136
235	0x3c1a1749	0.009404966
236	0xbdf39422	-0.118934885
237	0xbdacaff7	-0.08432
238	0xbd45c173	-0.04828019
239	0x3d2ea505	0.042637844
240	0xbb61b664	-0.0034440989
241	0x3d0ed50f	0.034871157
242	0x3d06bdb3	0.032895755
243	0xbcb45251	-0.022011908
244	0x3da8c12d	0.0823997
245	0x3dc8029d	0.097661234
246	0xbd35dacd	-0.044398118
247	0xbdf697ab	-0.12040647
248	0xbc879072	-0.01654837
249	0xbd270640	-0.040777445
250	0xbde97d09	-0.11400802
251	0xbb2e9ded	-0.0026644424
252	0xbd447ba1	-0.047969464
253	0x3d6d4d98	0.057935327
254	0xbd1c9049	-0.03822354
255	0x3c879358	0.016549751

sequential/conv2d_2/Conv2D f4 [32, 3, 3, 32]
0	0xbd71018a	-0.05883936
1	0x3c235543	0.009969058
2	0x3c900993	0.01758269
3	0x3d829445	0.063759364
4	0xbdabb86f	-0.08384787
5	0xbda3c7b5	-0.079970755
6	0xbd95105c	-0.07278511
7	0x3c74f282	0.0149503965
8	0x3deba113	0.11505332
9	0xbcd822e9	-0.026383834
10	0xbb226799	-0.0024780987
11	0xbd88612f	-0.06659161
12	0xbc5804fd	-0.013184783
13	0xbdeb0763	-0.11476018
14	0xbda16c71	-0.07882012
15	0x3de3ab80	0.111166954
16	0x3d4f686c	0.050636694
17	0xbe04432e	-0.12916252
18	0xbd78e11c	-0.060761556
19	0xbdd8318d	-0.10556326
20	0x3da69390	0.08133614
21	0x3c0f18e7	0.0087339645
22	0x3c49e4c2	0.0123226065
23	0x3cd1e48a	0.025621671
24	0x3e3349ce	0.17508623
25	0xbda6f110	-0.08151448
26	0x3de3ae95	0.11117283
27	0xbde0e932	-0.109819785
28	0x3ca276cd	0.01983204
29	0x3c06c82a	0.008226434
30	0x3d242c51	0.040081326
31	0x3e0efbc0	0.13963223
32	0x3da0476c	0.07826123
33	0xbbd74c09	-0.0065703434
34	0x3dc2a125	0.09503392
35	0x3e37e88a	0.179598
36	0xbd8b931a	-0.06815167
37	0x3e1ab780	0.15109062
38	0x3e068686	0.13137254
39	0xbd8cccee	-0.06875025
40	0xbd98f07d	-0.074677445
41	0xbbce5bf8	-0.0062975846
42	0x3dacf939	0.08445973
43	0xbd596914	-0.053078726
44	0xbc29da46	-0.010366982
45	0xbd53f3a8	-0.05174604
46	0xbb7f30ff	-0.0038939116
47	0x3d09214b	0.033479016
48	0xbdb50c98	-0.08840293
49	0x3d7495df	0.05971324
50	0xbd16cd71	-0.036817018
51	0x3c75d350	0.015003994
52	0xbdb83c5c	-0.08995888
53	0xbc1ffe86	-0.009765273
54	0xbd6c581f	-0.057701226
55	0x3e2d143c	0.1690225
56	0x3e082a11	0.13297297
57	0x3d320799	0.043464277
58	0xbcc23322	-0.023706023
59	0x3d68812c	0.056763813
60	0x3d82445e	0.06360696
61	0x3dcbd511	0.099527486
62	0x3d9ea5ce	0.077464685
63	0x3d8b5f8c	0.068053335
64	0x3ca3fb28	0.020017222
65	0xbcbbb75d	-0.022914583
66	0x3def711f	0.11691498
67	0x3d981e14	0.07427612
68	0x3ca5c569	0.020235734
69	0xbc9e145d	-0.01929682
70	0x3d01d06d	0.03169291
71	0x3ddb92bd	0.107213475
72	0x3d1d7098	0.038437456
73	0x3db359a0	0.08757329
74	0xbdbb11f5	-0.091342844
75	0x3d94f95b	0.07274123
76	0xbd8a9e52	-0.067684785
77	0xbd57c1fa	-0.052675225
78	0x3cb0921e	0.02155405
79	0x3cdcf1bc	0.026970737
80	0xbc84e5cc	-0.016222857
81	0xbdc578e0	-0.09642196
82	0xbd4ee5fb	-0.050512295
83	0xbdd8fad4	-0.10594717
84	0x3c8431b2	0.016136978
85	0x3d68219c	0.056672677
86	0xbc9ce255	-0.019150892
87	0x3e13ce8c	0.1443426
88	0x3c371b63	0.011175963
89	0xbd9fec97	-0.07808798
90	0xbd983bd0	-0.07433283
91	0x3da15b23	0.07878711
92	0xbd069181	-0.032853607
93	0x3bbb3d68	0.0057141073
94	0x3e234d9e	0.15947577
95	0xbd2d986e	-0.042381696
96	0xbd0a0a7f	-0.033701416
97	0x3d2b7f42	0.04186941
98	0xbd27e162	-0.040986426
99	0xbdca64d4	-0.09882513
100	0x3dfeb481	0.12436772
101	0xbd63e505	-0.055638332
102	0x3dc02c43	0.09383442
103	0xbd28adc7	-0.041181352
104	0xbd19c7ca	-0.03754405
105	0x3d7ad3bb	0.06123708
106	0x3c7129a7	0.014719403
107	0x3bf4d624	0.0074718166
108	0x3d6b73da	0.05748353
109	0x3d1d8c58	0.03846392
110	0xbdd11da9	-0.10210735
111	0xbcc07282	-0.023492102
112	0x3da85041	0.08218432
113	0x3d2c7fd4	0.042114094
114	0xbdc7dad8	-0.09758538
115	0x3b28336c	0.0025665415
116	0x3be6efc1	0.007047624
117	0x3d180582	0.037114628
118	0xbd40c99f	-0.04706728
119	0xbc8a4ac3	-0.016881352
120	0x3ccd6419	0.025072144
121	0x3d84416e	0.06457792
122	0xbdcf273c	-0.10114905
123	0xbd7e1b52	-0.062037773
124	0xbdbd9c16	-0.09258287
125	0x3c1d8598	0.009614371
126	0xbce3d64c	-0.027812146
127	0x3d8a4961	0.06752277
128	0x3cfed153	0.031105673
129	0xbbeb6a0c	-0.0071842726
130	0xbcabb60c	-0.02096083
131	0x3d1d7ddd	0.03845011
132	0x3cdc6f16	0.026908439
133	0xbbae2060	-0.005313918
134	0x3d245e6c	0.04012911
135	0x3cb37dd0	0.021910578
136	0x3d5a2dd7	0.053266373
137	0x3d92519e	0.071444735
138	0x3b1d076f	0.002396073
139	0xbe007b0a	-0.12546936
140	0xbdac0824	-0.0839999
141	0x3c2d028a	0.010559687
142	0xbdee2a3b	-0.116291486
143	0xbdc47795	-0.09593121
144	0x3cc001cb	0.023438355
145	0x3d67293f	0.05643582
146	0x3da076e0	0.078351736
147	0x3d6967f9	0.05698392
148	0xbcb3bb26	-0.021939825
149	0x3dfb72b0	0.12277734
150	0x3de76dca	0.113002375
151	0xbdee8b02	-0.116476074
152	0x3d13e9ca	0.03611163
153	0xbcbcfd7c	-0.02307009
154	0x3c347beb	0.0110158725
155	0xbd333f02	-0.04376126
156	0xbc4481fe	-0.011993883
157	0x3d0f591d	0.034997094
158	0x3d42be3a	0.047544695
159	0x3db8368e	0.089947805
160	0xbb91fdd8	-0.0044553094
161	0xbe0028cd	-0.12515564
162	0x3ddae479	0.10688109
163	0x3cdc80f3	0.026916957
164	0xbd065984	-0.032800213
165	0xbd9b186f	-0.0757302
166	0xbda095d9	-0.07841081
167	0x3cac807b	0.021057358
168	0x3da2500d	0.07925425
169	0x3cdac121	0.02670342
170	0xbd6c6e42	-0.057722338
171	0x3c82ebb5	0.015981534
172	0x3d2ac1eb	0.04168884
173	0xbd41d213	-0.047319483
174	0x3d56e3c7	0.05246332
175	0x3d80c5f2	0.06287755
176	0x3c83b29a	0.016076375
177	0xbc2916ac	-0.010320347
178	0xbcbd9656	-0.023142975
179	0x3de452cc	0.11148605
180	0xbd814561	-0.06312061
181	0x3d569e72	0.0523972
182	0x3d43a132	0.04776115
183	0xbdb621a4	-0.08893135
184	0xbdde3578	-0.10850042
185	0x3d7687b2	0.060188003
186	0xbd06e420	-0.0329324
187	0xbd1231e2	-0.035692103
188	0xbd97859d	-0.073985316
189	0x3dbada0b	0.0912362
190	0xbd8c6eeb	-0.068570934
191	0xbd79dd67	-0.06100216
192	0x3c4138e3	0.011793348
193	0x3d21d5d3	0.03951056
194	0xbdbc0c1e	-0.09181999
195	0x3deafe87	0.114743285
196	0x3d77540f	0.0603829
197	0x3b021630	0.001984965
198	0xbce6039c	-0.028077893
199	0xbcfab38c	-0.030603193
200	0x3d32e9b8	0.043679923
201	0xbc92857e	-0.01788592
202	0x3dcfee95	0.10152928
203	0xbc9150e9	-0.017738776
204	0x3d445968	0.047936827
205	0xbd4aa8d1	-0.049477402
206	0xbddbbae7	-0.10729008
207	0x3d8a66d8	0.06757897
208	0x3d14bd3a	0.036313273
209	0xbe02d076	-0.12774834
210	0x3d96f861	0.07371593
211	0xbdd186a5	-0.102307595
212	0x3beaccd8	0.0071655326
213	0x3cf12151	0.029434832
214	0x3c35373d	0.011060533
215	0xbccbed2c	-0.024893366
216	0x3d2175b6	0.0394189
217	0x3b328d74	0.0027244957
218	0xbde95767	-0.11393624
219	0x3d6bf789	0.057609115
220	0xbda3a002	-0.079895034
221	0xbcc5dd58	-0.024153396
222	0xbda7446d	-0.08167348
223	0x3c88821c	0.016663603
224	0x3ccabc62	0.024748031
225	0xbd9221a7	-0.07135325
226	0x3cf49f27	0.029861046
227	0x3cd23c2f	0.025663463
228	0x3d36a381	0.044589523
229	0x3d362284	0.04446651
230	0x3c3c246c	0.011483293
231	0xbd99cffe	-0.075103745
232	0xbd39c79f	-0.04535639
233	0x3d20fd8d	0.039304305
234	0x3d5a818a	0.053346194
235	0xbdc9d828	-0.09855682
236	0xbdc087a9	-0.09400875
237	0x3cfdf02d	0.030998314
238	0x3dd871c3	0.10568573
239	0x3d6493a9	0.055804882
240	0x3d00800a	0.031372108
241	0xbdbbffed	-0.09179673
242	0xbd972dc6	-0.073817775
243	0x3df1be5a	0.11803885
244	0x3da04d6a	0.078272656
245	0xbd820eaf	-0.06350457
246	0x3cc563e5	0.024095485
247	0xbd46a399	-0.048495863
248	0x3dad5d4d	0.08465061
249	0x3de791b8	0.113070905
250	0xbc5c2b19	-0.01343801
251	0x3d90670d	0.070509054
252	0xbd8769d9	-0.06611986
253	0x3ca41ee8	0.020034268
254	0x3dccfcb8	0.1000914
255	0xbd4c5111	-0.049882

sequential/conv2d_1/BiasAdd;sequential/conv2d_2/Conv2D;sequential/conv2d_1/Conv2D;sequential/conv2d_1/BiasAdd/ReadVariableOp/resource f4 [32]
0	0xbbb6d03b	-0.005579022
1	0xbc5ba159	-0.0134051675
2	0xbbe76a54	-0.007062236
3	0xbd568a5e	-0.05237805
4	0x3c61ab3c	0.013773736
5	0x3c958c7c	0.018255465
6	0xbcdbb2ce	-0.02681866
7	0x3c9ca8d5	0.019123474
8	0x3c2798ab	0.01022927
9	0xbb730d10	-0.0037086643
10	0xbcbee1c7	-0.023301018
11	0x3c264764	0.010148857
12	0x3bd35104	0.006448867
13	0xbcb08857	-0.021549387
14	0x3d08c610	0.033392012
15	0xbd5496ca	-0.051901616
16	0xbc2ba1c0	-0.010475576
17	0x3cd246c8	0.025668517
18	0x3d0b7fef	0.034057554
19	0x3bc9c207	0.006157163
20	0xbd06b873	-0.03289075
21	0x3c20160e	0.009770883
22	0xbd6e5728	-0.058188587
23	0xbbb24720	-0.0054406077
24	0xbd777afa	-0.060420014
25	0xbca0baea	-0.019620378
26	0x3d1d7228	0.038438946
27	0x3b10c179	0.0022087975
28	0xbc5415ef	-0.0129446825
29	0xbd1f624d	-0.038912106
30	0xbcc553e2	-0.02408785
31	0xbd0af938	-0.03392908

sequential/conv2d_2/BiasAdd;sequential/conv2d_2/Conv2D;sequential/conv2d_2/BiasAdd/ReadVariableOp/resource f4 [32]
0	0xbd6fca18	-0.05854234
1	0xbd676de9	-0.056501303
2	0xbcf74fd7	-0.030189438
3	0xbcd5e0a3	-0.026108092
4	0xbd5510e6	-0.05201807
5	0xbd8fa11e	-0.070131525
6	0xbc67cfce	-0.014148666
7	0xbcfdd8d2	-0.030987177
8	0xbd42b48a	-0.047535457
9	0xbcfb9117	-0.030708833
10	0xbdb5bea7	-0.08874255
11	0xbd69f720	-0.057120442
12	0xbcc5bfde	-0.024139341
13	0xbc817686	-0.015803587
14	0xbcb13d79	-0.021635758
15	0xbd87a7cb	-0.06623801
16	0xbd31919c	-0.043351755
17	0xbd750192	-0.05981595
18	0xbd122935	-0.03568383
19	0xbce9adfc	-0.028525345
20	0xbd5fbf32	-0.054625697
21	0xbd7424f3	-0.05960555
22	0xbd042d88	-0.032269984
23	0xbd2fff95	-0.04296835
24	0xbcc24977	-0.023716671
25	0xbd13a318	-0.03604421
26	0xbcd5fb51	-0.026120814
27	0xbce4dc1a	-0.027936984
28	0xbd03ec8f	-0.03220802
29	0xbd678879	-0.056526635
30	0xbc4448f7	-0.011980287
31	0xbd426c40	-0.047466516
