dig_bk_v1.tflite (tflite, 766432 bytes, 12 tensors)

sequential/conv2d/BiasAdd/ReadVariableOp/resource f4 [32]
00000000: 3f33 ff3c 7aef 7b3b 8254 27bd ce8a 8c3c
00000010: 0571 cabb bb47 52bd 187b 72b9 3287 4cbb
00000020: 0c7a f8bc 8967 993b 1642 50bc 197a 0d3c
00000030: 3f82 0cbc 747d 9abc 4b8b c0bc 7c09 153d
00000040: ab50 b0bc 1ade 2bbd f0ef a5bd 0f3b 12bd
00000050: dad0 2cbd 7ace 7cbd 9642 ddbc 196e 50bd
00000060: 7ae9 b83c b23e fcbb 0b10 2dbd 6115 16bd
00000070: 4c53 08bc 3bef 1bbc 7cd9 88bd 0d65 8fbd
0.031152366 0.00384423 -0.040852077 0.017156031 -0.0061780238 -0.05133794 -0.00023124774 -0.0031208512
-0.030331634 0.004681532 -0.012711069 0.008635067 -0.008575975 -0.018858649 -0.02350392 0.036385998
-0.02152284 -0.04195986 -0.08102405 -0.035700854 -0.042191364 -0.06172035 -0.02700929 -0.050886247
0.022572268 -0.0076979036 -0.042251628 -0.036641482 -0.008320641 -0.009517486 -0.06682107 -0.07001696

sequential/dense/BiasAdd/ReadVariableOp/resource f4 [256]
00000000: ad62 b7ba 5e0f 34bc 517a 0d3d b0ba 0ebc
00000010: ebfb eb3a 8f94 0a3d 2f42 a83b 907f b1bb
00000020: 187a bc3c f452 f13b 7a2b d7bc 2cc6 ad3b
00000030: f630 b0bc 2819 16bc 4a59 d3bb f479 a03b
00000040: 188c 563c cc8f 3a3c 3524 c33c 8e7e 813c
00000050: a21e c7bb ad27 9d3c be60 dfbb 6693 403c
00000060: 41e8 c93c 460f 6cbb 326f 85bb a60e b5bb
00000070: 88b7 86bc db76 6bbc 5dd9 9abc 3c91 08bc
00000080: ea75 c6bc 9acc 1abc 7c2d f739 fc55 2a3c
00000090: 57c1 4c3c 8257 033c 9cfa a538 28f8 1cbc
000000a0: f886 833a 582d a8bc 2c71 d7bc 8e97 81bb
000000b0: 7ec7 133c c029 1dbc 2065 063c ebd9 fcbb
000000c0: 6d75 c23c 4dc5 473d 43ad dc3c dbef 4cbc
000000d0: 5225 6e3a 86b8 f2bc 949a 66bc 9a4e 94bc
000000e0: 9fe5 d4bc cd55 f53b 9f06 8a3c db67 55bc
000000f0: b4b7 9b3c 4ef1 b83c 949b 53bc fc93 eabb
00000100: 02af db3c b318 1f3c 9e61 d9bb fa45 d13c
00000110: 0eb5 07bc 1770 283c 71a9 72bc eaf1 b2bc
00000120: 60d5 573c b365 b1bc 55a1 0fbc 5528 a63b
00000130: 7610 513a 8f27 ce3c 3a58 943c 8a8d 7cbc
00000140: 0100 8abb 8879 183c fc7b 63bb a2ef 85bb
00000150: 7513 18bd 85cb cdbb ed60 cb3b f8b9 ba3c
00000160: 8d67 86bc 82dc 7b3b ec1a 483c 903d 7abc
00000170: 01c6 a3bc 7fe2 92bb 922d acbb 03d1 a93c
00000180: 7e5f 593d f709 b13a ffb9 663b 8217 90bc
00000190: b88d 0fbc 54f9 a7bb 94f4 1b3d 610b 06bc
000001a0: 4a91 3b3c 0e6e 933b f799 daba ca93 bcba
000001b0: 1cf0 6dbc 2789 9c3b cd16 36bc e6b9 523b
000001c0: b2f3 adbb 60f1 89bb d295 ac3c d180 08bc
000001d0: 15f2 6abb db15 28bc 06a1 a2bb 1aba cdb9
000001e0: c44a 8fbc 3526 5e3c 294a 46bc b00c 15bc
000001f0: 6dd0 203d f503 a03a 26d4 99bc dc97 aebc
00000200: 8090 48bc 9faf 443a f994 1d3c d656 93bc
00000210: 7f41 48bc 7574 afbc 23a9 b03c 1b6a bdbc
00000220: 9d7a 0a3d 5cec 23bc 08d7 2d3c 98c4 c83a
00000230: 00d1 4dbc 71ce 8a3c 30e6 a1bc a1ba e7bc
00000240: 3369 c3bc d4e1 9e3c eac0 09bc 5620 bb3c
00000250: 6042 6cbc 352c 39bc e8ca 63bc b176 6bbc
00000260: f00e e4bc 590c 13bd f1df 333c 073a 9aba
00000270: 5120 11bc aedc 45bc 572c 51bc 2534 2bbc
00000280: 2b2f 78bb 96ed e13c be58 11bc 2a01 30bc
00000290: 81b7 92bb 50eb 80bc 880c 5fbc e752 d8bc
000002a0: 7526 883a cec8 5e3b d04c 83bc 4c01 ee39
000002b0: 41a3 70ba fd11 c9bb 19fb 4f3b 5777 7b3c
000002c0: 2f47 1a38 33c2 603c 270d 773c 336f 4abc
000002d0: 59b6 63bc 8f0f 6ebc a504 e5bb 1d7d 56bc
000002e0: bd4a 6ebc 3df7 c83c 002e 903c 4aed a63b
000002f0: d6ea 54bc 8eb8 87bc a80d 4b3c ed27 fd3b
00000300: 15e5 463c 2c32 e1bb 76d6 5dbb 4e86 cfbc
00000310: 739e 47bb f831 383b 9b15 1dbc 1036 a5bc
00000320: 24d4 b0b9 1f11 95bc 7a93 3e3c 02ac babb
00000330: 72b6 f5bb 4b6d 2fbd bc6d f4bc 56ad ebbb
00000340: 898e 403c f9a4 0bbd e6b9 76bc 4bfa 253c
00000350: 3616 80bc 7944 6ebc 387e 8dbc aec6 8fbc
00000360: a26a 853c f67f 1b3b 1936 663b 01cb ff3b
00000370: 6fb9 413b bfbf bebc abab c4bc f9db 3cba
00000380: 245e ad39 90a3 be3b b6f6 a03b 6b46 fa3a
00000390: 42ab 9cbc a764 b738 2637 1b3c 1aed aebb
000003a0: caae b63a 1b98 f3bb 3c11 28bc 9a00 75bc
000003b0: fdc7 353c 36c6 663b 03d7 b6bb c083 933a
000003c0: 8fe0 d1bc a2fe 1abc 8ff3 3dbc 9510 103b
000003d0: 28c0 02bc 426e 003d 6c5d 823b 5e3f 773a
000003e0: f932 693c 3f9c 893b 6903 cfbb 7340 62bc
000003f0: b335 9fbc 6514 f03a b6dc c93b 5c2b 85b9
-0.00139912 -0.010989992 0.03454048 -0.008711502 0.0018004155 0.033833083 0.005134843 -0.005416818
0.023007438 0.007364625 -0.026265848 0.005303165 -0.021507721 -0.009161271 -0.006449853 0.0048973504
0.013094924 0.011386823 0.023820976 0.015807416 -0.0060766498 0.019183958 -0.0068169525 0.0117538925
0.02464688 -0.0036019846 -0.0040720934 -0.005525428 -0.016444936 -0.014371599 -0.018902475 -0.008335408
-0.024226148 -0.009448195 0.000471454 0.010396477 0.012497268 0.008016469 7.914493e-05 -0.009580649
0.0010034731 -0.020529434 -0.026299082 -0.0039548343 0.009019731 -0.0095924735 0.008202821 -0.0077164075
0.023737634 0.048772145 0.026938086 -0.012508358 0.00090845407 -0.029629003 -0.01407494 -0.018103886
-0.025988398 0.007487035 0.01684886 -0.013025249 0.019008495 0.022576 -0.012915511 -0.0071587544
0.026816849 0.009710479 -0.0066339513 0.025546063 -0.008282913 0.010280631 -0.014810906 -0.02184387
0.013173431 -0.02165494 -0.008766492 0.005070726 0.000797517 0.025165347 0.018108476 -0.015414605
-0.0042114262 0.009306319 -0.0034711352 -0.0040874043 -0.03712793 -0.006280365 0.006206623 0.022793755
-0.016406799 0.0038430993 0.01221345 -0.015273467 -0.019991877 -0.004482567 -0.005254456 0.020729547
0.053069584 0.0013506998 0.0035206077 -0.017589334 -0.008761816 -0.005126158 0.038075045 -0.008181424
0.011448214 0.0044992035 -0.0016677965 -0.0014387306 -0.014522579 0.004777092 -0.011113835 0.003215426
-0.0053085918 -0.0042096823 0.021067534 -0.0083314935 -0.0035849859 -0.010259117 -0.004963043 -0.00039239303
-0.017491706 0.013558914 -0.012102642 -0.009097263 0.03926127 0.001220821 -0.018777918 -0.021312647
-0.012241483 0.0007502976 0.009618037 -0.017985743 -0.012222647 -0.021417836 0.021565026 -0.023121884
0.03380834 -0.010005083 0.0106103495 0.0015317379 -0.0125620365 0.016944142 -0.019763082 -0.028287234
-0.023853874 0.019394793 -0.008407811 0.022842567 -0.014420122 -0.011302044 -0.013903357 -0.01437156
-0.027839154 -0.035900448 0.010978685 -0.0011766561 -0.0088578025 -0.01207654 -0.012766919 -0.010449444
-0.0037869911 0.02757911 -0.008871255 -0.010742465 -0.004477442 -0.015737206 -0.0136138275 -0.026406718
0.0010387438 0.00339942 -0.016027838 0.00045395864 -0.00091796 -0.0061361776 0.003173536 0.015348277
3.6782756e-05 0.013718176 0.015078819 -0.0123556135 -0.013898456 -0.014530077 -0.006989079 -0.013091353
-0.014544186 0.024531955 0.01760006 0.005094205 -0.012995442 -0.016567495 0.012393393 0.007725707
0.012139578 -0.006872436 -0.0033849753 -0.025332596 -0.0030459433 0.0028105956 -0.009587671 -0.02016738
-0.00033727393 -0.01819664 0.011631841 -0.0056967745 -0.007498556 -0.04282884 -0.029837482 -0.007192294
0.011752733 -0.034092877 -0.01505897 0.010130475 -0.015635591 -0.014542692 -0.0172721 -0.017550793
0.016286198 0.0023727394 0.003512746 0.0078061824 0.002955999 -0.023284791 -0.024007639 -0.00072044093
0.00033067272 0.005817838 0.0049122227 0.0019094473 -0.01912463 8.744868e-05 0.009473598 -0.0053383233
0.0013937589 -0.007433904 -0.010258015 -0.014953757 0.011095044 0.0035213358 -0.0055798306 0.0011254475
-0.025619773 -0.009460123 -0.011593713 0.002198254 -0.007980384 0.03135515 0.003978422 0.00094317447
0.014233344 0.004199534 -0.006317545 -0.013809311 -0.019434785 0.0018316625 0.006160344 -0.00025400042

sequential/dense_1/BiasAdd/ReadVariableOp/resource f4 [11]
00000000: 2ce0 e6bc 67ba 10bd d77a cdbc 2f19 2fbc
00000010: cf37 b738 69c4 9abc 5d6f e8bb ef9b 8cbc
00000020: a8dd 1dbb 48aa 963b a2bf 98bd
-0.028183065 -0.035334017 -0.025082989 -0.010687157 8.736515e-05 -0.018892484 -0.0070933537 -0.017164199
-0.0024088416 0.004597936 -0.07458426

sequential/batch_normalization/FusedBatchNormV3 f4 [3]
00000000: 13ae 15c0 1ed3 b4bf 288f 9bbf
-2.3387496 -1.4126928 -1.2153063

sequential/batch_normalization/FusedBatchNormV31 f4 [3]
00000000: 1ef0 8f3c 3cfe 943c 558f a13c
0.017570551 0.018187635 0.019721666

sequential/dense/MatMul f4 [256, 512]
00000000: 2a3c 1e3d 26be 26bc f98c f73c 5a59 863d
00000010: a407 a43c 6c80 5cbd e935 903d 0cdc dfbc
00000020: aa1a b739 3a64 3639 6461 88bd 9a08 72bd
00000030: bfd7 90bc 5404 f6bc 0ed9 633d bf2e 00bd
00000040: f310 793d 346a 623a 3901 85bd 928b 76bd
00000050: b5e7 de3c 0130 6cbc 4138 3a3b 1edd 7bbd
00000060: f205 b4bd 8ee7 b6bd 2ae6 1d3d a445 88bb
00000070: aff1 8b3d 5e00 fc39 83dc 863d 24ea bebd
00000080: 232b 263c 61fe 0cbd c51f abbd 9263 a2bb
00000090: 5f87 91bd 8c0d a9bd a9e5 dcbc 4749 05bd
000000a0: e968 1fbd 0cd1 e33c 12f5 f33c 0532 31bd
000000b0: 9f1f 8e3a c2b0 ffbb 6553 bebd af66 a33c
000000c0: c465 513d 5920 ad3d 6c17 de3d 1b59 e43c
000000d0: c832 cd3d 16d5 34bb 0564 9f3d bfad 5a3d
000000e0: a8d6 2c3d b1b6 983d 65d6 e63b 9e67 08bd
000000f0: 6e22 13bd 111c c43b 86b3 40bc a5ca 2d3d
00000100: 7013 62bc ec4f 3d3d b0af a1bc 1f03 393d
00000110: 28b1 653c c1fe 65bd 36d1 2f3d 996f 30bd
00000120: f794 ce3d 8861 c6bc a405 123c 6d4a 43bd
00000130: 15ce 903c 597f ad3b b859 9f3d dc90 d03d
00000140: d48d c33c d3b6 973d 57f0 943d 7f22 ae3d
00000150: e1a7 b2bd d045 3e3c 34e0 e3bd bfff 193d
00000160: 5500 3bbd 3d5a a6bd bd23 923d 9d2d 013d
00000170: a104 ec3d 5a6b e63c 5ae0 ac3c 8d05 6a3d
00000180: 6326 22bd 031b ad3c 4c16 6d3a 4ce1 3f3d
00000190: 455d c4bd 9fe6 9abd f5c0 123c dc58 b03c
000001a0: b261 133d 6d03 0bbd a09b c2bd ae63 afbd
000001b0: 63e0 d1bc 80d6 98bd 6176 8fbd c703 52bd
000001c0: b433 3e3d 07d9 66bd 8b53 7ebd c8ea 4e3d
000001d0: b77c 4bbd 9dd9 a0bb 47b6 13bd 95b3 893d
000001e0: 667f 073d 9294 babc 2113 b9bd ed69 a03d
000001f0: 7fd4 023c afeb 5b3a 9c26 e0bc 6f75 333d
00000200: 9cec d43c 610d 3a3b 86b3 633c 8a8f 183c
00000210: 0227 e63d cfda 6b3d 0eb8 16bc 53f4 55bd
00000220: 73f8 c83c 47dd 1b3c 682a ae3c 52e0 da3d
00000230: 297a 903d 750e f93b fab0 4b3d da1d 4c3c
00000240: 4ac1 883c e0a6 203d a73c 9e3c 2127 583d
00000250: f4dc 6fbb a452 e13c f11b febc 6e08 793c
00000260: 98fe a1bd 9d4f 09bd 9788 3ebd 392a 91bd
00000270: 7ddb fabc 2144 8dbd 6b92 4e3d 026f 133d
00000280: 2095 12bd 33a1 a1bc 26fa 773c 46bf 84bc
00000290: 37c9 bbbd 8fec bc3d b1a2 2f3c 46ee 5fbd
000002a0: d95f b1bc 65d5 bd3d c965 f93b 7d02 7fbd
000002b0: dc0a 273d 8db1 6fbd 5f5c f73c ef8c 4abd
000002c0: 3679 16bd fa1b 05bd b723 a23d f399 82bc
000002d0: bf4a 3ebd 08e0 85bd bdb3 97bc 76b3 2c3d
000002e0: eeba 963d 9338 b9bc 2576 a9bd 6b97 9c3c
000002f0: 76b9 3d3d 2af6 953d 457b 3dbd 2655 a03c
00000300: b93a 7ebd f401 dbbd 1154 3dbb 490f 6a3d
00000310: 4e1e 28bd 829a 153d 3741 a4bc 7d42 65bd
00000320: 3d49 453d 9784 ae3d 8c1e 56bc 79f3 043d
00000330: 063e 793d 5896 3b3d a3d8 e13c 8fb8 a4bd
00000340: 12e3 7dbd c673 dd3b ee49 fa3d c452 77bd
00000350: 8516 dfbc 9fef 12bc 1b69 f03c a899 e83c
00000360: ede1 bfbd ba32 f53c 66ee 6a3d 07ed d83d
00000370: 07ca d9bd 77d5 b2bd 3a20 423d bb4a 7b3d
00000380: ac60 66bd 0dc1 823d c483 c5bc 3d05 2ebc
00000390: 4e5e 9f3d a657 963d 33bb 78bd 1e6d 2e3d
000003a0: 220d 65bd 1c8d 55bd e23e 503d 3683 ce3b
000003b0: ed01 c3ba 3dcf 693d 7d00 78bd ea1b 96bc
000003c0: 82ed 48bb 2a13 803c fb10 33bd c8d5 6c3c
000003d0: d9d5 05bd bb9b 70bd 79de 60bd 3f50 4fbd
000003e0: 867a 2abc 7d99 9dbd 94e9 28bd 5d6b 373d
000003f0: 569b 333d c1ee 7f3d c06d ae3d 1e63 4f3d
0.038631596 -0.010177171 0.030218588 0.06560011 0.020023175 -0.05383341 0.070415325 -0.027326606
0.00034924346 0.0001739421 -0.06659201 -0.059090234 -0.017681 -0.03003136 0.05562692 -0.03129458
0.06080718 0.00086370413 -0.06494374 -0.0601917 0.027210096 -0.014415742 0.0028414878 -0.06149017
-0.087901965 -0.08930884 0.03854958 -0.0041586924 0.06833207 0.0004806546 0.06585028 -0.093220025
0.0101421205 -0.034422282 -0.08355669 -0.0049557174 -0.07105898 -0.08254537 -0.02696498 -0.032540586
-0.03891841 0.027809642 0.029779945 -0.043260593 0.0010843164 -0.0078030536 -0.0929325 0.019946424
0.051122442 0.084534355 0.10844311 0.02787452 0.100194514 -0.002759283 0.07782749 0.053388353
0.0421969 0.074567206 0.007044601 -0.033301942 -0.035921507 0.005984791 -0.011761552 0.042429585
-0.01379858 0.046218798 -0.019737095 0.045168992 0.014019288 -0.056151155 0.04292413 -0.043075178
0.100870065 -0.024216428 0.008912478 -0.0476784 0.017676393 0.005294722 0.07780784 0.1018388
0.02387134 0.07407918 0.07272404 0.08502673 -0.087234266 0.011613324 -0.11126748 0.037597414
-0.045654614 -0.0812268 0.07135723 0.03153764 0.115243204 0.028127361 0.021103073 0.0571342
-0.03958739 0.021131044 0.0009044155 0.04684572 -0.09588102 -0.07563519 0.008957137 0.021526746
0.03598184 -0.033938814 -0.09502339 -0.08563934 -0.025619691 -0.07462788 -0.07005001 -0.051273134
0.046436027 -0.056359317 -0.06209139 0.050516874 -0.049679484 -0.004908754 -0.036062505 0.06723706
0.03308048 -0.022775922 -0.09036852 0.07832704 0.007985233 0.00083893066 -0.02736216 0.043813165
0.02599173 0.0028389322 0.013897782 0.009311566 0.11237909 0.05758172 -0.0091991555 -0.05223496
0.024532532 0.009513206 0.021260455 0.10687317 0.0705455 0.0076006004 0.049729325 0.012458289
0.01669373 0.039221644 0.01931603 0.05277169 -0.0036600204 0.027505226 -0.031019183 0.015199764
-0.07909888 -0.03352319 -0.04651698 -0.070881315 -0.030622238 -0.0689776 0.050432604 0.035994537
-0.035786748 -0.019730186 0.015135324 -0.016204488 -0.09169238 0.092248075 0.010719941 -0.054670595
-0.021652149 0.092692174 0.0076110107 -0.062258232 0.04078184 -0.058518935 0.030195413 -0.04945081
-0.03673669 -0.032497384 0.07916968 -0.01594255 -0.046458002 -0.06536871 -0.018518323 0.042163335
0.07359873 -0.022609985 -0.082744874 0.01911517 0.046319447 0.07322343 -0.046260137 0.019571852
-0.06206772 -0.10693732 -0.0028889219 0.057143483 -0.041044526 0.036524303 -0.020050628 -0.05597161
0.04816555 0.08521383 -0.013068806 0.032458756 0.060850166 0.045797676 0.02756912 -0.08043014
-0.06198413 0.006758186 0.12221132 -0.060381666 -0.027232418 -0.008968263 0.029346993 0.028393582
-0.09369264 0.029931415 0.05735626 0.105920844 -0.10634237 -0.087321214 0.047394015 0.061350565
-0.056244537 0.06384478 -0.024110682 -0.010621366 0.07781659 0.07340936 -0.060725402 0.04258453
-0.055920728 -0.052136526 0.05084122 0.0063022627 -0.0014877893 0.057082403 -0.06054734 -0.018323857
-0.0030659144 0.015634138 -0.043717366 0.014455266 -0.032674644 -0.058742266 -0.054899666 -0.050613638
-0.010405188 -0.07695291 -0.041238382 0.044780124 0.04384931 0.062483553 0.08517027 0.050631635

sequential/dense_1/MatMul f4 [11, 256]
00000000: 43ed 873d b32e 203d 2892 6b3d 42ea f7bc
00000010: 7a73 913d fbc9 2bbd 4f9c d5bd 686d 26be
00000020: 3ca7 ab3d baf2 d53d a248 df3d 6940 9dbd
00000030: 3f7b d03b 5de6 10be e2ba 09be c66b b83c
00000040: 6f4e efbd e4f9 12be b7d0 85bd 3b64 1dbe
00000050: 2518 babd cfd5 443d 6717 fa3c d7d5 d9bd
00000060: 37cf 5d3d 461d 993d 9478 d0bd 783a 12bd
00000070: df33 9f3d cd52 d43d 68a0 263d 67cb d63d
00000080: d76d e8bd 96f9 1b3c 99ea 973c 334b d43d
00000090: 9002 1bbe d16c 54bb 62e1 6fbd d6f9 f6bd
000000a0: 2d40 38be da28 bbbd e1e7 fd3d 8cd7 ae3d
000000b0: 87d2 4a3d 35c4 b93c 3f68 dbbd 72ab c43d
000000c0: 34c9 16be fdc9 21be beca 1abe 03ea bf3d
000000d0: 8115 99bc e884 dabb c350 25be 13bf 02bd
000000e0: 927f 543d bb32 59be f5bb 00bc 50ae 92bd
000000f0: 1554 88bd fd86 c6bd aade abbc 1464 553c
00000100: ebd4 3abd 8693 ad3d fb85 b03c a5c8 1f3d
00000110: eca4 5f3d a52e 73bd dc64 be3c e853 853d
00000120: 6c9e cebd 110f fcbc 6936 df3d f8bc 49bd
00000130: 042c 003e b52c 02bd c9ed 8dbd 4a9d f43d
00000140: 85bf 88bc 4a24 8ebd a271 03be ea2c 39be
00000150: b919 403d ccc8 073d a2db d53c 78bc 33be
00000160: 3e54 95bd d0b4 013e 2509 20be 8e7f ad3d
00000170: c144 203d f812 3a3e 2ce4 9d3d bba6 a8bd
00000180: aecb 8e3c 74b5 a83d b59f 44be ca0c 603b
00000190: d076 99bd 102f 38be d58f adbb 749e 26be
000001a0: 0479 603c e0a3 43be bee4 a03d 1290 5abd
000001b0: db24 f1bd 6205 b7bd a1f2 51bc f387 c4bc
000001c0: 9c41 3fbc a4e5 2bbe 220d aa3d eab1 09be
000001d0: baad dcbd aa87 40bd eb34 aa3d c14c 87bd
000001e0: a9d9 6abc 59cd 0bbe 116f ab3d cd97 3dbe
000001f0: 7144 e1bc 7567 91bd 168e a23d aff6 2dbb
00000200: f285 c2bc 67e6 e5bd 9d35 02bd 1141 9cbb
00000210: a87c 123e 7bda 3a3d 98b9 1cbd cc92 a43d
00000220: 80a7 88bc 47fd dc3d c554 41be dd39 0f3d
00000230: 82d7 3b3d 36f0 d43d 8337 7e3c 1613 18be
00000240: 4b46 953d 52d9 15bd 1080 cebd 0ab1 003e
00000250: 2c25 2abe 0e06 27be 1f4c 9c3d 9e71 11bd
00000260: dd89 ff3d 1e99 cabd 99a5 ce3b 0867 22be
00000270: 990f 4c3d 016a 04be b4c3 4d3d ec9e 10be
00000280: a956 59be f223 2e3b 06f7 e4bd d8d1 0abe
00000290: 2dc9 a83d ae10 08bd 01f4 b73c ed0a ef3d
000002a0: b99d 23be 68bd e2bc 25cf 3ebe ab88 04bd
000002b0: edb6 1ebb 6632 95bd c7a4 26be 2d3e 953d
000002c0: 0f83 133e 9a43 09be fb77 e93c 678f ad3d
000002d0: 911c bf3d 3b58 1d3e 056f b2bc 59dd 0abe
000002e0: e9ef dc3d b530 95bd e06d d43d 7b1a 01be
000002f0: 9a90 c6bc bfbe 2dbe 002f 0cbd fecb 15be
00000300: 4af0 bc3d b46b dd3d 55e8 48be eec6 e93d
00000310: 41b9 13be cdb7 023e 228b 023e 271c d53d
00000320: cb62 8f3d b777 68bd 90a9 bbbc 7c52 49bd
00000330: 3fb0 d93d f35e 1b3d 9771 d93d e4ae 18bc
00000340: aa6c 11be 3af2 98bd 3f07 19be 0555 24be
00000350: 68b1 83bb 56e7 073e 6813 6dbb b9e9 56bc
00000360: 513a b33c 7719 01be fc04 84bd e060 48be
00000370: ac93 80bb dd0b a03d cc45 20bd 6830 ebbb
00000380: 6b88 c8bc a65d 15be 6443 20be c555 643d
00000390: be50 be3d 2906 7cbc 8360 b1bd 94b7 d3bc
000003a0: 22e8 a93a 43e0 5d3d a7fb bbbd 71ab 05bc
000003b0: 4bb6 d13d 1147 2a3d de63 b93d c5ba 16bd
000003c0: 9c26 10be 6376 bd3d 9426 c7bd 47e6 08be
000003d0: d183 89bd b87c 2fbe 1577 96bc 14fd a6bc
000003e0: 442a 203d e6bc 54bd 3744 dabd 2c87 dd3d
000003f0: 3ca2 aa3d 5d8d 84bd 64fb 09be 115d f9bd
0.06637051 0.039107036 0.057512432 -0.03026307 0.071021035 -0.04194067 -0.10430204 -0.16252673
0.08381507 0.10446687 0.109025255 -0.07678301 0.0063623483 -0.14150377 -0.13450196 0.022512328
-0.11684882 -0.14353138 -0.0653395 -0.15370266 -0.090866365 0.048055466 0.030528737 -0.1063649
0.054152694 0.074762866 -0.101792485 -0.03570029 0.077735655 0.103673555 0.04068032 0.10488015
-0.11349075 0.009519955 0.018544482 0.103659056 -0.15137696 -0.0032413492 -0.05856455 -0.12059371
-0.17993231 -0.09138651 0.12397743 0.08537206 0.04951718 0.022676567 -0.10713243 0.09603013
-0.1472519 -0.15799709 -0.15116403 0.09370806 -0.018687012 -0.0066686757 -0.1614409 -0.031920504
0.051879473 -0.21210758 -0.007857312 -0.07162154 -0.066566624 -0.09693716 -0.020980198 0.013024349
-0.04561321 0.084754035 0.021548262 0.03900971 0.05460064 -0.059370656 0.023241453 0.065101445
-0.1008881 -0.030768903 0.1089905 -0.04925248 0.1251679 -0.031780917 -0.069301195 0.11944063
-0.016692886 -0.06940515 -0.12836316 -0.1808354 0.04689953 0.03315048 0.026105706 -0.17552364
-0.072914585 0.1266663 -0.15628488 0.08471595 0.03912807 0.18171299 0.07709536 -0.08234926
0.017431106 0.082377344 -0.19201548 0.003418731 -0.07493365 -0.17986703 -0.005296687 -0.16271383
0.013700727 -0.19105482 0.07856129 -0.053360052 -0.11774608 -0.089365736 -0.012814195 -0.023990607
-0.011673357 -0.1678682 0.08303286 -0.13446775 -0.10775323 -0.04700438 0.083108746 -0.066064365
-0.014334121 -0.13652553 0.083707936 -0.18514939 -0.027498456 -0.07099811 0.07937257 -0.002654474
-0.02374551 -0.112255864 -0.03178941 -0.0047684987 0.14305365 0.045618515 -0.038262933 0.08035812
-0.016681433 0.10790496 -0.18879993 0.034967292 0.04585982 0.10397379 0.015516165 -0.1485103
0.07288798 -0.036584206 -0.1008302 0.12567535 -0.16615742 -0.16310903 0.076317064 -0.035508744
0.12477467 -0.09892486 0.006306362 -0.15859616 0.049819563 -0.12931062 0.050235465 -0.14123124
-0.21224464 0.0026571718 -0.111799285 -0.13556612 0.08241496 -0.033219032 0.022455217 0.11672006
-0.15978135 -0.027678207 -0.18633707 -0.0323569 -0.002421792 -0.07285003 -0.16273795 0.0728725
0.14405464 -0.13404694 0.028499594 0.084746175 0.093316205 0.15365689 -0.021781454 -0.13561
0.10787947 -0.07284681 0.103725195 -0.12607758 -0.024238873 -0.16967295 -0.03422451 -0.14628598
0.09225519 0.10811558 -0.19619878 0.11414896 -0.14426138 0.12765427 0.12748387 0.1040576
0.07001265 -0.056754794 -0.022908002 -0.04915093 0.106293194 0.037932348 0.10617369 -0.009319041
-0.14201608 -0.07468076 -0.1494417 -0.16048057 -0.004018951 0.13271841 -0.0036174897 -0.013117247
0.021878393 -0.1260737 -0.06446263 -0.19568205 -0.003923854 0.07814763 -0.039129063 -0.0071774013
-0.024479112 -0.14586505 -0.15650707 0.05574586 0.09292744 -0.015382328 -0.08660986 -0.025844373
0.0012962858 0.05416895 -0.09178858 -0.008158551 0.10239848 0.04157168 0.09052251 -0.03679921
-0.14077228 0.09251096 -0.09724155 -0.13369094 -0.06714595 -0.1713742 -0.01836733 -0.020384349
0.039102808 -0.05193796 -0.10657542 0.108167976 0.08331725 -0.064722754 -0.13474804 -0.12175954

sequential/conv2d/Conv2D f4 [32, 3, 3, 3]
00000000: c7d1 0bbe a16c d03d dd8b ddbc 1879 d9bd
00000010: bec7 c83d b1c2 f13c 61ed 84bd 5df4 323e
00000020: 5792 263e cccd 16be 586c d83d a61e 2d3c
00000030: 4d4f 24be c48b b53d fb8e 16bd 442a 7abc
00000040: 0c31 c03c d8cb c13d 03ff 97bc d2f1 96bc
00000050: 8e61 6f3c c128 a4bc 6a19 c83d 17ff 8fbd
00000060: f3ec 973c 87db 3f3e bf4c e4bc 8792 923d
00000070: 9551 adbd 4977 d33d bb4b a93d aa86 50bd
00000080: dbe2 69bb e7d4 fbbd a508 103d 5498 863d
00000090: c234 403d 9aaa 8c3a 8a0a 0fbe 7a99 4bbd
000000a0: 7057 a53d 086d 09bc b207 0b3d e697 06bd
000000b0: 06a3 1bbe 1fd7 ba3d be61 dcbc ec30 34bc
000000c0: 244e d8bc bfe3 fbbd 517b a83c de92 b03d
000000d0: 486c a23d b5f5 43be 63c9 d0bd 7539 92bd
000000e0: b34b 22be ef14 2f3d bc90 e1bd c172 19bc
000000f0: 3c11 bbbd d36a e53b 9765 b73d 01a1 83bd
00000100: 373e 333c 8b38 4cbd cfd6 ea3d 3587 0c3e
00000110: 1489 093b 0628 383a 76cf b83d 4144 703d
00000120: 2041 d33d 2ea3 423d a367 55bc f259 acbc
00000130: edd4 893d 6e7a d13d 342f 1fbd 8afd 0cbc
00000140: f336 e6bd 15db 013e 903f 123e 7c58 763c
00000150: 6c5d d73c 66e2 ad3d f585 1d3d d745 883d
00000160: ed57 5b3d f48f e93d 8f74 ecbc caba db3d
00000170: 6833 dab9 e175 cd3d 9d8f 12bd c946 773c
00000180: 9728 c7bd cf83 f9bd 18df 39be 4fa3 4ebd
00000190: 4819 38be 084b f2bd 8a26 003e eeea 1cbe
000001a0: 06e0 edbd 8546 f73d 21b5 02be 82ce 19bc
000001b0: 1661 d13d 4240 70bc 6277 46bd 2245 3b3e
000001c0: 43ee 033e 5e95 d23a 30fc d8bc bef6 89bd
000001d0: 1647 0ebe 51cb 9c3d 4771 c1bd 61b5 b23d
000001e0: 4b9b dabc 3f9e bcbd 5298 153e f011 12be
000001f0: 5801 ecb9 cfc1 ed3d 100a d8bd e061 18be
00000200: dbbe 8a3d bd1a 94bc 1ef9 903d 2422 8ebd
00000210: 8c75 a4bd abb1 c83d c0a6 983d e9e6 9a3d
00000220: 8256 edbd a13a 573c 0c82 0abe cecc 07bc
00000230: 032c 3dbd b086 0ebe cf6a 053d 9be0 2fbe
00000240: e0bb a73d d3af e63d 42b8 fc3c ed50 8d3d
00000250: 514a 263d dde8 283d 2332 18be 2ccc 8fbc
00000260: 0c47 d53d 1d3a c7bd 0a8c 4c3d e57b f33d
00000270: f83d ae3d 69c8 79bd 10b1 e9bd 3b2d 1f3c
00000280: 46d5 f33d a132 c93d 1dfb 02be 54ee 90bd
00000290: dab8 883c 46a6 c7bc 808c 033e d681 023e
000002a0: ec14 fb3d ec7c 183b 88ad 2d3d 2331 993d
000002b0: 22a9 c4bd 2a28 433b 2f5d ce3d 07a9 85bd
000002c0: 6750 b63b f07c 533d d017 d83d 7d34 4a3d
000002d0: fe03 91bd f7a7 ffbd 470a 7c3c e37a 29be
000002e0: 9eab f0bc 70e3 373d 4c91 353d 3c48 d73d
000002f0: c6bd f4bd aa3f acbd b1d7 e6bd 1b5c ff3c
00000300: 08b7 213e b850 b03c 9603 c33d 0086 04bd
00000310: 29de a2bd 1f30 573d f865 36be c770 53be
00000320: 5aa2 83bc 506b c23c d854 e03d 2882 fe3d
00000330: e8c0 f53d 8b56 c03d e343 253c b3e7 06be
00000340: c950 e4bd 0cf5 36be 62cf 603d ed2a 133e
00000350: bd69 293d f916 b33d 72f2 733d cd77 173d
00000360: 0e7f 51bd 8464 f33d b52a e5bd 1486 e83d
00000370: a127 c2bd afc8 e9bd 8ef5 593d e91d cd3c
00000380: 0be9 20bd cddc 42bd 57de eb3d dcee 343b
00000390: 6b7d 003e be14 0dbd 0cb5 f9bd e2cf 493e
000003a0: c453 9a3c 45f4 fbbd 7a5c a1bd a5cd c13d
000003b0: 96ae f13d 19e0 b03c b3a0 99bd e472 14bd
000003c0: 5c15 a8bc ada8 edbd 7db2 f6bd d6e7 803d
000003d0: 5efe 14be 3459 14bd e0d7 19be 6faf 2c3e
000003e0: 70aa 073e 57dd 11be 717d 1c3e d4db ef3d
000003f0: b0cb aa3d 43be 0dbe 4875 68bd 4ca3 f7bb
-0.13654242 0.10176969 -0.027044231 -0.106188 0.09803723 0.029511781 -0.06490589 0.1747603
0.16266762 -0.14726943 0.1056754 0.010566389 -0.16045876 0.08864549 -0.03675745 -0.015268866
0.023460887 0.09462708 -0.018554216 -0.018425856 0.014610661 -0.020038964 0.09770472 -0.070310764
0.018545603 0.18736087 -0.027868627 0.07156854 -0.08462826 0.10325486 0.082663976 -0.050909676
-0.0035688195 -0.12296467 0.035164494 0.06572023 0.046925314 0.0010731996 -0.13968864 -0.049706914
0.08073318 -0.0083878115 0.033942886 -0.032859705 -0.15198907 0.09123062 -0.026902076 -0.010997992
-0.026404448 -0.122992985 0.020566614 0.08621763 0.07930809 -0.19136699 -0.101946615 -0.07139865
-0.1584919 0.042744573 -0.11013934 -0.009365738 -0.091341466 0.00700126 0.089549236 -0.064271934
0.010940126 -0.04985861 0.11466753 0.13723452 0.0020986246 0.0007025007 0.09023945 0.058658842
0.10315156 0.0475189 -0.013025197 -0.021038983 0.067300655 0.1022843 -0.038863376 -0.00860537
-0.112409495 0.1268123 0.1428206 0.015035745 0.026289664 0.08490448 0.03845783 0.06653946
0.05355065 0.1140441 -0.028864173 0.107289866 -0.000416185 0.10032249 -0.03578149 0.01509256
-0.09724539 -0.121833436 -0.1815151 -0.050448712 -0.17978394 -0.11830717 0.12514701 -0.15323994
-0.11614995 0.120739974 -0.12764408 -0.009387614 0.10223596 -0.014663758 -0.048453696 0.18288091
0.12883858 0.0016066243 -0.02648744 -0.067365155 -0.13894305 0.07655967 -0.09445434 0.087260015
-0.026685378 -0.092098705 0.14608887 -0.14264655 -0.0004501443 0.11609232 -0.10548794 -0.14881086
0.06774684 -0.018079156 0.07078765 -0.069401056 -0.08030233 0.097995125 0.0745368 0.07563574
-0.11588766 0.013136537 -0.13526171 -0.008288575 -0.04618455 -0.13918567 0.032572564 -0.17175524
0.08190131 0.112640046 0.03084958 0.06900201 0.040598217 0.0412377 -0.14862876 -0.017553411
0.10413942 -0.09727881 0.04993824 0.118888654 0.08507913 -0.06098214 -0.11410725 0.009715374
0.11905913 0.0982411 -0.12791105 -0.070767075 0.016689707 -0.024371278 0.12846565 0.12744841
0.1225985 0.0023267819 0.04240182 0.07480075 -0.09602572 0.0029778578 0.10076367 -0.0652638
0.005563784 0.05163282 0.10551417 0.049366463 -0.070808396 -0.124832086 0.01538331 -0.16550784
-0.029378708 0.044894636 0.04432802 0.105118245 -0.11950259 -0.084105805 -0.112716086 0.031171849
0.15792477 0.021522865 0.09522168 -0.032354355 -0.0795253 0.052536126 -0.17812335 -0.2064849
-0.016068626 0.023732811 0.10953683 0.12427169 0.119996846 0.09391507 0.010086986 -0.13174324
-0.11148221 -0.17866915 0.054885276 0.14371844 0.041360606 0.08744616 0.059557386 0.036979485
-0.05114656 0.11884406 -0.11189786 0.113536984 -0.09480215 -0.114152305 0.053212695 0.025038676
-0.039284747 -0.047573853 0.11517017 0.0027608192 0.12547843 -0.03444361 -0.12192735 0.19708207
0.01883877 -0.1230245 -0.07878967 0.09463052 0.11800878 0.021591233 -0.07501354 -0.03624238
-0.020517997 -0.11604438 -0.12045763 0.06294219 -0.14550158 -0.036217883 -0.15023756 0.16863798
0.1324861 -0.1424459 0.15282227 0.11711851 0.083396316 -0.1384211 -0.056752473 -0.0075573083

sequential/conv2d_1/Conv2D f4 [64, 3, 3, 32]
00000000: 8db1 4c3c f580 a7bc 322d 04bd 6c17 32bd
00000010: be41 8d3d ae56 153d 1602 e93c dcd2 223c
00000020: 4298 523d 9d3e 9dbd 7216 3b3d 79b3 f43c
00000030: d355 073d 94b9 263d 384f c03c d207 35bb
00000040: 8d95 31bd 2463 983c afb9 2d3d 67f0 c83d
00000050: b43e b1bd 8562 c03c 4f12 dfbc 869e 883b
00000060: aea0 5a3d 2e12 583d 5d93 15bd 98a3 f53a
00000070: cc95 243d 8276 fa3c 48a3 b2bd 5c9c 053a
00000080: c78a 9c3c 0a61 cc3c 9c9b 3abd 2f9a 76bd
00000090: b0e6 0d3b d63f 173c 0760 a63d d711 1a3d
000000a0: 1b30 343d 904f 613d efd1 7fbd f3d3 1fbd
000000b0: 896e 1dbd 66c6 e7bd a4b4 c2bc 24d7 973d
000000c0: 1fb4 273d 6f13 abbc da34 cabd 5fc5 0f3a
000000d0: ffb0 a8bd 27d8 953d f016 fb3c 7b79 053d
000000e0: d315 acbd 63cf be3c 20aa 3338 7db3 57bd
000000f0: 4658 26bd af2f 84bd d29f f0bd 1150 c8bc
00000100: 9fcc bf3d a6a0 103b fb84 c5b9 c488 6bbd
00000110: 9fcc 713d 6f79 973d 7060 d5bc 77db 51ba
00000120: 0eae 603d eccd d83d ebcc e03c c837 c3bd
00000130: 9c90 39bd 2d86 49bd 0f47 56bd 6f91 ef3a
00000140: 7fae a5bd 06b6 913d 98ad e5bc c45b 7b3d
00000150: 2a54 4c3c 4f3e 0bbd 9e78 9f3d 52b9 60ba
00000160: 1903 a63d 77d5 563d 6159 bb3d ab57 a33d
00000170: 53e8 863a 862d c2bd 5cc0 cb3c 6ac2 ac3d
00000180: 2675 b13d 1cd4 4d3d 9391 203d d3bf 833d
00000190: 95d4 643c 0125 7fbd f10f 963c bcd7 523c
000001a0: 255a a2bd fffc ef3c 1ec4 febc 65c2 093b
000001b0: 9843 c63d ed41 c73d a2ba de3c 781e 33bd
000001c0: bed4 eebc dd85 303d 8231 08bd ad5e e43d
000001d0: dd56 a53d a203 6e3d 95c8 ccbc 387a 8d3d
000001e0: 948b 8139 95db 5dbc 672f 043d 6900 fcbc
000001f0: 52f4 963b 145c 533d f397 953d 081d af3d
00000200: c8a6 643d dfb6 7f3d 38f4 d13d 004d 5bbd
00000210: 850f 1f3d 3942 90bd e8f1 963b d5de 69bd
00000220: 2c43 78bd 176f 873b b59d 353d 1067 c3bd
00000230: 9a08 81bd e3a1 0bbd 07a9 b43d 0723 823d
00000240: 2aaf 99bd 5538 40bd 265e 1c3d 71e7 c5bc
00000250: a99c 9c3d 88f3 ab3c cf07 2ebd c881 88bd
00000260: 8290 4e3d b982 393d 0c62 013e ed63 a43c
00000270: 2bec 85bd 965e a1bd ff4d 71bd e2ca 2abd
00000280: cacd 10bd af67 9fbd 357e 09bd 82cf 883d
00000290: 826d a83d f13e a9bd 0dae 163d 9b58 0fbd
000002a0: 43f3 693d 1b28 adbc 9e82 9f3d 1284 203c
000002b0: 3995 993d 9bdf 74bb 2ec7 6abd 6ba8 84bb
000002c0: cafb 8ebd 24bb bebb 5a82 373d 113e 923d
000002d0: 911b bb3d e6b9 fc3d c40a 053d e6bf 72bd
000002e0: fea7 d23d bfef 51bd df28 463d a9f1 34bd
000002f0: b555 a2bd 6010 da3c 779d 95bd db67 bd3d
00000300: 37c9 693c eae8 9ebc 882c 653d a9ae 583d
00000310: 3837 a2bb 5ada d3bd 5349 2e3b 5ef8 35bd
00000320: 05e9 d0bd 9470 633d a7a3 683d 9bc6 08bd
00000330: 7755 7e3d 3d58 753d bd5d 67bd c352 93bd
00000340: 5102 d9bc 41f0 56bd 36ee 853c 83c3 e5bc
00000350: 4cfa 563d 574d ad3d 6fb1 02be f843 52bd
00000360: 6ee7 793d b342 ab3d 2a7f fb3c 53e4 fd3b
00000370: 5ad1 c23a d462 abbd 2562 efbd d081 a23d
00000380: e963 203d ce93 abbc 010f 5a3d 309e 95bd
00000390: f217 a1bd 03c0 18bc c47b 343d 1466 e4ba
000003a0: a99b 91bd b65a e7bc c04c 84bc 49cb 11bd
000003b0: 395a ea3c 46e8 acbd 7ab0 f7bb fefe 9fba
000003c0: 001f 663c 33e9 783d 117e b3bd 1d82 8c3d
000003d0: e164 233d 32c9 40bc ed4a 263b 1bea 93bd
000003e0: 844d 3fba f129 dbbc f963 7cbd 22dc 19bd
000003f0: 5d51 03bd e759 a53c d016 d2bd c16a 97bc
0.012493503 -0.020447234 -0.032269664 -0.043479368 0.06897305 0.036459617 0.028443377 0.009937968
0.051414736 -0.07677958 0.045675702 0.029870735 0.033040833 0.040704325 0.023475274 -0.002762307
-0.043355513 0.018601961 0.04241341 0.09811478 -0.08654538 0.023484478 -0.02723041 0.004169288
0.053375892 0.052751713 -0.03651749 0.0018740771 0.04018192 0.030574087 -0.0872255 0.0005096847
0.019109143 0.024948616 -0.045558557 -0.060205635 0.0021652393 0.009231528 0.081237845 0.03761467
0.04399119 0.055007517 -0.062456068 -0.03902049 -0.038435493 -0.113171384 -0.023767777 0.07414082
0.04094326 -0.02088329 -0.09873362 0.00054844277 -0.08236884 0.073166184 0.030650586 0.032586556
-0.084026 0.023292249 4.2835367e-05 -0.052661408 -0.040611528 -0.064544074 -0.11749233 -0.024452241
0.093652 0.002206841 -0.00037673846 -0.057503477 0.059033033 0.073962085 -0.026046962 -0.000800542
0.05485349 0.105861515 0.027441463 -0.09532124 -0.045303926 -0.049200226 -0.05231386 0.0018277596
-0.08089923 0.07114796 -0.028036878 0.06136681 0.012471238 -0.03399497 0.07786678 -0.0008572537
0.081060596 0.05244967 0.09147907 0.07975706 0.0010292627 -0.09481339 0.024871998 0.08435519
0.086649224 0.05025111 0.03920133 0.06433072 0.013966699 -0.06229115 0.018318148 0.012868818
-0.0792735 0.029295443 -0.031099375 0.002102041 0.09680861 0.09729371 0.027188603 -0.04373023
-0.029154178 0.043096412 -0.03325034 0.111508705 0.080732085 0.058108933 -0.024997989 0.06908077
0.0002470879 -0.013541122 0.03227177 -0.030761914 0.004606762 0.051601484 0.07304373 0.08550459
0.055823117 0.06243026 0.10251659 -0.05354023 0.03883316 -0.07043881 0.004606474 -0.057097275
-0.060610935 0.004133116 0.044339854 -0.09541142 -0.06300469 -0.034089934 0.08821302 0.06354337
-0.07504113 -0.046928722 0.038175724 -0.024158211 0.07647068 0.020990148 -0.042487916 -0.06665379
0.050430782 0.045290682 0.12635058 0.02006718 -0.06539186 -0.07879369 -0.058912273 -0.04169739
-0.035352506 -0.07783448 -0.033567626 0.06680204 0.08224012 -0.08263958 0.03678708 -0.03499661
0.057116758 -0.021137288 0.07788585 0.009797113 0.07499165 -0.0037364725 -0.05731886 -0.0040483973
-0.06981619 -0.0058206487 0.044802047 0.071407445 0.09136117 0.12340145 0.03248097 -0.05926504
0.10285948 -0.05125403 0.04837882 -0.044175778 -0.079265036 0.026619136 -0.07305425 0.092483245
0.014269165 -0.019398171 0.05595067 0.052900944 -0.0049504302 -0.10344382 0.0026593998 -0.044426315
-0.10200695 0.055527285 0.056796696 -0.03339253 0.062093224 0.059898604 -0.05648588 -0.0719352
-0.026490362 -0.052475218 0.01634894 -0.028047329 0.052484795 0.08462017 -0.12762998 -0.05133435
0.061011724 0.08362331 0.030700285 0.0077481656 0.0014863417 -0.08368459 -0.116886415 0.07934916
0.03915778 -0.020944502 0.053236965 -0.073055625 -0.07865895 -0.009323123 0.044063345 -0.0017425441
-0.07109768 -0.028241497 -0.016149879 -0.03559426 0.028607475 -0.0844274 -0.0075588794 -0.0012206731
0.014045477 0.06076927 -0.0876428 0.06860755 0.039891127 -0.011766719 0.002537425 -0.072223864
-0.00072976225 -0.026753398 -0.06161878 -0.03756345 -0.032060016 0.02018447 -0.102582574 -0.018483521

sequential/conv2d_2/Conv2D f4 [64, 3, 3, 64]
00000000: b36b 16bb 6d3a acbc 5efa 7e3c c766 1abd
00000010: 5801 8bbc 05a3 5a3c e66e 1cbc 0155 253d
00000020: 0cf6 9ebd 6c26 e43c 08e5 50bb ed0c 643d
00000030: 6b01 fbbc c83a 1cbc 77fb b83c cd6d bcbd
00000040: 4b10 15bd 6a66 59bd 453a a7bd 17d6 8c3d
00000050: 966f 17bd 6d99 66bd 506b e43c 2e8d 443d
00000060: f143 41bb 5c29 293c db5d 333d 7fba 13bd
00000070: 3781 51bc d83a a0bd 8d78 3fbd 5d3e f5bc
00000080: 96b1 25bc 03b9 65bd 5878 9dbd 6fbb 2bbd
00000090: 402b 38bd c4ac 533d 7376 d53c a20a e43c
000000a0: 4b3e efbc 5ae1 433d de07 8dbd 1f22 95bd
000000b0: 197c da3c c434 13bd 1f2f abbd e427 a23d
000000c0: 2953 0fbd 7488 b93d 72a5 193d f834 f6bc
000000d0: 3bca 37bd 3128 c63c 82a8 46bc c520 883c
000000e0: f4e8 fe3c c922 8a3d 02e8 4a3c e001 05bd
000000f0: 63fc 563d e31d cc3b 4ad3 80bc 525c 8bbc
00000100: fbbd 3b3d e535 86bd a71a 473d 674b 0a3d
00000110: 0976 29bd d89a 28bd 10a7 373c 03f8 ab3b
00000120: 5804 cfbc c23c f2bb 07fe 92bc ac62 4ebd
00000130: 1be7 613d 8d8f c0bc 8323 7b3c b88f 67bc
00000140: e6af 4d3d ba73 29bb 26a6 debc 326c 823d
00000150: 7406 553c 95d2 bb3c b2d7 92bd d0d1 593b
00000160: e19d b03c 92cd 27bd 1f48 d7bc f014 a83d
00000170: 306d 543c 506e e83b c9bf c4bc 4168 343d
00000180: 1df7 97bd 7c57 0e3c 5ec9 6ebc c962 a13d
00000190: cfbb 7dbd cbfc db3d 891e 19bd 93ab 243d
000001a0: eec9 20bd 6047 95bd 67b3 debc d150 85bc
000001b0: b380 d8bc 3fcc e53b ff63 253d 4893 21bd
000001c0: 2af0 cdbc 2f61 803d 17ca 9b3d 50d8 4e3d
000001d0: 5831 debb 67c3 50bd 6bba eebc 0fa4 eb3c
000001e0: 6795 abbd 586b 073a 51d9 b13d 0b85 55bd
000001f0: 7d1b 59bd 7703 40bd 6ae5 7b3a df67 9ebd
00000200: 59e7 7fbd ecbc b03c fa78 bbbd 3a26 623c
00000210: ada3 07bd 173b b5bc 6e83 0dbd 4c0a a03d
00000220: 83a6 323d 3594 a63d ef0d 81bd 2ead b53d
00000230: 21f2 243d 2e16 74bd e722 1ebd 8314 a43c
00000240: 089a 83bd 1637 d43d 533e 48bd 9b47 8b3d
00000250: 0d21 cabd 1461 ca3c b484 8abc 6925 8d3d
00000260: 2b6f ec3c c6ab e5bb 6f8c 50bd 13c2 573d
00000270: 2cb5 1d3d 890a 4d3c c14e 36bd 4637 623d
00000280: 1a8d 3dbd 4e7f 6abc eb1a df3d 73c7 063c
00000290: 362a f93c d3a5 853d 15b7 86bd 58b6 6a3c
000002a0: 4ca5 4abc d39b ffbc a920 763c 349a ac3d
000002b0: 5e26 87bb 0455 00bc 1b53 7e3c 5acf a83c
000002c0: 50e1 d03b 2b2b a63d aa6a 493b 085d 103d
000002d0: 45fe e03c 4102 88bb ec70 663c 40f0 79bd
000002e0: 666d c73c 6381 05bd 0fe1 b33d 632f debc
000002f0: 98a6 e4bc 318b a63d d394 9abc 46f5 773d
00000300: a81f 6e3c 9182 a2bd ffc4 bdbd b87e 52bd
00000310: cc8f aebc a511 833c 8a67 a63c 91b9 91bc
00000320: 07ef b73b 723e 3a3c 107f 27bd 80f0 21bd
00000330: 74f8 44bd c917 f0bc 501e 9cba bc57 9e3b
00000340: 1e94 f03c 6a88 0b3d bf6a 773c fd75 333d
00000350: eb92 41bd 0b7e 55bd 6b4d b93d 4599 e63c
00000360: 6bf2 c53b 9325 a2bd d347 2b3d 87f4 22bd
00000370: 2df0 7dbd 498b 4c3c b977 7f3d c181 2bbd
00000380: b5f7 e8bc 3905 bdbd df19 dbbc 2b51 253d
00000390: e61e 253d 7bc7 c6bd a409 64bd 3316 b8bd
000003a0: c366 3cbd e4ea ae3c 5992 eebc 6111 f2bc
000003b0: 0551 aabd 8afe 9f3c 2534 533c 9e64 d9bc
000003c0: 65b7 b6bd 8ec7 4c3d 823d 443c ad3b 51bd
000003d0: 690e c4bd 6200 8dbd 33bf 253d baa5 72bb
000003e0: ca88 823b 08cd 36bc 951b 93bd d3e9 4e3d
000003f0: 3b8f 413d 0767 a83d 8230 8f3a 054d b8bc
-0.0022952377 -0.021023953 0.015562622 -0.037695672 -0.016968414 0.013344531 -0.009547925 0.04036427
-0.077617735 0.027850352 -0.0031874795 0.05567639 -0.030640325 -0.009535499 0.022580845 -0.0920063
-0.03639249 -0.053076185 -0.08165411 0.06876772 -0.03697165 -0.056298662 0.027883202 0.047986202
-0.002948996 0.010324802 0.04379068 -0.03606653 -0.012787155 -0.078237236 -0.046745826 -0.029936964
-0.010113141 -0.056084644 -0.076889694 -0.041926797 -0.04496312 0.051678434 0.026057458 0.027837101
-0.029204508 0.047822334 -0.06886266 -0.07281899 0.026670502 -0.035938993 -0.08358597 0.07917765
-0.034991417 0.090592295 0.037511297 -0.030054554 -0.044870596 0.024189087 -0.012125136 0.016617188
0.03111694 0.06744916 0.012384417 -0.03247249 0.05248679 0.0062291487 -0.01572575 -0.017011795
0.045835476 -0.06553248 0.048609402 0.033763316 -0.041372333 -0.041163296 0.011209264 0.005248071
-0.025270626 -0.007392497 -0.017943395 -0.05038707 0.05515204 -0.02350595 0.015328291 -0.014133386
0.050216578 -0.0025856332 -0.027178835 0.06368293 0.013002027 0.022927562 -0.07170047 0.003323663
0.021559658 -0.04096753 -0.026279507 0.082071185 0.012965485 0.0070932284 -0.024017232 0.044044737
-0.0742018 0.00868785 -0.014574377 0.0788017 -0.061946686 0.10741576 -0.037382636 0.04020269
-0.039255075 -0.07289004 -0.027185155 -0.016273888 -0.026428556 0.0070128734 0.040378567 -0.0394471
-0.025138933 0.06268536 0.07606905 0.05049926 -0.0067807846 -0.0509676 -0.029141625 0.028764753
-0.083781056 0.0005165837 0.08684028 -0.052128833 -0.05300473 -0.046878304 0.00096090755 -0.077346556
-0.06247649 0.02157446 -0.09153934 0.013803059 -0.033115078 -0.022122903 -0.03454917 0.07814464
0.04361583 0.08133737 -0.06301486 0.08870922 0.040269975 -0.059591465 -0.038607504 0.020029312
-0.064258635 0.10362069 -0.048887562 0.06800767 -0.09869585 0.024704494 -0.01690898 0.06891901
0.028861603 -0.0070090024 -0.050915178 0.052675318 0.038502857 0.012514719 -0.0445087 0.055228494
-0.046277143 -0.014312578 0.10893806 0.008226263 0.030415636 0.06525769 -0.06577889 0.014325701
-0.012368511 -0.031202232 0.015022435 0.084278494 -0.004124447 -0.007832769 0.015522744 0.020606685
0.0063745156 0.081137024 0.0030733743 0.03524497 0.027464995 -0.0041506593 0.014065009 -0.061020136
0.024344157 -0.032594096 0.08783161 -0.027122205 -0.02791147 0.081320174 -0.018869793 0.060536645
0.014533915 -0.0793506 -0.0926609 -0.05139038 -0.021308802 0.015999625 0.020313043 -0.01778868
0.005613211 0.011367427 -0.04089266 -0.039536 -0.048088506 -0.029308217 -0.0011910889 0.004832236
0.029367503 0.03406564 0.015101134 0.043813694 -0.047259253 -0.052122157 0.090479694 0.028149256
0.0060408614 -0.07917323 0.041816544 -0.03978398 -0.061996628 0.01248438 0.062370036 -0.04187179
-0.028438428 -0.09229512 -0.026745735 0.04036061 0.04031267 -0.09706017 -0.055673257 -0.08988609
-0.04599644 0.021352239 -0.029122518 -0.029549303 -0.083162345 0.019530553 0.01289085 -0.026537236
-0.089216985 0.049994998 0.011977555 -0.051082302 -0.09573061 -0.06884839 0.040465545 -0.003702505
0.0039835917 -0.011157282 -0.07182995 0.05051596 0.047255736 0.08222776 0.0010924491 -0.022497663

sequential/conv2d_1/BiasAdd;sequential/conv2d_2/Conv2D;sequential/conv2d_1/Conv2D;sequential/conv2d_1/BiasAdd/ReadVariableOp/resource f4 [64]
00000000: ba76 e13c b69e c4bc c812 bcbb bdbf 7a3c
00000010: 376a a9bc 2be9 09bd 863b babb 14a3 aebc
00000020: f4cb a3bc 548b 29bd 4e9a 46bb ab26 56bd
00000030: 428a c1bc f378 6c3c 08d8 aabc 7ced 9e3c
00000040: 22f1 52bd d434 9c3b 9539 9cbc f538 2fbd
00000050: 101d 7c3b 71e3 fbbc 64ca 2ab9 c364 ea3c
00000060: fee2 5abc 8c84 7d3b 2801 75bc 22d8 a9bc
00000070: c312 28bc 4b71 11bc b713 20bd 02dc 51bc
00000080: d6ab 05bc a573 8c3c a899 c3bc 8d67 71bc
00000090: c8c4 f2ba ada2 3bbc e28e 163b ff6c 3dbc
000000a0: 2b96 d3ba f116 f83b 8f93 61bc 325f 8c3c
000000b0: ee87 83bc eba7 c83a 9eb1 813c 8a1f da3b
000000c0: 78bb fa3b 1e15 81bc 71b5 20bd 8b8f 113d
000000d0: c887 b8bb c21b c8bc 634e 223b 3ac5 7e3b
000000e0: eca6 d8bc 9698 4cbd 60ec a7bb 398a 8c3c
000000f0: 3c03 343c 3860 8fbb ca90 c6bc 1ba7 e4bb
0.027522434 -0.02400146 -0.0057395436 0.015304503 -0.02068053 -0.033669632 -0.0056833653 -0.021317996
-0.019994713 -0.04139264 -0.0030304375 -0.05228297 -0.023625497 0.014433133 -0.020854965 0.01940035
-0.051499493 0.00476704 -0.019070426 -0.042778928 0.003846947 -0.030748101 -0.0001628786 0.0286125
-0.013359783 0.003868374 -0.014953889 -0.020732943 -0.010258379 -0.008877109 -0.0390813 -0.012808802
-0.008158645 0.017144987 -0.02387698 -0.014734161 -0.001852178 -0.011452359 0.0022973348 -0.011561631
-0.0016142776 0.007571094 -0.013768091 0.017135236 -0.016056027 0.0015308833 0.015831765 0.006656592
0.0076517425 -0.01575714 -0.039235536 0.035537284 -0.0056314208 -0.024427298 0.002476596 0.003887488
-0.026446782 -0.049950205 -0.0051246136 0.017155753 0.010987099 -0.004375484 -0.024238963 -0.0069779283

sequential/conv2d_2/BiasAdd;sequential/conv2d_2/Conv2D;sequential/conv2d_2/BiasAdd/ReadVariableOp/resource f4 [64]
00000000: bee4 56bd a302 b3bc 2d03 6ebd 792c 1abd
00000010: 6553 b3bc b088 f1bc b24b afbc 9ab9 31bd
00000020: 023e f5bc 8587 4fbd 8615 03bd da10 7dbc
00000030: 6310 c4bc 8cfc 05bd 354a 55bc b524 47bd
00000040: 62ad 83bd 9de5 09bd 3bda b6bc 58d8 f9bc
00000050: bfb4 fcbc aa42 0fbd 5d51 82bd f395 09bd
00000060: eadc 06bd 2576 37bd 940c a7bc 4a4a 9cbc
00000070: 5480 9bbc a324 36bd d228 3dbd 9d6d f93a
00000080: 70ee d4bc 7f4b 8ebc 9d5c 5bbd 6f20 13bd
00000090: 6a26 08bd 7045 ddbc 6ff9 8ebc 3f8a 56bc
000000a0: 2549 14bd e14b 01bd 0e7d 21bd 2378 81bc
000000b0: 18a2 34bd bdbe c0bc 75fb 16bd 79e7 23bd
000000c0: d2a9 9abc 7600 cabc 6255 b8bc 5c45 7ebd
000000d0: b4a0 46bd 316f a8bc 2ffa 19bd e134 72bd
000000e0: e36c 63bc 7009 97ba cc17 85bd 1520 18bd
000000f0: 26b9 3fbd 59ef cbbc c393 58bd 6cf6 1ebd
-0.05246424 -0.021851843 -0.058108497 -0.03764007 -0.021890352 -0.029484123 -0.021398399 -0.043389894
-0.029936794 -0.05066635 -0.03200295 -0.015445912 -0.023933595 -0.03271155 -0.013018181 -0.04861899
-0.064295545 -0.033666242 -0.022320857 -0.030498669 -0.030847905 -0.034975685 -0.06363175 -0.03359027
-0.032925524 -0.044790406 -0.02039174 -0.019078393 -0.01898209 -0.044468533 -0.046181507 0.001902986
-0.025992602 -0.017369984 -0.05355512 -0.035919603 -0.03323976 -0.02701065 -0.017452924 -0.013094484
-0.03620257 -0.031566504 -0.039425902 -0.015804356 -0.044099897 -0.023528451 -0.0368609 -0.04001567
-0.018879805 -0.024658423 -0.022501651 -0.062077865 -0.048493102 -0.020560833 -0.03759211 -0.05913246
-0.013880941 -0.0011523198 -0.064986795 -0.03713997 -0.04680743 -0.024894403 -0.05287529 -0.038809225
